scripts/shell/hier/checkpoint_secpass_hover_2.pt (torch, 477859 bytes, 32 tensors)

module.base.0.weight f4 [26]
000000 3e 93 83 3f 0a 99 88 3f 6b 60 84 3f a0 d4 7d 3f
       1.027931 1.0671704 1.0341924 0.99152565
000010 0d 3f 86 3f 02 86 7d 3f 6d 51 82 3f 1b b7 81 3f
       1.0487992 0.99032605 1.0181099 1.0134004
000020 53 45 71 3f db f8 87 3f 4d bc 5c 3f 9c 57 54 3f
       0.94246405 1.062282 0.86224824 0.8294618
000030 87 5e 85 3f 99 13 80 3f 1d 5f 86 3f 68 cb 81 3f
       1.0419472 1.0005981 1.0497776 1.01402
000040 3c 8d 7d 3f e9 1b 88 3f a6 50 81 3f 5b 67 5e 3f
       0.9904363 1.0633518 1.0102737 0.8687646
000050 c4 21 5e 3f 53 5f 60 3f 27 47 5f 3f 9f 45 85 3f
       0.8677027 0.87645453 0.87217945 1.0411872
000060 5f 41 85 3f ae b2 7b 3f
       1.0410575 0.9831952

module.base.0.bias f4 [26]
000000 df e0 a3 3c 24 b6 05 3b b4 62 b3 3c ef a7 82 bc
       0.020004688 0.0020402754 0.021897651 -0.015949218
000010 48 6a 5b bc 43 47 9e 3b 71 3f c4 3c 33 ea a6 3b
       -0.013392039 0.0048302724 0.023956032 0.0050938367
000020 dd 39 14 3d 67 b2 27 bd 0b bd dc bc 4b 43 40 bb
       0.036187995 -0.040941622 -0.026945611 -0.0029336985
000030 13 8a c9 3c 1b 58 b2 bc 58 15 a6 3b 07 24 7a 3b
       0.024601972 -0.021770528 0.0050684623 0.0038168447
000040 42 0d 2a 3c 1f c3 03 3c 1f 5c 38 bc c1 bb 99 bc
       0.0103791375 0.008042126 -0.011252432 -0.018766286
000050 fc a9 f3 3b d9 6b a7 bc b2 4b 3d bc ea dd 82 3c
       0.007436035 -0.020437168 -0.011553692 0.015974957
000060 72 ca 14 3b 5d 6e bb 3c
       0.0022703675 0.022879774

module.base.1.layers.0.weight f4 [256, 26]
000000 63 7c 3e be 30 fa 9d bd a3 41 fa bc c5 85 06 bd
       -0.18602137 -0.07713735 -0.030548876 -0.032842416
000010 dc f2 f7 bc f3 99 e2 3d e0 38 04 be c2 f2 00 3e
       -0.030267172 0.1106452 -0.12912321 0.12592605
000020 0a ee e4 bd 00 cc 53 bc 92 ea 3e bc 67 48 b6 3d
       -0.11178215 -0.012927055 -0.011652606 0.089005284
000030 87 c9 f9 bd f5 73 b2 3d ed 30 3e bc 95 ba 14 be
       -0.121966414 0.08713523 -0.0116083445 -0.145243
000040 60 43 1e be 25 23 b5 3c 80 7e 4f 3e 88 5b 09 be
       -0.15455389 0.022111485 0.202631 -0.13413823
000050 d9 2b d7 3c 2d 51 45 be 23 5b 0a 3e e9 e9 86 bd
       0.026266025 -0.19269247 0.13511328 -0.065875836
000060 88 b1 c7 3c b1 09 ca bd 26 d3 99 3d 18 59 12 be
       0.024376646 -0.0986513 0.075109765 -0.14291799
000070 cc f0 fd bd 93 7d 43 be 67 eb 0b be e2 95 b4 3d
       -0.12399444 -0.19090872 -0.13664018 0.088176504
000080 13 14 21 be 16 c5 bc bd 54 43 41 3e 9a 06 3b be
       -0.15730314 -0.09217279 0.1887334 -0.18264237
000090 e7 81 a3 bd 7f 62 80 3d 55 35 04 3e 8c 8e da bd
       -0.07983761 0.06268787 0.1291097 -0.1067172
0000a0 c8 4c 3a 3d 32 8d eb 3d cb 14 93 3d 96 4a f1 bd
       0.04548338 0.1150154 0.071817 -0.11781804
0000b0 30 2a 09 be 61 e7 66 bd 79 c1 1f 3e 15 07 3c be
       -0.13395 -0.056373004 0.15601148 -0.18362077
0000c0 0d 00 2e bd e8 fe 05 3d b8 e6 84 3e 9f 15 28 be
       -0.042480517 0.0327138 0.25957274 -0.16414498
0000d0 98 0e 14 3e a7 36 81 bd a5 97 2d 3e 43 54 50 3c
       0.14458692 -0.06309252 0.16952379 0.012715402
0000e0 9f 58 61 3d 44 99 1a be a2 2e cf bd e7 ee e8 bd
       0.055016156 -0.15097529 -0.101163164 -0.11373692
0000f0 b5 74 4b bd 75 2f 84 3d 77 40 d4 bd af 4a ea bd
       -0.049671847 0.06454364 -0.10363858 -0.11440026
000100 59 eb bc bd 01 23 1d 3e f7 62 2b 3e 3c e1 d0 3d
       -0.092245765 0.15345384 0.16736971 0.1019921
000110 ac 52 1e 3e f5 9d 0b be 8f 8f d1 3d da 5c 55 bd
       0.15461224 -0.13634475 0.1023246 -0.052090503
000120 ab a5 1e 3e 00 72 fe bd b4 fb 55 3d 54 45 c0 3c
       0.15492885 -0.124240875 0.052241996 0.023470558
000130 e0 9e 0c 3e 9b 33 c3 3d 10 7e b1 3b c4 6f 31 be
       0.13732481 0.09531327 0.005416639 -0.17327791
000140 26 58 4f 3e 41 05 5b bc 2f 9d 18 bd 37 e6 f3 bd
       0.2024847 -0.013367952 -0.037259277 -0.11909144
000150 e4 2e 8f 3d 50 41 1f 3e 07 db 2f 3e ea 0c 2c be
       0.069913656 0.15552258 0.17173396 -0.16801801
000160 06 f3 27 3d ac 0e 10 3e 89 cf 29 be 81 21 02 3d
       0.04100325 0.14068097 -0.16583075 0.031770233
000170 3f 47 9a 3d f9 f3 0f be b2 2a 05 be 01 75 2a be
       0.0753312 -0.14057912 -0.13004568 -0.16646196
000180 63 53 ee bd 49 94 52 bd 0f 95 31 be d0 a0 a0 3d
       -0.116369985 -0.051410947 -0.17342018 0.078431726
000190 91 f6 4e 3d fc 17 4f 3e f1 f1 24 be 08 73 67 3d
       0.050528113 0.20223993 -0.16107918 0.056506187
0001a0 1a d6 43 be c2 9f 7c bd b1 e3 b4 3c a6 cb a3 bd
       -0.19124642 -0.061675794 0.022081228 -0.07997827
0001b0 8d e5 2d be 14 24 c3 3d 0b b8 c1 3d ab 3e e4 bd
       -0.16982098 0.09528366 0.094589315 -0.111447655
0001c0 8c 81 88 bd a1 0e 49 3e 2f bb 96 bd 68 02 91 3c
       -0.06665334 0.19634487 -0.07359921 0.017701343
0001d0 0c 63 e0 bd 54 46 5b 3d 4c 0b ff bd 0e 38 2e be
       -0.10956392 0.053533867 -0.124533266 -0.1701357
0001e0 e0 a5 15 bd dd 53 09 3e 44 52 00 3e bf c9 9d bc
       -0.036535144 0.13410898 0.12531382 -0.01926124
0001f0 8a 8e 21 be a6 9a 04 3c 22 b8 09 be db 30 1f bd
       -0.1577703 0.008093512 -0.13449147 -0.03886495
000200 3f 58 11 3e 45 bb 30 3e 6c 7c 12 3d e9 2d 46 3e
       0.1419382 0.17258938 0.03576319 0.19353451
000210 70 96 18 be 45 67 04 3c eb b8 64 3d 13 44 46 3d
       -0.14901137 0.008081262 0.055840414 0.048404764
000220 56 6f 2e be 66 28 bf bd 9d ed 8d bd b6 7d f4 bc
       -0.17034659 -0.09333877 -0.06930087 -0.0298451
000230 00 3a 19 3e dd 51 14 bd a6 a6 76 3d cd de 16 be
       0.14963531 -0.036210883 0.060217522 -0.14733429
000240 7a 43 1f be 73 db 16 3e d9 a4 94 3d ea cc 95 3d
       -0.15553084 0.1473215 0.07258005 0.07314475
000250 41 45 4c bd 15 28 06 3e 1d 78 d3 bb f7 c7 17 bb
       -0.049870733 0.13101228 -0.0064535276 -0.002315996
000260 c2 47 cb 3d 7e 1a 32 3e 0c c6 f0 bd c8 6b 9d bd
       0.09925796 0.17392918 -0.117565244 -0.07686573
000270 ef f7 1e 3e 76 84 2e 3e 73 21 d6 3d 8c 20 35 3d
       0.15524267 0.17042717 0.10455599 0.044220492
000280 0e 0d 9f bd 90 48 db 3d 67 b1 00 be 72 e7 7d 3b
       -0.07766162 0.107071996 -0.12567674 0.0038742688
000290 e4 57 ca bd 7f 46 07 be 9c 90 44 3e 74 eb 06 bc
       -0.09880045 -0.13210486 0.19195789 -0.008234847
0002a0 2d a8 cc 3d 38 14 07 3d c5 67 19 be a4 60 cc bc
       0.099930145 0.032978266 -0.14980991 -0.024948426
0002b0 0c e4 32 3d 36 fa d3 bd 64 77 46 3e 6e 11 86 3c
       0.043674514 -0.10350458 0.19381481 0.016365733
0002c0 12 99 c5 bd 15 eb 2e be 92 da 0a 3e df 77 41 3c
       -0.096483365 -0.17081864 0.1355994 0.011808365
0002d0 aa d0 45 3d ca 55 10 be 98 89 0a bd 2f f5 52 3d
       0.0482947 -0.14095226 -0.033822626 0.051503357
0002e0 ed da aa bd 1e 2b 33 be fc 86 82 bd 3f e6 29 be
       -0.08342538 -0.17496917 -0.063734025 -0.16591738
0002f0 b1 f5 7f 3d e8 6b 4b be c0 da 0b be 7c c5 bc bc
       0.06249017 -0.19865382 -0.13657665 -0.023043387
000300 01 e4 ac 3d 0d e9 b6 bd 3b 1f ce 3d 66 bb b6 bc
       0.08441926 -0.0893117 0.100645505 -0.022306155
000310 ad c1 2c be af 61 15 be f0 19 11 be 38 73 38 3e
       -0.16870756 -0.14588045 -0.1417005 0.18012702
000320 58 ae ec bd 0d 10 29 3e 51 06 5d bb 6c 58 1c 3e
       -0.11556691 0.16510029 -0.0033725689 0.15268105
000330 4a b8 50 bd 38 0e 6a 3e d5 79 4f 3c 31 db fc 3d
       -0.050957 0.22856987 0.012663324 0.12346495
000340 6a de 28 be 41 e4 1d be da f9 b0 bc c6 22 85 3d
       -0.16491094 -0.15419103 -0.021603514 0.06500773
000350 88 1c bc bc c6 99 9e bd af ff 3e 3e 38 64 10 3e
       -0.022962824 -0.07744174 0.18652223 0.1410073
000360 d5 c0 37 3d 80 c6 0f 3e 19 95 80 3d b6 33 cf bd
       0.044861633 0.14040565 0.06278438 -0.10117285
000370 b6 44 d7 bd 6a ab 4f 3e 51 df 03 be 79 28 cc bd
       -0.105111524 0.20280233 -0.12878157 -0.09968657
000380 07 84 8d 3d 2c 8a 12 be a0 6f 7e 3d 86 7f cf bd
       0.06909948 -0.14310521 0.062118173 -0.10131745
000390 44 e9 f7 3d 43 3c 38 bd cb 5e 40 bc 12 99 d5 3d
       0.12105039 -0.044979345 -0.01174135 0.104295865
0003a0 55 c7 3d be 07 c7 43 be 02 d8 6a bd 89 97 da bd
       -0.1853307 -0.19118892 -0.057334907 -0.10673434
0003b0 eb cd fe 3c 93 76 1c 3e 3d 96 4a 3d bd 1d 1b be
       0.031104049 0.15279607 0.049459685 -0.15148063
0003c0 10 7b 4a 3e 6c b9 73 bd 66 9d c4 bb f4 7f a5 bc
       0.19773507 -0.059503004 -0.0060002087 -0.020202614
0003d0 ab 71 26 3e cb a0 de 3d df d0 fd 3d 11 ee d9 3c
       0.16254298 0.108705126 0.123933546 0.026602777
0003e0 29 56 e8 3d e4 a2 25 3e 76 66 9b bd 22 38 a9 3d
       0.11344559 0.16175419 -0.07587902 0.082626596
0003f0 a6 3f 5b 3d 30 6c 53 3e 1d 5f 12 3e 7c 60 1f 3e
       0.053527497 0.20646739 0.14294095 0.1556415

module.base.1.layers.0.bias f4 [256]
000000 11 ef 8e bd e9 18 c0 bd fa 14 a7 3c 3b 86 47 3e
       -0.06979192 -0.09379751 0.020395745 0.19484799
000010 b3 a4 34 3e 8f 49 11 3d 83 4d 4a be 72 0c b3 3d
       0.17640953 0.03547054 -0.19756131 0.08742608
000020 51 cf e3 bd 65 83 fe 3d 84 d1 39 3e 2e bc 2b be
       -0.11123527 0.12427405 0.1814633 -0.16771004
000030 85 9f e6 3b 34 ae 24 3c c7 62 2c be e3 fc 64 3d
       0.007038059 0.010051299 -0.16834556 0.055905234
000040 89 8b 29 3e e3 60 fe bd c7 30 2d be 2b 74 50 3c
       0.16557135 -0.124208234 -0.16913138 0.012723009
000050 c3 64 3b 3e 03 a4 81 3d 78 cc 0b 3d 42 af 97 bc
       0.18300156 0.06330111 0.034130543 -0.018516187
000060 25 a0 05 3e 5a 3e 07 3d 99 fb 45 3e 7f 2a 26 3d
       0.13049372 0.033018447 0.19334258 0.04056787
000070 c1 c9 b7 bc 30 be f8 bd f8 8c 47 3e ee 3e a7 bd
       -0.022435071 -0.121456504 0.19487369 -0.081663
000080 c8 07 3d be 51 92 07 be d2 c9 0d bd 50 7c 88 bd
       -0.1846 -0.13239409 -0.0346163 -0.06664336
000090 cb 39 01 be 69 8d 3a 3e dd 79 4b bd 30 b8 20 be
       -0.12619703 0.18218006 -0.049676765 -0.15695262
0000a0 dd 7f 35 be eb e9 27 bd 54 3f 33 bb 31 56 3c 3e
       -0.17724557 -0.040994566 -0.002735098 0.18392254
0000b0 51 34 41 3e c6 39 4e be 69 0d f9 bc 82 7c 79 3c
       0.18867613 -0.20139226 -0.030401902 0.015227439
0000c0 78 06 09 3e 86 1e 12 3e 69 f6 37 3d 2e 62 06 3e
       0.13381374 0.14269456 0.04491273 0.1312339
0000d0 52 44 09 be d8 87 32 3e b6 e9 2c be 82 ec 54 3c
       -0.13404968 0.17434633 -0.16886029 0.012995841
0000e0 49 58 c2 bd d5 79 05 be be 6e 13 be 66 e9 26 3e
       -0.09489495 -0.13034756 -0.14397714 0.16299972
0000f0 85 37 80 bd f0 75 38 3e 0a b5 1b 3e e3 ed 11 be
       -0.062605895 0.1801374 0.1520578 -0.14250903
000100 52 73 fb 3b 05 1c a1 bd 4f 65 1b bd 44 ac 17 3c
       0.0076736594 -0.078666724 -0.037938412 0.00925738
000110 2d 99 3c be a5 fd d4 bd f3 c9 3d 3d d8 91 2e 3e
       -0.18417807 -0.10399941 0.046335172 0.17047822
000120 8d 20 55 3d ec a7 15 bb 40 91 c7 3d ef e0 cb bc
       0.052032996 -0.0022835685 0.09744501 -0.02488753
000130 c1 e7 db bb 6f a2 b3 3d 24 98 0b bd 31 39 a1 bd
       -0.006710977 0.08771216 -0.03408064 -0.078722365
000140 a5 e0 2a be 33 1e 05 3e 59 94 c5 bd c6 d3 72 bd
       -0.16687258 0.12999801 -0.09647436 -0.059283994
000150 5c 32 be bc 60 95 ca bd 0f 25 40 3d c4 93 94 3c
       -0.023217373 -0.09891772 0.04691034 0.018136866
000160 fd 80 80 3d c9 eb b0 bb d6 a7 32 bd 2a be 18 3e
       0.062746026 -0.0053992015 -0.043617092 0.14916292
000170 3e b2 2e 3e ad 43 23 be 29 e6 22 be e4 64 ac bd
       0.17060181 -0.15943785 -0.15908112 -0.08417681
000180 a3 89 0a be 2a 3d 10 be d6 19 4a 3d a0 40 21 3d
       -0.13529067 -0.14085832 0.049341045 0.03936827
000190 74 55 32 be 0d bb 8e 3d 31 82 67 bc df 77 f1 bb
       -0.1741541 0.06969271 -0.014130161 -0.007369026
0001a0 c2 32 70 bd 76 cd 16 3e fe 6e 38 3c 70 00 06 3d
       -0.058642156 0.14726815 0.011256931 0.03271526
0001b0 15 bf ca bd 24 34 48 3e 84 77 41 be 6e 8b 0d be
       -0.09899727 0.1955114 -0.18893248 -0.1382272
0001c0 b2 8a 5b bd a8 09 09 be 3d 00 fe bc f3 03 15 3d
       -0.053599067 -0.1338259 -0.031005973 0.03638072
0001d0 5f 73 07 be 5e e9 13 3d 88 6d 0b be b3 30 b1 3d
       -0.13227604 0.03611123 -0.13616002 0.08651867
0001e0 b8 53 0d be a5 75 4b 3e f8 53 ca 3b 78 5f 2a be
       -0.13801467 0.19869097 0.0061745606 -0.16637981
0001f0 ab 37 3a be 6a 1c e2 bd ac c3 a0 3d 30 d7 ea bd
       -0.18185298 -0.11040576 0.078498214 -0.11466825
000200 14 2a 4a be 37 cc 30 3d 29 42 a0 bd 05 8c 8d bd
       -0.19742614 0.043163504 -0.07825119 -0.06911472
000210 67 7e 1f 3e bc 7a fd 3b 94 16 2f be 83 24 39 3e
       0.15575562 0.0077355783 -0.17098457 0.18080334
000220 e2 23 27 3e 28 45 28 3e 2e 6f 80 3d b4 03 0f 3e
       0.16322282 0.16432631 0.06271206 0.13966256
000230 e7 f4 19 bd 91 d9 f6 3d 9e 09 cb 3d 55 16 92 3a
       -0.037587073 0.12053216 0.09913944 0.0011145571
000240 10 d1 e0 3c a3 f9 3b 3d c1 55 c4 3c dd 1d 16 be
       0.027443439 0.04589237 0.023966672 -0.1465983
000250 6e 49 02 be 0f b4 c4 3d 8b 90 20 3e fd fc 35 3d
       -0.12723324 0.09604656 0.15680139 0.04443072
000260 1e aa bd bd fb 76 a5 3c a4 50 f0 bd 87 51 b6 3d
       -0.09260963 0.020198336 -0.11734131 0.08902269
000270 79 c4 25 3e 56 72 2b 3e c2 1b 2c 3e df 6f 12 3e
       0.1618823 0.16742834 0.16807464 0.14300488
000280 3c 96 a7 bd 50 03 27 3e 08 98 06 be 5a 2c a7 bd
       -0.08182952 0.16309857 -0.13143933 -0.08162756
000290 ec 3b 32 bc f6 a5 15 3e fa 67 aa 3c 9c 4b 30 bd
       -0.010878544 0.1461409 0.020801533 -0.043040857
0002a0 ed 73 6c 3d a6 4c e9 3d 89 e7 e6 bd 2b c7 07 be
       0.057727743 0.11391573 -0.112746306 -0.1325957
0002b0 d4 5d f5 3d 55 4f 82 bd 27 9e 8f bc d0 05 61 3d
       0.11980787 -0.06362788 -0.017531468 0.054937184
0002c0 08 c8 bc 3d 5e 3f df bd 19 e4 d9 bd 32 bd fc bd
       0.092178404 -0.10900758 -0.10639209 -0.12340774
0002d0 5b 41 19 3e d4 de 8e bd dd e1 9a 3d 2a a8 e1 3d
       0.14966337 -0.06976095 0.07562611 0.11018403
0002e0 77 f0 5f bc e5 9d a1 bd 17 ab 0a 3e 84 dd 36 3e
       -0.013668171 -0.07891444 0.13541828 0.17857939
0002f0 e3 dc bf bb f0 c6 61 bd f7 5e 37 3d 56 6d c1 bc
       -0.005855189 -0.055121362 0.0447683 -0.023611706
000300 80 c8 01 be 0f 5f 01 be b9 0f 3b be 0c 70 94 bb
       -0.12674141 -0.12633918 -0.18267716 -0.0045299586
000310 33 ed a8 bd c9 61 86 bd 27 92 e7 3c f4 e1 33 be
       -0.08248367 -0.0656162 0.028267933 -0.17566663
000320 44 fc 5a bc f6 90 61 3d 93 a7 3a 3d d2 56 0a be
       -0.013365809 0.055069886 0.045569967 -0.13509682
000330 b7 03 bc 3d 1a fe c7 3d 9e fa bf bc 46 88 80 3d
       0.09180396 0.09765263 -0.023434933 0.06275992
000340 a4 70 11 be ef a9 b5 bc bc d4 08 3e 79 5a 91 3c
       -0.14203125 -0.022175757 0.13362402 0.017743336
000350 e1 45 bb 3d 41 aa 59 bd 2b 38 c4 3c 14 65 02 3e
       0.09144188 -0.053140882 0.023952564 0.1273387
000360 79 74 1a 3e 74 04 fd 3d 05 f4 81 bd 20 2f a9 bc
       0.15083493 0.12354365 -0.06345371 -0.020652354
000370 b3 83 7f bd a7 a9 98 bd af 2a 0c be e3 45 96 3d
       -0.062381458 -0.074542336 -0.13688157 0.073375486
000380 e6 d4 23 3e d2 42 04 3e c7 a6 0d 3e 59 bb 2a be
       0.15999183 0.12916115 0.13833152 -0.1667303
000390 ca bd 7f bd ab 61 93 3d 69 a3 9c bd 69 a9 14 3d
       -0.062436856 0.07196363 -0.076483555 0.036294375
0003a0 5a 29 d7 3d af e8 1b bd d6 2d 3e 3e 28 2e 0b be
       0.10505934 -0.0380637 0.18572173 -0.13591826
0003b0 e9 a9 0a be 33 a6 aa 3d b8 70 f7 3d 38 32 42 be
       -0.13541378 0.08332481 0.12082046 -0.1896447
0003c0 d3 89 a6 ba 2f 48 03 bd 3a 8b 2a be f9 a8 2a be
       -0.001270587 -0.03205126 -0.16654673 -0.1666602
0003d0 94 9c d0 bd 38 07 06 3e 21 90 d4 bd 70 6d 16 be
       -0.10186115 0.13088691 -0.10379053 -0.14690185
0003e0 d5 48 01 bd e2 fe 41 be 30 af dc 3d 31 ad d8 3d
       -0.0315636 -0.18944886 0.10775602 0.10579909
0003f0 9e 61 ac bd e2 6c aa bc b5 93 51 bd f3 9a ee bd
       -0.084170565 -0.020803872 -0.051166255 -0.11650648

module.base.1.layers.2.weight f4 [256]
000000 a5 b9 81 3f dc dd 81 3f 61 1e 82 3f 74 d7 83 3f
       1.0134779 1.0145831 1.0165521 1.0300126
000010 b9 15 84 3f 87 52 81 3f 02 18 87 3f 64 40 84 3f
       1.0319129 1.010331 1.0554202 1.033215
000020 65 4e 82 3f 96 43 83 3f 9c d9 81 3f 5e 8a 83 3f
       1.0180174 1.0255 1.0144534 1.0276601
000030 e9 f4 81 3f 72 bd 7f 3f 04 9f 84 3f f6 73 7c 3f
       1.0152866 0.99898446 1.0361028 0.9861444
000040 5b a6 7b 3f 78 61 82 3f 99 ee 7c 3f 40 6f 88 3f
       0.98300713 1.0185995 0.9880157 1.0658951
000050 43 75 7c 3f d9 22 7f 3f 9f 5c 82 3f 12 20 7e 3f
       0.9861643 0.9966255 1.0184516 0.99267685
000060 cf 27 7e 3f 49 09 82 3f 93 02 82 3f ad e4 85 3f
       0.99279493 1.0159084 1.0157036 1.0460411
000070 41 8c 86 3f d1 5e 80 3f 98 04 84 3f 22 64 7f 3f
       1.0511552 1.0028936 1.0313902 0.99762166
000080 73 cd 7e 3f 67 81 83 3f 6d 44 84 3f d1 93 7e 3f
       0.9953224 1.0273865 1.0333382 0.994443
000090 ea fe 7c 3f 28 c5 81 3f 37 12 83 3f 23 1b 87 3f
       0.9882647 1.0138292 1.0239934 1.0555156
0000a0 c9 27 85 3f 0b c7 80 3f a0 fb 84 3f 20 c9 81 3f
       1.0402766 1.0060743 1.038929 1.0139503
0000b0 83 8a 83 3f 6c fc 86 3f 15 39 86 3f 89 99 7e 3f
       1.0276645 1.0545783 1.048617 0.99453026
0000c0 64 79 80 3f b7 79 8b 3f ab a0 81 3f 53 4f 81 3f
       1.0037045 1.089652 1.0127157 1.0102333
0000d0 7f bc 7d 3f e1 d6 84 3f fb 1d 83 3f ee c1 83 3f
       0.9911575 1.0378076 1.0243524 1.0293558
0000e0 a8 e0 82 3f dd d9 84 3f 27 2a 83 3f 33 c2 80 3f
       1.022481 1.0378987 1.0247239 1.0059265
0000f0 1b 9a 7e 3f e4 5a 82 3f 29 19 7e 3f 54 12 81 3f
       0.99453896 1.0183988 0.9925714 1.0083718
000100 51 25 84 3f cb 2c 7f 3f a6 9f 80 3f ad 0a 80 3f
       1.0323888 0.99677724 1.0048721 1.0003258
000110 e0 de 80 3f c4 3a 81 3f 87 65 7c 3f 1f c3 82 3f
       1.0068016 1.0096059 0.9859242 1.0215796
000120 14 ab 80 3f ab 07 7f 3f 41 cf 81 3f 66 ad 83 3f
       1.0052209 0.99621075 1.0141374 1.0287292
000130 a7 45 81 3f 6f 2e 81 3f f3 2d 80 3f e8 ae 83 3f
       1.0099381 1.0092295 1.0014023 1.0287752
000140 76 4b 80 3f bb e3 82 3f e7 19 7e 3f fd 9a 80 3f
       1.0023029 1.0225748 0.99258274 1.0047299
000150 4c 93 7f 3f e2 01 81 3f ee 38 80 3f f4 5b 83 3f
       0.9983413 1.00787 1.0017374 1.0262437
000160 f6 77 7d 3f 51 a9 7a 3f 76 33 7b 3f 4a 0e 86 3f
       0.9901117 0.97914606 0.981254 1.0473111
000170 37 e3 7f 3f ba 78 80 3f 91 31 7e 3f 0d 78 80 3f
       0.9995608 1.0036843 0.9929438 1.0036637
000180 42 22 80 3f 65 81 88 3f 0f b6 7f 3f 04 96 7f 3f
       1.0010455 1.0664488 0.99887174 0.9983828
000190 31 9c 80 3f 71 1f 82 3f be 30 86 3f 7a 5c 81 3f
       1.0047666 1.0165845 1.0483625 1.0106347
0001a0 e4 9f 7f 3f 90 81 80 3f e1 05 83 3f da ca 7d 3f
       0.9985335 1.0039539 1.0236169 0.9913765
0001b0 06 ae 7f 3f 87 99 80 3f 74 5f 80 3f de 1d 80 3f
       0.99874914 1.0046853 1.002913 1.0009115
0001c0 ee c1 7e 3f 35 a5 80 3f dd 35 80 3f 3f 12 81 3f
       0.99514663 1.0050417 1.0016438 1.0083693
0001d0 a9 48 7f 3f b9 0a 80 3f 3a 54 81 3f 61 46 81 3f
       0.99720246 1.0003272 1.0103829 1.0099603
0001e0 e1 f3 7e 3f 8a 52 83 3f 5d 28 81 3f 53 c1 81 3f
       0.9959088 1.0259564 1.0090443 1.0137123
0001f0 4e a3 82 3f f1 b2 80 3f cd 8a 83 3f dc 42 80 3f
       1.0206087 1.0054609 1.0276734 1.0020404
000200 c6 1f 82 3f a8 c8 80 3f 00 4c 82 3f 2b 30 7e 3f
       1.0165946 1.0061235 1.0179443 0.9929225
000210 a4 8e 81 3f cf f0 80 3f c6 96 80 3f 63 d0 80 3f
       1.0121655 1.0073489 1.0046012 1.0063595
000220 3d 14 80 3f 52 c4 81 3f 86 32 82 3f 33 68 80 3f
       1.0006176 1.0138037 1.0171669 1.0031799
000230 3e 30 83 3f 81 b1 83 3f 36 b8 7d 3f 4d 22 81 3f
       1.0249097 1.0288545 0.9910921 1.0088593
000240 da 3f 84 3f 19 53 88 3f ed 4c 7f 3f 0d 60 84 3f
       1.0331986 1.0650359 0.99726754 1.0341812
000250 65 5f 7f 3f 9f 26 81 3f 61 44 83 3f 13 15 81 3f
       0.99754936 1.0089911 1.0255243 1.0084556
000260 df eb 82 3f 68 83 89 3f d9 b3 7d 3f 23 b9 81 3f
       1.0228232 1.0743227 0.9910255 1.0134624
000270 8d fe 80 3f 5b df 7d 3f 23 58 85 3f 1c 04 7f 3f
       1.0077683 0.9916894 1.0417522 0.99615645
000280 92 48 82 3f 08 f5 80 3f af f4 7d 3f b4 04 7d 3f
       1.0178397 1.0074778 0.9920148 0.988353
000290 a4 9c 80 3f b3 d2 7e 3f 97 b7 81 3f 09 7f 81 3f
       1.0047803 0.9954025 1.0134152 1.0116893
0002a0 04 fb 83 3f a2 84 7f 3f ee 6c 82 3f e2 10 84 3f
       1.0310979 0.99811757 1.0189493 1.0317652
0002b0 a4 db 85 3f 9c 3d 81 3f 91 11 81 3f 79 b6 80 3f
       1.0457654 1.0096927 1.0083486 1.0055686
0002c0 83 41 81 3f cc 21 82 3f 02 5c 7c 3f 0f f7 87 3f
       1.0098118 1.0166564 0.9857789 1.0622271
0002d0 ee bc 82 3f 0f b6 80 3f 0e 41 7f 3f 38 64 82 3f
       1.0213907 1.005556 0.9970864 1.0186834
0002e0 31 15 7f 3f 02 5a 80 3f d1 91 7f 3f 79 6f 7e 3f
       0.9964171 1.0027468 0.99831873 0.99388844
0002f0 29 3e 81 3f 3b 68 83 3f 8e 0e 7f 3f c5 5f 85 3f
       1.0097095 1.0266184 0.99631584 1.0419852
000300 21 7e 79 3f 8a b2 82 3f b5 4c 82 3f f6 40 80 3f
       0.9745808 1.0210736 1.0179659 1.0019825
000310 a0 b4 84 3f f1 f0 7f 3f 7e 26 81 3f 91 62 82 3f
       1.0367622 0.9997702 1.0089872 1.018633
000320 a8 0e 84 3f 98 bf 7d 3f 59 1a 82 3f 18 1b 7f 3f
       1.0316973 0.99120474 1.0164291 0.99650717
000330 dc 39 80 3f 3d f0 81 3f 86 bf 80 3f f5 b8 80 3f
       1.0017657 1.015144 1.0058448 1.0056444
000340 f5 5b 82 3f 02 6d 88 3f d4 71 7f 3f c4 6f 7d 3f
       1.0184313 1.0658267 0.9978306 0.98998666
000350 ef 80 86 3f 5d 80 83 3f cd a0 83 3f b2 c8 82 3f
       1.0508097 1.0273548 1.0283448 1.0217497
000360 a1 e4 84 3f 33 58 81 3f 86 61 80 3f da 70 81 3f
       1.0382272 1.0105041 1.0029762 1.0112565
000370 9d 3a 7f 3f f6 e0 80 3f a1 c2 7e 3f 68 a5 82 3f
       0.9969881 1.0068653 0.9951573 1.0206728
000380 b9 71 80 3f 81 62 80 3f ba 2a 85 3f 2f 27 80 3f
       1.0034705 1.0030061 1.0403664 1.0011958
000390 67 5a 82 3f bf fe 7f 3f ee 20 83 3f 0e 53 81 3f
       1.0183839 0.99998087 1.0244424 1.0103471
0003a0 d7 a1 7a 3f d9 63 7a 3f 0e 44 80 3f 1b e7 80 3f
       0.979032 0.97808605 1.0020769 1.0070528
0003b0 8c 37 83 3f 00 6e 7e 3f 43 b3 7f 3f a1 d4 83 3f
       1.0251327 0.99386597 0.99882907 1.0299264
0003c0 9c c0 87 3f e3 f0 82 3f 84 04 81 3f 6f 8e 7d 3f
       1.0605655 1.0229763 1.0079503 0.9904546
0003d0 24 de 83 3f f4 07 82 3f 94 8c 80 3f 4e 49 80 3f
       1.0302167 1.0158677 1.0042901 1.0022371
0003e0 fb 25 7e 3f 12 67 80 3f 45 fb 7f 3f 79 7c 82 3f
       0.99276704 1.0031455 0.9999278 1.0194236
0003f0 10 dd 80 3f fe f0 7d 3f 66 5d 80 3f 1a ab 7e 3f
       1.0067463 0.9919585 1.0028503 0.9947983

module.base.1.layers.2.bias f4 [256]
000000 0b 5a cb 3b 04 9b 1f 3b a3 36 42 bc b6 f2 84 3c
       0.0062058023 0.002435387 -0.011853847 0.016229015
000010 ac 7c 45 bb ac 0f 21 3c 74 f4 25 bc 0c 99 8e 3c
       -0.0030134125 0.009830397 -0.010129083 0.017406963
000020 08 29 5f bc bb 6d 10 3c ff 81 a4 3b 2f 41 2b bc
       -0.013620622 0.008815224 0.0050203796 -0.010452553
000030 21 aa 59 3c 39 d0 fc bb 8a a3 ac 39 d1 4e d3 3a
       0.013285191 -0.0077152518 0.00032928243 0.0016121512
000040 fb 62 56 3c a0 68 24 bc 0e 32 a8 ba d0 aa de 3b
       0.013085122 -0.01003471 -0.00128323 0.006795265
000050 23 15 0f bc 35 c6 14 bb e2 0f 45 3c ec c3 56 bc
       -0.008733067 -0.0022701148 0.012027713 -0.013108235
000060 69 e0 d8 bb 8b 32 9e 3c cb d7 7c 3c c3 ed 0b bc
       -0.0066185487 0.01931121 0.015432308 -0.0085405735
000070 90 cf 0f bb 3f a0 47 bc a0 66 06 3c 8f 94 28 bc
       -0.0021943785 -0.012184202 0.008203179 -0.010289325
000080 16 fc b3 3b bf 95 82 3c 85 31 34 bc c5 6e 7d 3c
       0.0054926975 0.015940545 -0.0109981345 0.015468304
000090 12 cf b1 3b 1b 8e ce 3b 97 af c1 bb 8b dd 4a bb
       0.005426296 0.0063035614 -0.0059108245 -0.0030954804
0000a0 e5 bc a7 bb 68 7d 73 3c 5b 19 49 3b 9b 72 84 3c
       -0.0051189535 0.014861442 0.003068528 0.01616793
0000b0 d2 e8 b4 3c 59 6d 25 bc 15 f7 8c 3c 3d 4a 23 3c
       0.022083674 -0.010096871 0.017207662 0.00996643
0000c0 90 1b fe bb 9a b0 43 3b 91 c6 6c bc d0 6d ce 3b
       -0.0077547505 0.0029859901 -0.014451639 0.0062997118
0000d0 72 fb 3f bc b2 34 e8 3c b6 72 51 bc 67 b2 0f 3b
       -0.011717664 0.02834544 -0.012783697 0.0021926404
0000e0 f5 39 04 3c 66 d4 91 bc 13 97 94 3b 19 40 e5 3b
       0.008070459 -0.017801475 0.004534611 0.0069961664
0000f0 21 ee 6f bb 2e 66 44 bc 62 22 06 bc a1 f1 57 bc
       -0.0036610442 -0.011987252 -0.008186908 -0.013180167
000100 aa 3f 6f ba 91 74 3a bb aa 14 72 3c 19 01 35 3c
       -0.0009126613 -0.0028450827 0.0147754345 0.011047625
000110 24 80 0f bb 2a 5a 75 bc 41 10 d0 3c dc 90 49 3c
       -0.0021896446 -0.01497511 0.025398375 0.012302604
000120 04 17 64 3c 35 4d 80 bb 6b b4 6d 3c d8 5e 25 3c
       0.013921503 -0.003915454 0.014508347 0.010093413
000130 80 87 20 bc e7 f2 f3 3a d2 78 46 bc 78 6a bf bb
       -0.009797931 0.0018611819 -0.012113767 -0.0058415495
000140 84 09 30 3c 99 68 fc 3b f3 d8 4e 3c 67 69 23 bc
       0.010744456 0.0077028987 0.012624967 -0.00997386
000150 74 8f 8f 3b 56 30 37 bc c8 75 82 bb e7 e1 1d 3c
       0.0043811146 -0.011180958 -0.003981326 0.009636379
000160 10 a5 19 3c 65 f9 e0 3c 01 0b 7a bb 0c 5f 38 3c
       0.009377733 0.02746267 -0.0038153531 0.01125313
000170 23 75 55 bc 3c 71 20 3c d3 37 87 3c 09 2b 6e 3c
       -0.013028416 0.009792622 0.016506111 0.014536628
000180 20 5c 16 bc 6c ef 9b bb 5e be 56 bc e2 c1 29 bc
       -0.009177238 -0.004758766 -0.0131069105 -0.010361167
000190 1f ab 27 bc a2 55 ad bb 21 6d 74 3b 5c 3a fd bc
       -0.01023367 -0.0052897492 0.0037296491 -0.030911617
0001a0 1c 10 4e 3c 15 19 51 bb b4 cf 7f bb 44 42 5b bb
       0.012577083 -0.003190582 -0.0039033713 -0.0033456245
0001b0 34 e6 8a 3a 00 11 8d 3c f5 22 0d bc 49 09 bd bb
       0.001059717 0.01722002 -0.008614291 -0.005768929
0001c0 64 fb a3 ba 0a 6e 97 3c 0f 8f 57 bc 1a 12 5a 3c
       -0.0012510833 0.018485088 -0.013156666 0.01330998
0001d0 ab e2 d3 3a b6 66 ab 3b 12 c0 84 3a af d9 ef 3b
       0.0016165575 0.00523075 0.0010128042 0.007319651
0001e0 ad 00 48 3c e2 1f 8f 3c 57 0e 50 3a 16 e4 94 3c
       0.012207192 0.017471258 0.0007936707 0.018175166
0001f0 8a 77 91 bc 73 c6 a3 3b de ef 26 3c 53 b3 a4 3b
       -0.017757196 0.004998022 0.010189025 0.00502626
000200 d1 03 98 bc be 49 2a 3c a9 33 68 ba b5 c6 67 bc
       -0.018556507 0.010393558 -0.00088577956 -0.014146497
000210 0b 25 27 3c a0 25 1d 3c c3 e5 ef bb e6 31 f7 bb
       0.010201703 0.00959149 -0.007321091 -0.00754379
000220 50 87 ed 3a 1e ad 80 bb 8f e3 8c bb 32 ce c9 bb
       0.0018121991 -0.003926887 -0.004299588 -0.0061586136
000230 7a 02 3d 3c 13 4c b2 3b c9 26 11 3c c4 0c 31 3c
       0.011536235 0.0054411977 0.008859345 0.010806266
000240 a9 f4 40 3c cf f0 28 bc dc 95 dd 39 4a 8b d2 3b
       0.0117770815 -0.0103113195 0.0004226406 0.006425296
000250 24 cc 30 bc 04 b8 cb 3b 31 7a 40 3b 0b 8d 2c bc
       -0.010790858 0.0062170047 0.0029369707 -0.010531674
000260 45 06 cb bb 87 b2 b6 bb ed 7f 9e bb 17 29 cb bb
       -0.0061958157 -0.0055754813 -0.0048370273 -0.0061999667
000270 12 f0 8f 3b 89 4c 38 ba e6 fa 87 bb 0e 5f d7 3b
       0.0043926323 -0.00070304476 -0.0041497825 0.0065726107
000280 7c 3d d4 bc 9e 08 41 3c 00 a3 95 bb 03 6d 87 39
       -0.025908224 0.01178184 -0.0045665503 0.00025830427
000290 02 94 4f bc 88 ed 2f bb 1c 90 1c 3c c9 3c 85 bc
       -0.012669565 -0.002684446 0.009555843 -0.016264336
0002a0 70 ee 7b bb ef 2c 10 3c 07 9b 28 bc 4e 15 93 3b
       -0.003844168 0.0087997755 -0.010290868 0.0044886237
0002b0 17 f3 c0 bc f7 f1 a5 3b b2 5e 0d bc 93 54 f9 bb
       -0.023553414 0.005064245 -0.008628534 -0.007608959
0002c0 ec 2c bd 3b c3 52 23 bc 8a 6a 87 3b 23 2f 22 bc
       0.0057731774 -0.009968462 0.0041325735 -0.009898934
0002d0 aa 9a 7d 3b 5f 3a 4c 3c 60 fd d9 3a 4a 70 76 3b
       0.0038696923 0.012465089 0.0016631298 0.003760355
0002e0 40 d4 27 bc 25 f6 1f bc 02 d1 3b 3c 39 4e 09 3c
       -0.010243475 -0.009763275 0.011463406 0.008380466
0002f0 31 64 10 bc 40 2b 4e bc a1 d6 3d 3b 80 8f 1c 3c
       -0.00881295 -0.012583554 0.002896704 0.009555697
000300 eb 53 29 3b 9a 5b 8f bb 1c 01 2f bc c9 dd 0b bb
       0.0025837373 -0.0043749334 -0.010681417 -0.002134191
000310 28 cd b6 bc 67 a9 0b 3c ef 22 b4 3c 7e 8a 83 ba
       -0.022314623 0.008524275 0.021989314 -0.0010035781
000320 23 92 94 bc 28 87 be 3c 2e 27 57 bc 22 0f 9a 3b
       -0.01813609 0.023257807 -0.0131319 0.004701511
000330 43 70 80 3c b9 c6 1a bc c3 f3 d9 bb 21 41 57 bb
       0.01567853 -0.009446793 -0.006651373 -0.0032845216
000340 b2 a4 28 39 11 09 fa bb 5c f4 ca 3b f7 f8 be bb
       0.00016083082 -0.0076304753 0.0061936807 -0.0058280188
000350 b4 52 f1 b9 3f 0d 91 bc d1 8a bb bb ac db 86 3b
       -0.0004602872 -0.017706512 -0.0057233353 0.0041155424
000360 9c 2a 67 bb 03 fa 92 3c 6f 32 3d bc a5 52 ae 3b
       -0.00352732 0.01794148 -0.011547669 0.0053199106
000370 4f cb 0b bc 07 4f 44 3c 5c 87 8a 3b 24 07 10 3d
       -0.008532359 0.011981732 0.004227562 0.03516306
000380 63 df 62 3b 1c c1 47 3a c1 52 8e bc 64 66 d8 3a
       0.0034618012 0.0007620023 -0.017373445 0.0016510007
000390 31 d4 19 bc bc a3 01 3c 15 6f 35 3c 4d b1 bd 3c
       -0.009388969 0.0079125725 0.011073847 0.023155833
0003a0 f7 57 8c 3c 72 ac ce 3b e9 5c 87 3c 1f 8c 18 3c
       0.017131789 0.006307178 0.016523795 0.009310751
0003b0 8a 0c 89 3c 8a ea 1d bc cc 02 c5 3c e2 e9 bd bb
       0.016729612 -0.009638438 0.024049185 -0.0057957033
0003c0 80 47 8e 3c 29 f0 57 bd f3 ab 9c bc a5 c3 a5 bb
       0.017368078 -0.05271927 -0.01912496 -0.005058723
0003d0 36 a1 58 bc ab 19 fe bb 74 b2 3b 3c ef b6 a9 bb
       -0.013222029 -0.0077545247 0.011456121 -0.005179278
0003e0 99 33 44 3b 60 a4 70 bc 50 83 34 bc 06 ab 16 3c
       0.002993798 -0.014687628 -0.011017635 0.009196049
0003f0 57 c0 19 bc 85 b1 c7 bb 45 60 87 bc ec 49 59 3c
       -0.009384236 -0.00609416 -0.016525397 0.013262253

module.base.1.layers.3.weight f4 [128, 256]
000000 00 dc 8f 3b 8a 0c 8b 3b 96 e2 66 3d 90 b3 67 3b
       0.0043902397 0.004243438 0.056368433 0.003535483
000010 af 79 a9 bb 1a 57 38 3d b9 ee 34 bd 34 bf 44 3d
       -0.0051719765 0.04500494 -0.044172976 0.048033908
000020 54 85 91 3c e6 01 0f 3c 81 c2 dd bc 45 ab 21 3c
       0.017763771 0.00872848 -0.027070286 0.009867494
000030 71 7f 2a 3d d4 5e 5e bc d6 18 c6 bc df 86 0f 3d
       0.041625444 -0.0135724135 -0.024181765 0.035040732
000040 2e 9a b5 3c 14 42 7f 3d 24 48 e4 3c 69 64 60 3d
       0.022168245 0.062318876 0.02786643 0.05478326
000050 49 75 0f bd 6c d3 65 3d 33 14 c3 bc 23 0e bc bc
       -0.03502396 0.05610983 -0.023813343 -0.02295596
000060 34 7e 8f 3c 0f c1 09 bd 87 7e 0b 3c 01 b7 2b bc
       0.017516233 -0.03363138 0.008514053 -0.010480643
000070 18 95 17 bd 62 06 48 3d 8c 27 83 bc 50 97 48 3a
       -0.03700742 0.048834212 -0.016010068 0.0007651942
000080 00 b2 c1 3c 2b 5f 8d bd 81 b9 21 3b 13 8a 2c 3c
       0.023644447 -0.069029175 0.002467722 0.010530966
000090 3b 81 5d bc 5b cd 13 3c 0d 5a 51 bd c4 0d 9c 3c
       -0.0135195805 0.0090211285 -0.05111127 0.019049533
0000a0 7a 6d 7f bc c1 c9 e1 bc 0b 00 54 bd 73 92 cb 3c
       -0.015590066 -0.027562024 -0.051757853 0.024850106
0000b0 b4 d0 0f 3c 4f 8a 35 bd 65 e9 37 3c 3a 08 9b bd
       0.008777786 -0.044321354 0.011225079 -0.075699285
0000c0 a9 ba 43 ba c7 f9 af bc d8 84 4d 3c 52 dc 7c 3c
       -0.0007466474 -0.021481408 0.012543879 0.015433388
0000d0 1e 54 28 3d c7 5d 7c 3c a2 c4 78 bd e8 e9 86 bc
       0.041095845 0.015403218 -0.0607344 -0.016468957
0000e0 5c 61 5b bd 78 2d b6 bb 3b 8d be bc fd c7 65 3d
       -0.053559646 -0.0055596195 -0.023260703 0.056098927
0000f0 4b 16 2f 3d c1 a1 50 bd 2d 59 ae bc 0d 03 5e bb
       0.04274587 -0.05093551 -0.021282757 -0.003387633
000100 7b 20 27 bd e8 b8 bf 3b ba 23 34 bd 00 97 26 3d
       -0.04080246 0.0058509 -0.043979384 0.04067135
000110 f4 39 5a 3d bd a8 e5 3c ec a2 41 bd ee 4b 25 bd
       0.053277925 0.028034562 -0.047274515 -0.040355615
000120 e5 51 eb 3a 47 c9 6c bd 4c 52 e3 bc 73 8d 25 3c
       0.0017953484 -0.05780914 -0.027749203 0.010104525
000130 61 79 0e 3d da 30 82 bd bf e9 7d ba d3 30 e7 bc
       0.034783725 -0.06356974 -0.0009686015 -0.028221523
000140 72 90 60 bd 75 0e a1 bc 3a 3e f3 bc d1 5f 93 bb
       -0.054825254 -0.019660214 -0.029692758 -0.004497506
000150 f6 f6 4d bc a5 c0 91 bb 1c bf f0 bc 60 f9 35 bd
       -0.012571087 -0.004448014 -0.029388003 -0.044427276
000160 b5 11 32 bb 9f d5 9a bc 49 af 28 bd 42 b7 9a bd
       -0.0027171199 -0.01890069 -0.04118279 -0.07554485
000170 c3 40 e0 bc b8 c7 be 3c 22 da 17 3d 98 de 28 bd
       -0.02737463 0.023288593 0.037073262 -0.041227907
000180 bc 68 46 ba 82 73 30 3d a5 10 b7 bc de 18 49 bd
       -0.0007568707 0.043078907 -0.022346804 -0.04909598
000190 9d 5b 80 bd e0 39 fc bc 6d c4 4c bd 05 e3 a5 3d
       -0.06267474 -0.030789316 -0.049992014 0.08099941
0001a0 21 80 4d 3c 20 9a 0b bd ab e0 50 3d e3 f8 b3 bc
       0.012542755 -0.034082532 0.05099551 -0.021969264
0001b0 eb 9c 16 3d 13 26 69 bb 14 2e 32 3d 45 06 01 3c
       0.036770742 -0.0035575673 0.043500975 0.00787503
0001c0 ba 06 5a bd 96 cf 79 3c eb 9f 00 bd 6e 51 bc bc
       -0.05322907 0.015247246 -0.03140251 -0.022988047
0001d0 67 f5 cb bc ca db a6 3c 6e b1 31 bd a1 c3 0a 3d
       -0.02489729 0.020368475 -0.0433821 0.033877973
0001e0 35 ac bb 3c cc 88 cd 3b 1e d4 11 bd a3 64 50 bd
       0.022909263 0.006272411 -0.03560268 -0.050877225
0001f0 0e d7 19 bd 0a ed e8 3c 18 c6 69 bc e2 2b 3f 3d
       -0.037558608 0.028433342 -0.014268421 0.04667271
000200 46 28 a7 bd d4 43 40 3d ad d2 ac bb f8 97 39 3d
       -0.081619784 0.046939686 -0.005274138 0.045310944
000210 70 c4 58 3d 4a 3f 11 3d bb c5 08 bd 57 04 6c 3d
       0.052921712 0.035460748 -0.033391695 0.057621326
000220 cb 4f d4 bc b1 39 33 bd 29 62 48 3d 9a 53 39 bd
       -0.025916955 -0.04375619 0.048921738 -0.045245744
000230 b4 c4 17 3b 4b 6c 78 3d 46 ef f5 bb 2f 5e c7 3b
       0.0023158016 0.06065015 -0.0075053303 0.0060842256
000240 c4 c0 fd bc d5 76 a6 bc 2d 31 dc bc 2f 0b 51 3d
       -0.030975707 -0.020320335 -0.026878918 0.051036056
000250 70 ce 71 bd 83 3f 99 bc bc 58 54 3d 28 44 ef 3b
       -0.059034765 -0.018707043 0.051842436 0.007301826
000260 df 65 e4 bc 10 bb 80 3d 37 00 07 bd 93 79 78 3d
       -0.027880607 0.06285679 -0.03295919 0.060662817
000270 fe 08 13 bd a2 1b 82 3c 95 76 af 3c 20 92 29 3c
       -0.035897247 0.015882317 0.021418849 0.01034978
000280 8a c1 77 3d ef e0 3e bd 4e 89 d5 3c db f5 fe bc
       0.060487308 -0.046601232 0.026066449 -0.031123092
000290 b0 02 25 bb f3 0b 16 3c bd d9 06 bd e4 3f 08 3b
       -0.0025178604 0.009158122 -0.032922495 0.0020790035
0002a0 4c 5b 16 bc e2 6b 08 bb 55 cf 6a 3d c1 32 3c bd
       -0.00917704 -0.0020816256 0.057326633 -0.04594684
0002b0 77 e0 93 bc 9a ac a0 3c f1 71 42 bd 90 ba 36 bd
       -0.01805137 0.019613553 -0.047471944 -0.044611514
0002c0 f9 4d 11 bc 9c fd de 3a ef af 5d 3d 61 d3 7c bb
       -0.008868688 0.0017012837 0.05412286 -0.003857814
0002d0 be 68 2b bd 3c d5 ef bc 55 04 4e 3d c3 96 e0 3c
       -0.041847937 -0.029276483 0.0502971 0.027415639
0002e0 16 e3 83 3c eb af 48 3d f0 f6 8a 39 f6 3a 16 bd
       0.016099494 0.048995893 0.00026505394 -0.036677323
0002f0 57 cd 6c 3d 5c de e0 3b 07 31 45 bd ab f3 4e bd
       0.057813015 0.006862445 -0.04814246 -0.05052535
000300 3d 5c 21 bd 25 18 a4 bc b6 7d a1 3b b5 ee 50 3d
       -0.039394606 -0.020031044 0.004928316 0.0510089
000310 21 be 4e bc 78 61 34 bd 89 4c e1 bc 1b 84 e1 3c
       -0.012618572 -0.044038266 -0.027502315 0.027528813
000320 29 82 54 3d 2d 0c 8c 3d 3a b6 7f 3d fb e6 75 bd
       0.051881943 0.0683826 0.062429644 -0.060034733
000330 48 90 e7 bb 97 d7 19 3c b1 61 16 3d 3f 95 ef bc
       -0.00706676 0.0093897795 0.03671426 -0.02924597
000340 65 01 b4 3c f1 dd ea 3c 81 09 5b 3d c8 eb 06 3d
       0.021973321 0.028670283 0.05347586 0.032939702
000350 b8 c9 e8 3c b6 3a e7 3c 33 47 d0 bb 9c 20 ab bc
       0.0284165 0.028226238 -0.006356144 -0.020889573
000360 e8 b6 dd 3c 8f b3 c1 3c 02 7f 55 bd 4e 99 e5 3b
       0.027064756 0.02364519 -0.052123077 0.0070068007
000370 6b 2a a8 3c 7d c0 5d bc ad b4 20 3d 3d 32 19 bd
       0.020528039 -0.013534662 0.039234806 -0.037401427
000380 b5 49 5f bd e2 80 af bc 55 97 d3 3b 79 c9 63 3c
       -0.054513652 -0.02142376 0.006457249 0.013903015
000390 af 53 6f 3d 7e ac 04 3d da a0 4d bd 57 eb 0e 3d
       0.058429416 0.032391064 -0.050202228 0.034892406
0003a0 48 ac 0d bc c8 96 3f 3c de 49 1b bc f7 d9 61 bd
       -0.008647032 0.011693664 -0.0094780605 -0.055139508
0003b0 80 57 81 bd d5 96 24 3d 63 cb 46 3d 37 08 34 3d
       -0.063155174 0.040182907 0.04853381 0.043953147
0003c0 26 0c 07 bd 49 04 f9 3c f7 45 a0 ba c8 79 9c bb
       -0.03297057 0.030397551 -0.0012227882 -0.0047752596
0003d0 6c e5 07 bd be ef 19 3d 84 5d 1e bc 34 90 0c 3d
       -0.033177778 0.03758215 -0.009665851 0.03431721
0003e0 e1 91 58 bd 73 45 d0 bc a2 bd 60 3d 07 b8 37 3d
       -0.052873496 -0.025423741 0.054868348 0.044853237
0003f0 a2 a0 2d 3d 7c 85 2b b9 e2 ad 69 3d 15 55 52 b8
       0.04238952 -0.00016357558 0.057050593 -5.014714e-05

module.base.1.layers.3.bias f4 [128]
000000 96 bf b9 3a a2 76 17 3d 27 ee 81 bd e6 e6 75 bc
       0.0014171477 0.03697837 -0.06344252 -0.015008664
000010 15 bb e9 3c 6c 3d c6 3a b3 41 28 bc 88 89 21 bd
       0.02853159 0.0015124506 -0.01026957 -0.0394378
000020 4c fc b8 3c 27 6e 33 bd a4 5a c7 bc 2b e2 58 3d
       0.022581242 -0.04380622 -0.024335213 0.052950066
000030 de af 39 bd b5 4f 05 3c 1d 67 9b bc a5 62 b1 3b
       -0.045333736 0.008136679 -0.018970067 0.0054133707
000040 7d 1f 48 3d 99 09 54 3d c1 1c 1e bd b6 b0 09 3b
       0.048858155 0.051766966 -0.03860164 0.002100987
000050 13 cb 13 bd 51 53 44 3d 6f 0d 03 bd cf 40 38 3d
       -0.03608234 0.04793102 -0.031995233 0.04498368
000060 1f 0a 08 3d 1c ac 09 3d d3 c6 61 bd 16 c8 ef bc
       0.033212777 0.033611402 -0.055121254 -0.029270213
000070 7b 49 88 bc 67 a4 63 3d 13 06 c5 bc b6 ee 26 3d
       -0.0166366 0.05557671 -0.024050748 0.040754996
000080 90 62 54 bd 75 83 6e bd be e8 3e bb e6 7c a7 bc
       -0.05185181 -0.058230836 -0.0029130424 -0.020445298
000090 06 0b f8 ba ef 2b 4e bd 3b ee 93 bc 38 40 35 bd
       -0.0018924184 -0.050334867 -0.018057933 -0.044250697
0000a0 ab 69 43 bc ca 6a b2 bc b7 76 09 bc 16 08 7b bd
       -0.011927049 -0.021779437 -0.00839012 -0.06128701
0000b0 3f 10 cb 3c 00 98 60 bc e1 a8 9f bb 03 1f e7 3c
       0.02478802 -0.013708115 -0.004872427 0.02821303
0000c0 f8 68 ff bc b3 5a ad bc 43 f5 3f 3c 36 4d c9 bc
       -0.031177983 -0.021161413 0.01171619 -0.02457295
0000d0 89 03 7a ba 90 ca 23 3d f0 9d 21 3d 57 06 6c bc
       -0.000953727 0.0399881 0.03945726 -0.014405808
0000e0 8c e8 2d bd 04 36 17 3c bd 2c 2d 3d 92 22 85 3d
       -0.042458102 0.009229187 0.042278994 0.065007344
0000f0 81 df eb 3c 9c 69 8a bc 29 4f dd 3c 65 4b 27 3c
       0.028793098 -0.016896062 0.027015286 0.010210847
000100 91 7f 08 3d 74 5e 94 3c ed c9 88 bc d4 ac 2f 3d
       0.03332478 0.018111445 -0.016697848 0.04288943
000110 cc bc ff 3b 83 c2 ef 3b a4 43 1e bd 10 0f 47 3d
       0.0078044888 0.007316889 -0.038638726 0.04859835
000120 d7 15 b0 3c 10 66 43 bd 57 29 a6 bc 14 c9 2f bd
       0.021494789 -0.047704756 -0.020283384 -0.042916372
000130 e7 cb 24 3d 57 44 3b bd 46 47 a1 bc ea 97 88 3c
       0.04023352 -0.04571947 -0.019687306 0.016674
000140 c5 ea 1d bd 4f be 66 3b 76 75 5c 3d cc db 6c bd
       -0.03855397 0.0035208648 0.053822957 -0.057826802
000150 dd 52 2f bd ca 08 e3 bc f4 2d 6a 3d 39 12 29 bd
       -0.042803634 -0.027714152 0.05717273 -0.041277144
000160 fd 3e 2a 3d 24 c9 6d bd 69 25 69 3c b4 10 60 bd
       0.041563977 -0.05805315 0.014230111 -0.05470343
000170 fa 64 6a bd 19 c3 a7 bc a6 20 88 3d e7 ab 23 bd
       -0.057225205 -0.020478772 0.06646852 -0.03995886
000180 54 da 01 bc 20 ef 85 bc eb 2d 82 bc 19 41 4b bd
       -0.007925589 -0.016349375 -0.015891036 -0.04962263
000190 b9 0d 10 3d e3 43 1e 3a 7a 76 5e 3d a2 4e 4f bd
       0.035169337 0.00060373376 0.054312207 -0.0506121
0001a0 93 af 77 3b 38 ff 49 bd 22 35 87 3d 68 a5 32 3d
       0.003779386 -0.04931566 0.06601931 0.043614775
0001b0 d0 11 46 3d 80 4a 51 bc 59 aa 36 bc 52 8b 2c bd
       0.04835683 -0.01277411 -0.0111490125 -0.042125054
0001c0 6f a3 47 3d cb 17 de bc d7 55 09 3c 92 64 12 3d
       0.048739847 -0.027110955 0.008382282 0.035740443
0001d0 71 10 ec 3c b8 b3 f6 bb c5 ff c0 3a 6d ad 09 3d
       0.028816434 -0.0075287484 0.0014724663 0.033612657
0001e0 6c 7d 1a bd ad 09 fb bc 77 11 92 bd 22 43 2f 3d
       -0.037717268 -0.030644262 -0.071322374 0.042788632
0001f0 27 36 12 3c 1f 6a 47 bc df 90 51 bc 31 d9 65 bd
       0.008924044 -0.012171297 -0.012790888 -0.056115333

module.base.1.layers.5.weight f4 [128]
000000 0c fa 83 3f 6f df 81 3f 39 e1 83 3f 55 51 86 3f
       1.0310683 1.0146312 1.0303108 1.049357
000010 08 8a 80 3f 64 39 7f 3f ce 91 80 3f ec 3c 89 3f
       1.0042124 0.99696946 1.0044496 1.0721717
000020 1b 9e 7f 3f cf f1 86 3f 2e 41 88 3f e1 0c 83 3f
       0.99850625 1.0542544 1.0644891 1.0238305
000030 27 0c 83 3f 2e d0 7f 3f 48 c4 7f 3f a0 9a 86 3f
       1.0238084 0.9992703 0.99908876 1.0515938
000040 83 e5 83 3f 55 9d 80 3f a4 4c 83 3f 33 95 7e 3f
       1.0304416 1.0048014 1.0257764 0.9944641
000050 6e 60 7d 3f cd a4 7f 3f 12 1e 81 3f f3 dd 82 3f
       0.98975265 0.9986084 1.0087302 1.0223984
000060 f6 9c 80 3f bd 2f 83 3f 11 f4 83 3f 5b d7 80 3f
       1.0047901 1.0248944 1.0308858 1.0065721
000070 fa fa 7d 3f fc f0 7e 3f 13 5d 80 3f 70 5e 82 3f
       0.99211085 0.9958646 1.0028404 1.018507
000080 8e 68 82 3f 9f a9 81 3f 5e 2e 80 3f af bf 7e 3f
       1.0188158 1.0129889 1.001415 0.99511236
000090 88 fd 80 3f 51 ad 83 3f 76 13 81 3f 7d 9c 80 3f
       1.0077372 1.0287267 1.0084064 1.0047756
0000a0 65 ac 84 3f 95 c7 83 3f 67 0d 82 3f 31 d1 80 3f
       1.0365111 1.0295283 1.016034 1.006384
0000b0 ba ac 81 3f 15 07 82 3f ee 83 80 3f e3 29 84 3f
       1.0130837 1.0158411 1.0040262 1.0325283
0000c0 6c aa 83 3f 33 07 81 3f b1 64 82 3f c6 2f 80 3f
       1.0286384 1.0080322 1.0186979 1.0014579
0000d0 aa 39 7f 3f 20 cd 81 3f 71 80 80 3f d6 11 80 3f
       0.99697363 1.0140724 1.0039197 1.0005443
0000e0 e2 39 83 3f 55 db 80 3f bd ef 80 3f 23 a0 7f 3f
       1.025204 1.0066935 1.0073162 0.99853724
0000f0 47 2a 80 3f 91 70 82 3f 8f 6a 7d 3f 76 d7 7a 3f
       1.0012902 1.0190603 0.9899072 0.9798502
000100 94 68 82 3f 61 9b 7f 3f ab 48 81 3f 79 7f 80 3f
       1.0188165 0.99846464 1.0100302 1.0038902
000110 06 08 81 3f 88 7a 81 3f 98 e8 7e 3f 27 23 88 3f
       1.0080574 1.0115519 0.9957366 1.0635728
000120 44 c5 7e 3f 40 32 80 3f 2a 21 82 3f 1f 62 80 3f
       0.99519753 1.0015335 1.0166371 1.0029944
000130 ea 4e 7c 3f 33 24 81 3f 72 17 82 3f f9 6c 81 3f
       0.98557913 1.0089172 1.0163405 1.0111381
000140 a2 96 7d 3f 10 8d 82 3f 7a e5 7f 3f 1f a7 80 3f
       0.9905797 1.0199299 0.9995953 1.0051001
000150 97 d8 82 3f 13 7d 81 3f 26 11 84 3f d1 31 7e 3f
       1.0222348 1.0116295 1.0317733 0.99294764
000160 46 35 7f 3f 29 68 84 3f ec 65 81 3f 0b 4b 82 3f
       0.99690664 1.0344287 1.0109229 1.0179151
000170 c1 9e 81 3f 1b b1 80 3f 4d 40 80 3f 51 fa 81 3f
       1.0126573 1.0054048 1.0019623 1.0154516
000180 48 1a 7f 3f fe fa 83 3f 02 e5 82 3f 72 2a 80 3f
       0.99649477 1.0310972 1.0226138 1.0012953
000190 81 02 7f 3f 17 85 84 3f 5f ac 81 3f 70 15 85 3f
       0.99613196 1.0353116 1.0130728 1.0397167
0001a0 c8 18 81 3f 60 c3 81 3f 5b 88 7f 3f d5 e1 80 3f
       1.0085688 1.0137749 0.99817437 1.0068918
0001b0 b4 3a 7c 3f f5 b0 80 3f b6 e9 83 3f f4 0e 81 3f
       0.98527074 1.0054003 1.0305698 1.0082688
0001c0 4b 14 82 3f ae 47 7e 3f 75 c1 81 3f 6b 73 82 3f
       1.0162443 0.99328125 1.0137163 1.0191473
0001d0 40 9a 82 3f 53 ac 82 3f 29 2c 80 3f 7b f9 7d 3f
       1.0203323 1.0208839 1.0013477 0.992088
0001e0 a3 7d 80 3f ae a9 80 3f 9a ed 81 3f 0f 2e 81 3f
       1.0038341 1.0051782 1.0150635 1.0092181
0001f0 c7 1b 80 3f ae e7 83 3f d0 77 7d 3f 1d d1 7a 3f
       1.0008477 1.0305078 0.99010944 0.9797533

module.base.1.layers.5.bias f4 [128]
000000 79 ba f0 3b ed 7b e1 3c 12 2b fa bc a4 9e fe 3c
       0.007346448 0.027524913 -0.030538116 0.031081505
000010 7c 2c 78 bc 72 99 d1 3c 06 59 62 bc 41 21 92 3a
       -0.015147325 0.025585864 -0.01381517 0.0011148826
000020 4a b1 02 bc 5b 55 67 bc c9 4d 06 3d f5 4a ce bb
       -0.007976839 -0.014119471 0.032789025 -0.0062955567
000030 8c 66 51 bc 83 52 36 3c fb ab 88 3c 8f 3e 37 bc
       -0.012780797 0.011128071 0.01668357 -0.011184349
000040 24 1c 64 3c 8c 78 04 bc 0f 0f eb 3b 56 d6 e6 bc
       0.013922725 -0.008085381 0.007173426 -0.028178375
000050 cd 26 a9 3c ff 05 83 3c 32 75 88 bc a9 5b ec bc
       0.020648384 0.01599407 -0.016657446 -0.0288523
000060 f8 88 d1 3c 2e 9e 8b 3c b6 da 24 bc 99 cf db 3b
       0.025578007 0.0170432 -0.01006191 0.006708097
000070 57 21 7f 3c 91 47 d4 3b 5b 37 94 3c 30 05 37 3c
       0.015571914 0.006478258 0.018092802 0.01117067
000080 93 53 95 3c 69 23 4c bc cb f6 37 3a 36 05 2c 3c
       0.018228328 -0.012459614 0.0007017671 0.010499289
000090 91 da 8f bc 1a a3 5c bc e1 ab 38 3a 4b 28 f2 3c
       -0.017560275 -0.013466621 0.0007044655 0.029560229
0000a0 5e e6 1c bd 9c 12 a0 3a 12 76 57 3c 19 5d aa bc
       -0.038305633 0.0012212577 0.013150709 -0.020796346
0000b0 3f d1 60 bc 53 fe 88 3c 67 fb f7 bc 13 2d 6a bb
       -0.013721763 0.016722834 -0.030271245 -0.0035732433
0000c0 f5 95 34 bc ab fb 07 bd bb b5 78 bc b8 04 f8 3b
       -0.011022081 -0.033198994 -0.015180047 0.007568922
0000d0 e2 5d a7 bc d0 22 10 bb 84 17 90 bc e8 0b 01 bc
       -0.020430509 -0.0021993406 -0.017589338 -0.007876374
0000e0 ce 9d 96 3c 67 73 3f bc e7 cc 5e 3c 66 75 9e 3c
       0.018385794 -0.011685229 0.013598657 0.01934309
0000f0 62 d5 d2 bc 54 7a 05 3d b4 39 85 bc 02 3a 0c 3a
       -0.025736514 0.032587364 -0.016262867 0.000534922
000100 2d 86 01 3c 05 61 4f bc 1a 8a d2 3b 08 28 17 bc
       0.007905525 -0.012657409 0.0064251544 -0.009225853
000110 8f e7 a8 3b 6b fe c0 bc db 95 3f 3c a9 13 b8 3a
       0.005154557 -0.023558816 0.011693443 0.0014043945
000120 88 ea fd 3b f7 73 5b bc 08 4f 6f 3c 1c e8 34 bc
       0.0077489056 -0.013394347 0.014606245 -0.011041667
000130 89 2e 73 3c 77 49 81 bc 5a 69 88 3c 61 50 26 bc
       0.014842638 -0.015782101 0.016651798 -0.010151
000140 3d a2 8e bc 01 28 e2 bb 49 15 4f bc 2a 07 9d b9
       -0.017411346 -0.0069017415 -0.012639352 -0.0002995071
000150 ef cf 15 3c 5b 60 4f 3c 92 93 1b 3c 15 fc 7b bc
       0.0091438135 0.01265725 0.009495633 -0.015379925
000160 03 88 8f bc cc 77 89 bc 93 3a a9 39 4c c8 80 3b
       -0.01752091 -0.016780756 0.00032277833 0.0039301272
000170 87 a6 b7 bc db 07 87 bc d8 79 2d 3c 69 86 9e 3b
       -0.022418274 -0.016483238 0.010588132 0.0048378003
000180 f4 10 11 bc 73 4c 25 3c 60 b4 08 bc 89 92 45 3c
       -0.00885414 0.010089028 -0.008343786 0.0120588625
000190 79 d7 7b bc 2f b3 9b bc 24 13 81 bc f4 79 89 3c
       -0.015371197 -0.01900634 -0.015756197 0.016781785
0001a0 fb 19 0a 3d 2a 32 aa bc 78 12 77 3c 40 22 6f bc
       0.033716183 -0.020775873 0.015080087 -0.014595568
0001b0 39 bb 43 3d e5 ba 48 bc bc bf 38 3c 4f f5 5e 3a
       0.04778597 -0.01225159 0.011276182 0.0008505182
0001c0 f9 dd 30 3c 88 34 95 bb 44 c2 31 3c 2d 9d a9 3c
       0.01079511 -0.0045533814 0.010849539 0.02070483
0001d0 55 d7 41 bb 8b 06 94 bc bd a2 1d bc bb 93 ae 3a
       -0.002957781 -0.018069526 -0.009621319 0.0013319174
0001e0 0b 50 05 bc 84 72 69 bc da 58 7d bc 9d 08 ab 3b
       -0.0081367595 -0.014248494 -0.015463078 0.0052195326
0001f0 d3 6f 59 3c 81 7a 0d bd ac b5 ee bb 8d 02 a9 3c
       0.01327129 -0.034540657 -0.0072848406 0.0206311
