scripts/shell/hier/checkpoint_secpass_2.pt (torch, 494271 bytes, 32 tensors)

module.base.0.weight f4 [34]
0.9843359 0.95902526 1.0003386 1.116889 1.0207094 1.0875164 1.0211837 1.0258746
0.9723113 0.9944363 0.8338281 0.86388725 0.851226 1.0756865 1.0193727 1.0892938
1.0917094 1.1029854 1.045061 0.7902215 0.8074768 0.7759523 0.77195823 1.0275617
0.9883638 0.99644196 1.1602955 1.0589283 1.1210994 1.0400753 1.0381268 0.9935794
1.0220565 1.0778229
00000000: 70fd 7b3f ae82 753f 180b 803f 38f6 8e3f
00000010: 9ba6 823f bd33 8b3f 26b6 823f dc4f 833f
00000020: 65e9 783f 6193 7e3f c275 553f b727 5d3f
00000030: f2e9 593f 18b0 893f ce7a 823f fb6d 8b3f
00000040: 22bd 8b3f a02e 8d3f 8fc4 853f f54b 4a3f
00000050: cdb6 4e3f cfa4 463f 0e9f 453f 2487 833f
00000060: 6905 7d3f d216 7f3f 9084 943f f68a 873f
00000070: 2f80 8f3f 3021 853f 57e1 843f 385b 7e3f
00000080: bfd2 823f 1af6 893f

module.base.0.bias f4 [34]
-0.016829556 0.057178948 0.004353396 -0.020501332 -0.0037015912 -0.013862354 -0.011302132 -0.00880716
0.015160826 -0.045684956 -0.046645854 -0.033538383 0.041169994 0.012289213 0.0042491537 0.020134978
-0.012516516 0.017991714 -0.012170409 -0.024308989 0.009495983 -0.0030670983 -0.0193818 -0.0075825215
0.02237934 -0.0111998385 -0.0010235547 0.0043520993 0.013103533 0.02974724 0.03370031 -0.018268187
-0.0035992565 -0.0105726
00000000: 23de 89bc 7934 6a3d efa6 8e3b 69f2 a7bc
00000010: 6596 72bb ed1e 63bc 942c 39bc e84b 10bc
00000020: 1d65 783c 2620 3bbd b90f 3fbd 8b5f 09bd
00000030: dea1 283d b258 493c 7c3c 8b3b 1cf2 a43c
00000040: 1312 4dbc 5c63 933c 6566 47bc a523 c7bc
00000050: 0a95 1b3c 5f01 49bb 95c6 9ebc cd76 f8bb
00000060: e154 b73c 877f 37bc cc28 86ba 0e9c 8e3b
00000070: 33b0 563c 7cb0 f33c 5609 0a3d 2aa7 95bc
00000080: 81e1 6bbb b338 2dbc

module.base.1.layers.0.weight f4 [256, 34]
0.1472364 0.027295634 0.06553267 -0.07015358 -0.13464464 0.123622544 0.17068991 -0.07960399
0.025610857 -0.13627754 -0.007268902 -0.025075363 0.020176915 0.17697042 0.012865471 -0.07070007
-0.011670067 -0.059198387 0.047390845 -0.07921454 0.14003819 0.13613282 -0.044352487 -0.11744778
-0.100815855 -0.13730761 -0.13085933 0.13340229 -0.14757931 -0.027885957 0.13600312 -0.038695075
0.07030439 -0.025731917 0.1709884 -0.17030995 -0.006981221 0.17934963 0.14763282 -0.16349906
-0.08345527 0.0069745053 0.053866133 0.13205701 0.07124932 0.05798795 -0.03471589 -0.13466357
0.073094115 0.04912969 -0.013266934 0.12782249 0.101153605 0.12940228 0.13612705 0.09270042
-0.0072838124 0.07065924 -0.049221065 0.052209407 0.030066265 -0.038350295 -0.13765335 0.07940299
-0.17430565 -0.038532507 0.086927146 0.04434264 -0.008209765 -0.08908129 0.061060317 -0.10722605
-0.11188188 -0.017421553 -0.017178852 0.028623994 -0.10959595 0.07796101 0.016870508 0.11950354
-0.032685477 -0.091241874 -0.124191366 0.11008368 -0.14045976 0.05865284 0.08602424 0.09500483
0.07158728 0.020745248 0.06533315 -0.17068456 0.14324251 -0.014681595 0.1496752 0.007900617
-0.14485103 0.046683475 -0.1318725 0.15019129 0.032702107 0.12134797 0.02582988 0.13912347
-0.1066965 0.11314376 0.05662523 0.07318665 0.021669459 -0.05366394 0.08884197 0.11493841
0.06477844 0.053904567 -0.09282457 0.13164012 -0.038645368 0.087444566 0.17508304 -0.1873892
-0.10211512 -0.11654669 -0.08815848 -0.1014244 -0.05414232 -0.061375137 -0.1555754 0.07806062
0.07506369 -0.22166304 -0.10898097 -0.06395229 -0.08515917 -0.08532135 -0.117576025 0.26462117
-0.0016928472 -0.060196918 -0.05162823 -0.22994512 -0.14091116 -0.046308313 0.01723633 -0.102065675
-0.044003446 -0.03841356 0.07595337 0.1330314 -0.07625227 -0.10176248 0.10152863 -0.025667315
-0.070157886 -0.23476197 0.008502878 0.016033892 0.04237976 -0.038278516 -0.13587078 -0.15523319
0.08598621 0.017216705 0.14841452 -0.1493789 0.05757047 -0.088396065 0.13582894 0.14544806
0.13461116 -0.19934084 0.009104124 0.12105646 -0.102631286 0.008253318 -0.15548888 0.16545027
-0.007317277 0.10971237 0.010624192 0.048351813 0.010311308 0.08345856 -0.032978397 0.028290682
0.0678729 -0.1299987 -0.08586491 -0.06419816 -0.0660558 -0.090286225 0.056131005 -0.07024339
-0.00950718 0.024865989 0.034305833 0.12690935 0.0523092 0.10443713 0.10988771 -0.14784084
0.10008649 -0.055005398 0.12829036 0.04364049 0.14891382 0.041523498 0.061607767 0.11574308
-0.026971241 0.082292154 0.1640091 -0.17665067 -0.05025866 -0.101059064 -0.059766177 -0.0858517
-0.11455252 -0.14216465 -0.13173987 0.0119530205 -0.06402227 0.057888817 -0.084875576 0.18012264
-0.00050279 -0.052962814 0.032578863 -0.14713618 0.069974184 0.099508636 -0.26143187 -0.095717765
0.24514177 0.029697517 -0.107662596 -0.038298417 0.03247462 0.022587841 -0.09942935 -0.11585368
-0.14864339 -0.12838276 0.14356996 -0.016770829 0.15701728 0.012718228 -0.14066207 -0.056657985
0.053481616 -0.011240229 -0.11369992 -0.16859399 -0.11859717 -0.07255484 0.06718741 -0.097420916
00000000: 24c5 163e 189b df3c fe35 863d aeac 8fbd
00000010: 49e0 09be d12d fd3d 56c9 2e3e 6b07 a3bd
00000020: dccd d13c 578c 0bbe f82f eebb d96a cdbc
00000030: 0f4a a53c bc37 353e b2c9 523c 33cb 90bd
00000040: cf33 3fbc 027a 72bd e71c 423d 3c3b a2bd
00000050: 2c66 0f3e 6766 0b3e f4aa 35bd 7688 f0bd
00000060: 8b78 cebd 5e9a 0cbe fdff 05be 9c9a 083e
00000070: 081f 17be 1771 e4bc 6744 0b3e ba7e 1ebd
00000080: bffb 8f3d becb d2bc 9517 2f3e bb65 2ebe
00000090: bac2 e4bb 6ea7 373e 0f2d 173e 4c6c 27be
000000a0: 99ea aabd 648a e43b bca2 5c3d f439 073e
000000b0: 2aeb 913d c684 6d3d 4032 0ebd 3fe5 09be
000000c0: 5eb2 953d 373c 493d 8e5d 59bc e6e3 023e
000000d0: 9f29 cf3d 0882 043e e464 0b3e b8d9 bd3d
000000e0: 0cad eebb cbb5 903d 079c 49bd 88d9 553d
000000f0: 874d f63c 3315 1dbd 00f5 0cbe 099e a23d
00000100: 2e7d 32be 43d4 1dbd dc06 b23d a1a0 353d
00000110: 4082 06bc 4070 b6bd 621a 7a3d 5599 dbbd
00000120: 5422 e5bd a5b7 8ebc aaba 8cbc de7c ea3c
00000130: d773 e0bd 06aa 9f3d 0534 8a3c 46be f43d
00000140: 35e1 05bd 05dd babd 0b58 febd 8d73 e13d
00000150: afd4 0fbe f63d 703d 7a2d b03d e491 c23d
00000160: 5a9c 923d f0f1 a93c 63cd 853d efc7 2ebe
00000170: 2aae 123e 138b 70bc 7544 193e 9771 013c
00000180: d453 14be 2c37 3f3d 9609 07be bfcb 193e
00000190: a5f2 053d 4985 f83d 2f99 d33c 6276 0e3e
000001a0: b283 dabd eab7 e73d dbef 673d e2e2 953d
000001b0: 2684 b13c b8ce 5bbd c7f2 b53d d464 eb3d
000001c0: 8faa 843d 09cb 5c3d cf1a bebd abcc 063e
000001d0: 9b4a 1ebd 2316 b33d f848 333e f4e2 3fbe
000001e0: bb21 d1bd 08b0 eebd 6f8c b4bd 99b7 cfbd
000001f0: 56c4 5dbd 7f64 7bbd 284f 1fbe 3fde 9f3d
00000200: feba 993d a3fb 62be 6a31 dfbd 6bf9 82bd
00000210: ee67 aebd f6bc aebd b3cb f0bd 6d7c 873e
00000220: 87e2 ddba 0b91 76bd 1f78 53bd bc76 6bbe
00000230: 044b 10be c9ad 3dbd 3433 8d3c cf07 d1bd
00000240: f53c 34bd 8957 1dbd 718d 9b3d 6239 083e
00000250: 262a 9cbd d968 d0bd 3eee cf3d 4344 d2bc
00000260: f0ae 8fbd 7165 70be a84f 0b3c 8259 833c
00000270: 6696 2d3d efc9 1cbd b621 0bbe 73f5 1ebe
00000280: 8a19 b03d 0c0a 8d3c faf9 173e c8f6 18be
00000290: 03cf 6b3d ff08 b5bd be16 0b3e 56f0 143e
000002a0: 82d7 093e 0120 4cbe 7729 153c 73ec f73d
000002b0: 5a30 d2bd ed38 073c 7a38 1fbe cc6b 293e
000002c0: c5c5 efbb e1b0 e03d 1711 2e3c 8d0c 463d
000002d0: c3f0 283c 52ec aa3d 5b14 07bd dcc1 e73c
000002e0: f200 8b3d 611e 05be f1d9 afbd 537a 83bd
000002f0: 4348 87bd fce7 b8bd a0e9 653d c4db 8fbd
00000300: 01c4 1bbc c2b3 cb3c 4684 0c3d 86f4 013e
00000310: 2c42 563d 22e3 d53d cf0c e13d 9763 17be
00000320: 25fa cc3d 574d 61bd 8c5e 033e 5fc0 323d
00000330: dd7c 183e 8b14 2a3d 6d58 7c3d b50a ed3d
00000340: cbf2 dcbc ca88 a83d 00f2 273e eae3 34be
00000350: 06dc 4dbd 0ef8 cebd 61cd 74bd 04d3 afbd
00000360: 839a eabd 9c93 11be d1e6 06be 9ad6 433c
00000370: 1c1e 83bd d31c 6d3d 3fd3 adbd 1272 383e
00000380: aacd 03ba 89ef 58bd 6a71 053d deaa 16be
00000390: a04e 8f3d 2fcb cb3d 66da 85be ad07 c4bd
000003a0: 7206 7b3e 3548 f33c 357e dcbd cdde 1cbd
000003b0: 1b04 053d 230a b93c 9da1 cbbd b244 edbd
000003c0: f935 18be c576 03be 0104 133e fa62 89bc
000003d0: 23c9 203e 1d60 503c b809 10be 3412 68bd
000003e0: 8a0f 5b3d f028 38bc 81db e8bd e7a3 2cbe
000003f0: 13e3 f2bd a297 94bd 8e99 893d 9e84 c7bd

module.base.1.layers.0.bias f4 [256]
0.052763287 -0.080296434 0.05712497 0.021397965 -0.011762601 -0.04070246 0.03700874 -0.09696361
-0.096419275 -0.1240366 -0.030318314 0.02403078 0.006115136 0.08423886 -0.042554095 -0.11019679
-0.089079365 0.06405243 0.09896567 -0.118730135 0.03871555 -0.086141326 -0.0077823927 -0.14525265
-0.089688316 0.110321075 -0.13526696 0.059751675 0.02981267 0.08960828 0.1748473 -0.018336993
0.06684609 -0.098435484 0.042594805 -0.08563088 0.0021151658 0.06001452 0.16279474 -0.16058369
0.0017311076 -0.098427005 -0.073019974 -0.025047226 0.09250874 0.086145036 0.057665605 0.17452134
-0.09276714 -0.08343743 0.106131844 0.0071083447 -0.0842319 0.00235489 -0.0450744 -0.060731888
0.12140878 -0.09586796 -0.048592806 -0.12894237 -0.038477827 0.07647099 -0.16216049 -0.15692697
-0.07058796 0.0129118 -0.09529915 0.13779244 -0.09883175 -0.052346952 -0.1529335 0.12072621
0.13345571 -0.10717311 0.013625969 0.06777442 0.17029393 0.041033033 0.14036132 -0.09361622
0.11902529 0.088170856 0.07169167 -0.10957753 -0.0033327735 -0.020673977 -0.09171719 -0.08763361
0.1288583 0.05021945 -0.0626443 -0.08916161 -0.045370124 -0.18564895 0.07317999 -0.13945864
-0.014827222 -0.045784023 -0.11963588 0.1071135 0.106500015 0.031390127 0.07610331 0.02462335
-0.08165851 0.10059223 -0.08700786 0.0101734605 0.039266482 -0.018801942 0.06226095 -0.065840006
0.10966803 -0.01708542 -0.13080719 0.17609349 0.012103933 -0.021145528 -0.007170774 -0.0616468
0.07754492 0.11760253 0.08092321 0.11858321 0.101142585 0.029809263 -0.088891044 0.14444923
-0.0948898 -0.11009124 -0.16484603 0.1588546 -0.07242076 -0.1350949 0.030725786 -0.0043014972
0.023641525 0.08012963 -0.14621179 -0.11188913 0.1168691 -0.044071507 0.021844238 0.027934212
0.1725882 0.113698386 0.17484534 0.004045498 -0.12144035 0.026349127 0.13058177 0.14418231
0.16128787 0.0026777654 -0.069527015 -0.028274156 -0.03239861 0.0022747363 -0.11099054 0.06493496
-0.08946488 0.060933545 0.07222789 -0.1536378 0.11375052 0.13687009 0.040211957 -0.009405819
-0.10063236 -0.00069866027 0.05969019 -0.16738673 0.102295764 -0.13920963 -0.11399213 0.14802006
0.04405003 -0.006705889 -0.004143325 0.12832397 -0.10168172 -0.089416094 0.09687382 0.084157005
-0.03512232 0.12887847 -0.09488598 -0.075784184 0.06440456 0.142221 0.113648295 0.097710945
-0.03085088 0.07226329 -0.11039287 0.13829137 -0.123833284 0.07753888 -0.15717867 0.09432157
0.05592261 0.14228617 -0.084670916 -0.023599833 -0.052885912 -0.02390062 0.027522534 -0.05715599
-0.013403249 -0.0878043 -0.105075315 -0.038333345 -0.004193959 -0.06497352 0.09355386 0.08953687
-0.16245495 0.06779731 -0.094547905 -0.049821377 0.1439044 -0.03204415 0.06170289 -0.17396589
-0.14611496 0.03993247 0.091425374 0.15741044 0.17952967 -0.038133636 -0.054647673 0.088799804
-0.11453919 0.10955017 0.15669893 0.007110093 0.05035905 0.08185656 -0.092384435 0.04057041
0.042473443 -0.04941242 0.014538349 0.002262272 0.13078436 0.18379083 -0.11428112 -0.005393928
0.04609576 -0.08297937 -0.04903217 0.022413412 -0.04350616 0.029478284 -0.014057597 0.09070356
00000000: 511e 583d 7572 a4bd dffb 693d c94a af3c
00000010: edb7 40bc 9fb7 26bd 7a96 173d db94 c6bd
00000020: 7877 c5bd e706 febd 1d5e f8bc 33dc c43c
00000030: 7b61 c83b 6c85 ac3d 344d 2ebd dbae e1bd
00000040: 3e6f b6bd ec2d 833d 83ae ca3d c928 f3bd
00000050: 3294 1e3d dd6a b0bd 7103 ffbb 1cbd 14be
00000060: 82ae b7bd 04f0 e13d 6c83 0abe 2cbe 743d
00000070: b339 f43c 8c84 b73d 2c0b 333e 7637 96bc
00000080: 9ae6 883d 8b98 c9bd e477 2e3d 3e5f afbd
00000090: 989e 0a3b c9d1 753d aab3 263e 0d70 24be
000000a0: 55e6 e23a 1994 c9bd 7f8b 95bd d72f cdbc
000000b0: 3975 bd3d cf6c b03d c532 6c3d b9b5 323e
000000c0: b3fc bdbd 3ee1 aabd a75b d93d 1eed e83b
000000d0: c681 acbd 8054 1a3b ef9f 38bd 00c2 78bd
000000e0: 2ba5 f83d 6c56 c4bd 4009 47bd 7809 04be
000000f0: ed9a 1dbd d39c 9c3d 660d 26be 77b1 20be
00000100: 6c90 90bd 048c 533c 332c c3bd 7619 0d3e
00000110: 4d68 cabd c269 56bd 999a 1cbe 4e3f f73d
00000120: 9da8 083e 937d dbbd 753f 5f3c 51cd 8a3d
00000130: 8861 2e3e 4112 283d e1ba 0f3e dcb9 bfbd
00000140: 88c3 f33d ec92 b43d 15d3 923d 2f6a e0bd
00000150: a96a 5abb 795c a9bc 39d6 bbbd 4079 b3bd
00000160: 6ef3 033e e9b2 4d3d a84b 80bd 5d9a b6bd
00000170: 06d6 39bd c21a 3ebe 64df 953d 3fce 0ebe
00000180: e0ed 72bc 0788 3bbd a803 f5bd 535e db3d
00000190: ae1c da3d ef92 003d 0ddc 9b3d e8b6 c93c
000001a0: 943c a7bd 4d03 ce3d 2d31 b2bd 96ae 263c
000001b0: e4d5 203d 8806 9abc 5705 7f3d 20d7 86bd
000001c0: a299 e03d b9f6 8bbc 52f2 05be da51 343e
000001d0: 934f 463c 6339 adbc d0f8 eabb 5b81 7cbd
000001e0: dfcf 9e3d 98d9 f03d 11bb a53d c1db f23d
000001f0: d823 cf3d 8e32 f43c 820c b6bd 80ea 133e
00000200: 9555 c2bd 8477 e1bd 66cd 28be c8aa 223e
00000210: 5651 94bd 5156 0abe a5b4 fb3c 93f3 8cbb
00000220: dfab c13c 011b a43d 8bb8 15be 2126 e5bd
00000230: 1159 ef3d 5384 34bd b0f2 b23c 4ad6 e43c
00000240: f6ba 303e b3da e83d a80a 333e 1990 843b
00000250: b8b5 f8bd 20da d73c 3ab7 053e 87a4 133e
00000260: a628 253e 737d 2f3b 2e64 8ebd 349f e7bc
00000270: 68b4 04bd be13 153b 024f e3bd 9ffc 843d
00000280: 5d39 b7bd 7495 793d 37ec 933d 3a53 1dbe
00000290: 08f6 e83d ac27 0c3e 4bb5 243d dd1a 1abc
000002a0: 5718 cebd 4c26 37ba b37d 743d 6d67 2bbe
000002b0: 7180 d13d f88c 0ebe b574 e9bd 9292 173e
000002c0: ce6d 343d 13bd dbbb bbc4 87bb 5c67 033e
000002d0: 813e d0bd c91f b7bd c865 c63d 825a ac3d
000002e0: 6cdc 0fbd b8f8 033e 9553 c2bd bd34 9bbd
000002f0: 8ae6 833d 62a2 113e 70c0 e83d ad1c c83d
00000300: fcba fcbc c7fe 933d a815 e2bd 419c 0d3e
00000310: 4e9c fdbd b4cc 9e3d 72f3 20be ab2b c13d
00000320: 1b0f 653d 77b3 113e f267 adbd 7054 c1bc
00000330: e69e 58bd 3ccb c3bc f076 e13c 661c 6abd
00000340: 4d99 5bbc bed2 b3bd ba31 d7bd 6d03 1dbd
00000350: 7a6d 89bb d610 85bd 2b99 bf3d 1b5f b73d
00000360: 975a 26be 51d9 8a3d 55a2 c1bd 8011 4cbd
00000370: ad5b 133e ba40 03bd 2bbc 7c3d 1d24 32be
00000380: 299f 15be 3b90 233d 3a3d bb3d 3430 213e
00000390: a0d6 373e 0432 1cbd 3dd6 5fbd acdc b53d
000003a0: 8693 eabd d75b e03d af75 203e c8fb e83b
000003b0: 4b45 4e3d 6aa4 a73d 0d34 bdbd 292d 263d
000003c0: a2f8 2d3d ad64 4abd 4132 6e3c a042 143b
000003d0: 56ec 053e aa33 3c3e 380c eabd 8cbf b0bb
000003e0: e8ce 3c3d 17f1 a9bd f5d5 48bd 559c b73c
000003f0: 8433 32bd 717c f13c d651 66bc cac2 b93d

module.base.1.layers.2.weight f4 [256]
1.0339735 1.0214095 1.0067662 1.0932539 1.0439869 1.0264889 1.0905342 1.0301688
1.0674204 1.0091093 1.0759727 1.044738 1.0182405 1.0148878 1.0237345 1.0727091
1.0050503 1.020142 1.0132543 1.0050931 0.99966806 1.030592 1.0359216 1.0228143
0.9960169 1.0248868 1.0022888 1.0027606 1.0245763 0.99392843 0.9964955 0.98894024
1.0197697 1.0259755 1.0264328 1.0122522 1.015864 1.0081651 1.003535 1.0127971
1.0349535 1.0138826 1.0107718 1.0239297 1.0066371 1.0185138 1.0603608 1.0472718
1.0278175 1.0103558 1.0886464 0.99799025 1.03674 0.9914828 1.0168626 0.9971893
1.0233248 1.0177357 1.0054067 1.0098563 1.0044346 1.0483596 1.0000277 1.03426
1.050549 1.0155078 1.0217185 1.0166855 1.0390847 1.0011853 1.0135248 1.0062249
1.0017403 0.9873891 0.9854778 1.0502894 0.9994192 1.003581 1.0300925 1.0060279
1.0062497 1.0002345 1.0355299 1.0009735 0.9855449 0.9953081 1.0158525 0.993593
1.0296788 0.9942742 1.0174186 1.0054758 1.0098336 1.0357509 1.0101283 0.99924356
0.99796504 1.0216376 1.0193707 1.0180812 1.006657 1.0063537 0.99978584 1.0238479
1.0163121 1.0082935 1.0308247 1.006853 0.9994274 1.0295416 0.9928033 1.0150386
1.0044682 1.0118847 1.0014863 1.0105222 1.0200847 1.0005664 0.9955313 1.0058527
1.0159167 1.0591667 1.0132595 1.0556102 1.0035799 1.0272154 1.0357852 1.0136193
1.0222126 0.96756124 1.0436237 1.0095954 1.0164791 1.0042802 1.0068727 1.0086256
1.0269811 1.0030156 1.0005141 0.9944004 0.9995626 1.0066096 1.0175751 1.0078706
0.98203814 1.0685332 1.0109563 1.0128253 1.0109974 1.0324453 1.0153697 1.0047194
1.0277587 1.002193 1.0066787 1.0338702 1.014217 1.0669918 1.0243996 1.02138
0.99784786 0.9965745 1.0431409 0.9944 1.0065188 1.0059735 0.99222875 1.0189314
1.0175502 1.0040877 1.0181274 1.0128658 0.9829054 1.0291717 1.0561334 1.0047611
1.0015113 1.0094137 1.0218345 1.0416801 1.0357965 1.0130868 1.000634 1.0026894
1.0000279 0.9987722 0.9926514 1.0402122 0.9922898 1.0169927 1.0307939 1.0030655
1.002999 1.0149767 1.0326279 1.0326673 1.062553 0.99481726 1.0146672 1.0045127
1.010858 1.0061262 1.0601779 1.0134995 1.0463544 0.991304 1.0328709 1.0076044
1.0005314 1.0100595 1.0034115 1.0317924 1.1334836 1.0082709 1.0133328 1.0236775
0.9980345 1.0036806 1.0092801 1.0645145 1.0129594 1.0265269 1.0103239 1.0351576
0.9915551 1.0145248 1.0161544 1.0152291 1.0159785 0.99186015 1.0326076 0.99225324
1.0067002 1.0088481 0.99832994 0.99872816 0.9794623 1.0414784 1.0185456 1.0065817
0.995575 1.001672 1.0253451 1.0344838 1.0065472 1.0084587 1.0128332 0.9955468
1.0135951 0.98957366 0.99920785 1.0559261 1.0275066 1.0018834 1.0131856 1.1356168
00000000: 3e59 843f 8cbd 823f b7dd 803f beef 8b3f
00000010: 5da1 853f fd63 833f a096 8b3f 92dc 833f
00000020: 3ba1 883f 7e2a 813f 79b9 893f fab9 853f
00000030: b455 823f d8e7 813f bb09 833f 884e 893f
00000040: 7da5 803f 0394 823f 51b2 813f e4a6 803f
00000050: 3fea 7f3f 70ea 833f 1499 843f 94eb 823f
00000060: f7fa 7e3f 7e2f 833f 004b 803f 765a 803f
00000070: 5125 833f 1872 7e3f 541a 7f3f 302b 7d3f
00000080: d087 823f 2a53 833f 2662 833f 7b91 813f
00000090: d507 823f 8e0b 813f d673 803f 56a3 813f
000000a0: 5b79 843f e8c6 813f f860 813f 2110 833f
000000b0: 7cd9 803f a95e 823f e7b9 873f 010d 863f
000000c0: 868f 833f 5753 813f c458 8b3f 4a7c 7f3f
000000d0: e5b3 843f d1d1 7d3f 8e28 823f cc47 7f3f
000000e0: 4ffc 823f 2a45 823f 2bb1 803f f942 813f
000000f0: 5091 803f a630 863f e800 803f a262 843f
00000100: 6478 863f 29fc 813f acc7 823f c022 823f
00000110: ba00 853f d726 803f 2ebb 813f facb 803f
00000120: 0739 803f 88c5 7c3f 4648 7c3f e26f 863f
00000130: f0d9 7f3f 5875 803f 12da 833f 86c5 803f
00000140: cacc 803f af07 803f 3e8c 843f e61f 803f
00000150: ac4c 7c3f 83cc 7e3f 7407 823f 1c5c 7e3f
00000160: 84cc 833f c188 7e3f c63a 823f 6eb3 803f
00000170: 3a42 813f 7c93 843f e24b 813f 6dce 7f3f
00000180: a37a 7f3f 05c5 823f bd7a 823f 7c50 823f
00000190: 23da 803f 33d0 803f f7f1 7f3f 730d 833f
000001a0: 8416 823f c30f 813f 10f2 833f 8fe0 803f
000001b0: 79da 7f3f 05c8 833f 5b28 7e3f c9ec 813f
000001c0: 6a92 803f 7085 813f b430 803f cb58 813f
000001d0: 2392 823f 8f12 803f 24db 7e3f c8bf 803f
000001e0: 8f09 823f c692 873f 7db2 813f 3c1e 873f
000001f0: 4e75 803f cb7b 833f 9c94 843f 47be 813f
00000200: ddd7 823f 18b2 773f 7695 853f 6c3a 813f
00000210: fd1b 823f 418c 803f 34e1 803f a51a 813f
00000220: 1e74 833f d162 803f d910 803f 0691 7e3f
00000230: 56e3 7f3f 95d8 803f e73f 823f e701 813f
00000240: da66 7b3f b2c5 883f 0467 813f 42a4 813f
00000250: 5d68 813f 2b27 843f a2f7 813f a59a 803f
00000260: 998d 833f dc47 803f d9da 803f dc55 843f
00000270: ddd1 813f 3093 883f 871f 833f 94bc 823f
00000280: f572 7f3f 821f 7f3f a485 853f 0091 7e3f
00000290: 9cd5 803f bdc3 803f b402 7e3f 586c 823f
000002a0: 163f 823f f285 803f 0052 823f 96a5 813f
000002b0: b09f 7b3f e6bb 833f 612f 873f 039c 803f
000002c0: 8631 803f 7834 813f 79cb 823f c655 853f
000002d0: fb94 843f d4ac 813f c614 803f 2058 803f
000002e0: ea00 803f 89af 7f3f 671e 7e3f ac25 853f
000002f0: b406 7e3f d12c 823f 0ef1 833f 7364 803f
00000300: 4562 803f c2ea 813f 272d 843f 712e 843f
00000310: bd01 883f 58ac 7e3f 9de0 813f df93 803f
00000320: cc63 813f bec8 803f e9b3 873f 5aba 813f
00000330: f1ee 853f 19c6 7d3f 1d35 843f 2ef9 803f
00000340: 6a11 803f a149 813f ca6f 803f c611 843f
00000350: fe15 913f 050f 813f e4b4 813f dd07 833f
00000360: 307f 7f3f 9b78 803f 1730 813f 0342 883f
00000370: a7a8 813f 3c65 833f 4b52 813f 0b80 843f
00000380: 8ed6 7d3f f3db 813f 5911 823f 07f3 813f
00000390: 950b 823f 8cea 7d3f 7c2c 843f 4f04 7e3f
000003a0: 8ddb 803f ef21 813f 8d92 7f3f a6ac 7f3f
000003b0: 0bbe 7a3f 2a4f 853f b45f 823f abd7 803f
000003c0: 01de 7e3f ca36 803f 823e 833f f769 843f
000003d0: 8ad6 803f 2d15 813f 85a4 813f 28dc 7e3f
000003e0: 7cbd 813f b354 7d3f 16cc 7f3f 9628 873f
000003f0: 5685 833f b73d 803f 11b0 813f e45b 913f

module.base.1.layers.2.bias f4 [256]
0.002874538 0.014473958 -0.01782222 -0.0104268305 0.014669448 0.0061345203 0.030963577 -0.011796576
0.007129384 0.0006024824 0.016168512 0.030551352 -0.00025426754 -0.002759588 0.006955487 0.00043071844
0.014111285 0.014881385 0.0007796559 -0.0026464877 0.0032035406 -0.0026551408 0.003570337 0.0029052894
-0.003693891 -0.0036185246 -0.019574063 -0.0020953286 0.006387112 0.0031536412 0.017005786 0.012327778
0.00042957437 -0.011006201 0.0060669356 -0.006083435 0.002171028 -0.002000967 0.016591381 -0.019955741
-0.007318649 -0.0046373936 0.0047836904 -0.009346999 -0.0037532572 -0.0008707964 0.007801599 0.009575962
0.010878384 0.009680973 0.005501643 -0.0020610648 -0.022058476 0.002669892 0.00034704173 0.002197232
0.023425287 -0.0007600968 -0.00831134 -0.0014811651 -0.013052957 -0.0028857673 2.1769045e-05 -0.002439425
0.009055963 0.0015414583 0.008637069 -0.009388693 -0.00270387 0.0082789175 0.0046844804 0.00065090397
0.0009479278 0.0013322919 -0.0037152607 0.010792887 0.0062942617 0.010591389 0.019022815 0.014403674
0.033845663 0.0034969694 -0.0023223073 -0.007709234 -0.008613331 -0.0037776164 -0.00032504194 0.0060978136
0.0036555524 -0.0062194043 -0.0072405552 0.0013366626 -0.0002189331 -0.023086704 0.005449711 -0.00522719
-0.0032240765 0.014042112 0.0026135938 -0.0077592866 -0.0026267557 0.008058933 0.0017013723 -0.012267882
0.0027408418 0.00023788847 0.010003732 0.007976707 -0.0013891237 -0.0035935685 -0.0062479917 -0.008726305
0.008684664 -0.0018345629 -0.006383446 0.006319775 -0.006979508 0.004740093 0.0023183378 0.010306687
-0.0056326655 0.00056084234 -0.017768444 0.0023848582 0.003990291 -0.0036964132 -0.014239582 -0.009854423
-0.0068790535 -0.0063641034 -0.009907793 0.0034394837 -0.0032316963 -0.00033448002 0.015569298 0.00078427524
0.010962048 -0.00016335478 -0.0036049213 0.0030748055 -0.004719799 -0.0050755455 -0.0047728536 -0.003918215
0.01964061 0.019835228 0.008694407 -3.1169027e-05 -0.007165806 0.012070454 -0.005908041 0.0020144447
0.011066703 0.009550762 0.0068302117 0.0023716327 0.0036234283 -0.0015436972 -0.004805777 0.0014491874
0.0015141534 0.014506501 -0.014388453 0.004279854 0.006248071 0.007990066 0.0032289661 0.0008919177
-0.005153364 0.0009011554 0.0025522225 0.012678985 0.00028021584 0.008882102 -0.0070757354 -0.003526103
0.006365349 -0.013451053 0.0034557378 0.025892245 -0.016650237 -0.003274012 0.0032313163 -0.0031591074
-0.0039131762 0.009000514 0.0033252975 0.002511998 0.0047288416 -0.014233677 -0.0029222257 0.0053626406
-0.0011612636 -0.011073205 -0.012524027 0.00602224 -0.004627256 0.000984101 0.0029103383 0.0030380057
-0.004646834 -0.005699443 -0.0073220935 0.012147144 -0.0048325816 -0.0075044497 0.01933523 -0.009524596
0.0048330044 0.0028057166 0.0003098189 -0.0023218358 -0.0035980856 -0.00022866583 0.0024589624 0.014218307
-0.009758717 0.0043656495 -0.0014104797 0.00539363 0.027963372 -0.0076576574 -0.0018277469 -0.00023284619
-0.013400922 0.0021997872 0.002685812 0.0013564818 0.023704287 0.0024257372 -0.017298091 0.0066470685
-0.0012160143 0.007556071 0.006068051 -0.004884546 -0.017111378 -0.028748278 0.0005888376 -0.0097567495
0.0014203663 0.00185898 -0.00078371767 0.014426734 0.00091751985 0.022002889 -0.0073009445 0.0035967946
-0.013864785 0.006768511 0.0070087947 -0.00049071974 -0.008256793 0.0016569729 -0.00078065164 0.006479269
00000000: bf62 3c3b 2e24 6d3c e8ff 91bc 4cd5 2abc
00000010: 2058 703c 1604 c93b 54a7 fd3c 6d46 41bc
00000020: 9c9d e93b e9ef 1d3a d473 843c d446 fa3c
00000030: 364f 85b9 34da 34bb dbea e33b 0dd2 e139
00000040: 0533 673c 0dd1 733c d261 4c3a b270 2dbb
00000050: 7ef2 513b df01 2ebb 51fc 693b ab66 3e3b
00000060: 3515 72bb c524 6dbb c959 a0bc c851 09bb
00000070: fb4a d13b 52ad 4e3b b84f 8b3c 73fa 493c
00000080: 7f38 e139 5a53 34bc 25cd c63b 8d57 c7bb
00000090: ce47 0e3b a822 03bb a6ea 873c 397a a3bc
000000a0: 47d1 efbb 47f5 97bb 81c0 9c3b 2824 19bc
000000b0: 35f9 75bb 2846 64ba 8ea4 ff3b 7fe4 1c3c
000000c0: 403b 323c f29c 1e3c 2047 b43b ee12 07bb
000000d0: fab3 b4bc 5bf9 2e3b 27f3 b539 70ff 0f3b
000000e0: 63e6 bf3c 3c41 47ba 492c 08bc a723 c2ba
000000f0: 12dc 55bc 241f 3dbb ab9c b637 c3de 1fbb
00000100: 765f 143c c20a ca3a 7e82 0d3c 08d3 19bc
00000110: 6933 31bb 4ca4 073c 4580 993b 6da1 2a3a
00000120: 5c7e 783a 4ca0 ae3a bb7b 73bb a6d4 303c
00000130: 1840 ce3b 8187 2d3c bcd5 9b3c 63fd 6b3c
00000140: c0a1 0a3d 692d 653b da31 18bb be9d fcbb
00000150: ee1e 0dbc e391 77bb 646a aab9 2bd0 c73b
00000160: fe91 6f3b 25cc cbbb 2e42 edbb f432 af3a
00000170: 6891 65b9 5420 bdbc 7d93 b23b d948 abbb
00000180: 074b 53bb e310 663c d448 2b3b 9d41 febb
00000190: a625 2cbb 9d09 043c 9500 df3a 3aff 48bc
000001a0: b29f 333b b371 7939 b1e6 233c bcb0 023c
000001b0: 4213 b6ba 1382 6bbb f4bb ccbb c7f8 0ebc
000001c0: 1f4a 0e3c b775 f0ba 3a2c d1bb 1d16 cf3b
000001d0: 5bb4 e4bb c852 9b3b 41ef 173b 61dd 283c
000001e0: 3992 b8bb 7e05 133a 218f 91bc 484b 1c3b
000001f0: fdc0 823b 863f 72bb 234d 69bc 7274 21bc
00000200: af69 e1bb f889 d0bb 4c54 22bc f668 613b
00000210: deca 53bb 265d afb9 5e16 7f3c d297 4d3a
00000220: 299a 333c 374a 2bb9 8b40 6cbb ad82 493b
00000230: 8ba8 9abb c350 a6bb 9965 9cbb 5f64 80bb
00000240: 58e5 a03c 7d7d a23c fc72 0e3c 7dbb 02b8
00000250: 23cf eabb 27c3 453c 3d98 c1bb c604 043b
00000260: 1e51 353c cd7a 1c3c f8cf df3b 656d 1b3b
00000270: 0a77 6d3b e255 caba c879 9dbb a9f2 bd3a
00000280: 8f76 c63a adac 6d3c 8cbd 6bbc 043e 8c3b
00000290: 9ebc cc3b c4e8 023c 109d 533b 95cf 693a
000002a0: 8ddd a8bb 843b 6c3a 3043 273b 84bb 4f3c
000002b0: efe9 9239 3c86 113c 92db e7bb 3116 67bb
000002c0: 6b94 d03b ce61 5cbc a979 623b f91b d43c
000002d0: 1466 88bc ce90 56bb 7ec4 533b 0709 4fbb
000002e0: 1a3a 80bb e476 133c 3ced 593b 55a0 243b
000002f0: 66f4 9a3b 5e34 69bc d082 3fbb 17b9 af3b
00000300: 8a35 98ba 636c 35bc 9431 4dbc 3656 c53b
00000310: 3da0 97bb f3fc 803a 60bb 3e3b 4719 473b
00000320: 7844 98bb 65c2 babb 2cee efbb d104 473c
00000330: a25a 9ebb e3e7 f5bb eb64 9e3c 0d0d 1cbc
00000340: 2e5e 9e3b 1de0 373b 306f a239 f129 18bb
00000350: dccd 6bbb 04c6 6fb9 8b26 213b e7f3 683c
00000360: 07e3 1fbc b90d 8f3b d8df b8ba 0cbd b03b
00000370: 7113 e53c 16ed fabb 0291 efba 2c28 74b9
00000380: 8a8f 5bbc 4e2a 103b 7304 303b facb b13a
00000390: 7e2f c23c 1ef9 1e3b bab4 8dbc a7cf d93b
000003a0: ab62 9fba eb98 f73b 80d6 c63b 8b0e a0bb
000003b0: 292d 8cbc 8281 ebbc 395c 1a3a c6da 1fbc
000003c0: 962b ba3a 05a9 f33a 6772 4dba 1c5e 6c3c
000003d0: b785 703a 673f b43c c33c efbb 33b8 6b3b
000003e0: 2029 63bc 63ca dd3b 08aa e53b a5a3 00ba
000003f0: 8047 07bc c92e d93a a5a4 4cba 0c50 d43b

module.base.1.layers.3.weight f4 [128, 256]
-0.031317525 0.03018641 0.042961877 0.048390463 -0.06609274 0.049994294 0.011699965 0.018026993
-0.01364742 0.034040563 -0.039408725 -0.0018637129 -0.003485129 0.026879119 0.040875476 -0.004233277
0.05524274 -0.04728057 -0.022256609 0.0042799315 -0.031734686 0.020945022 -0.0049682027 0.031094933
-0.030690195 -0.014001168 0.03931546 0.037755374 0.03635978 0.049442712 0.052473653 0.015292297
-0.032832667 -0.03163855 -0.005035443 -0.009161452 0.03664366 -0.039022036 -0.01736496 -0.036709193
0.021126151 0.023947677 0.044925824 -0.02897149 -0.026680188 0.012499917 0.02690616 0.029016957
0.06611821 0.06665548 0.04589486 -0.02704256 -0.058646366 -0.017346136 0.0034008122 -0.04911062
-0.05483609 0.054217163 -0.036516715 -0.02475205 0.029594235 -0.007689503 0.03961086 -0.06948582
-0.05187288 0.031572156 -0.023973493 -0.00091859157 -0.022214398 0.011504334 0.060805462 0.055684045
0.07557395 -0.041868832 -0.03352567 -0.0035458028 -0.04647518 -0.053391255 0.03579198 0.04191798
-0.021096038 0.039739866 -0.044779632 -0.024124809 -0.037620258 0.02290246 0.023463635 0.02413541
-0.01111824 -0.06241155 -0.08305456 -0.06072404 0.015207535 -0.062110014 0.007148384 0.060041767
-0.027593197 0.012857871 0.04912593 0.057932008 -0.04138812 -0.0064802803 -0.046797935 -0.0052126674
-0.0027379522 0.02292198 0.043658104 0.07589085 -0.052522883 -0.03294305 -0.030028868 0.012338504
0.022006815 -0.034135085 0.00945781 0.025602803 -0.02476179 -0.044236023 -0.018645115 -0.036313422
0.039215118 -0.10235709 0.0019106225 -0.010719704 0.051195316 -0.017456543 0.03859187 0.021226527
-0.010425505 0.048117105 -0.01948431 0.030423323 -0.035486188 -0.032524526 -0.061511185 0.05020421
-0.05092312 0.05779554 0.06426364 -0.020020733 -0.03335298 0.041677665 0.009376473 0.01370083
0.019020984 0.07070078 0.039601643 0.00648086 -0.049299456 0.041301224 -0.037686236 -0.05494156
0.008255615 -0.032080207 -0.052413773 -0.032635894 -0.016924795 0.07239511 0.062292334 0.05921444
0.05142198 0.0648925 -0.04688719 -0.054285232 -0.046236966 -0.012401448 0.0033832036 -0.029461922
-0.005517576 0.017607393 0.05958296 -0.049372014 -0.02365721 0.0392602 0.0017535215 0.020960182
0.05668579 0.0472686 -0.0065408503 0.012797304 0.007711144 0.0658002 0.035034068 -0.015677836
0.027916446 0.06082457 -0.0374505 -0.0343567 0.02083487 -0.027418088 -0.051484447 0.02773984
-0.018541243 -0.0070167896 -0.048104342 0.019339139 -0.045252547 -0.032479674 0.05674728 0.058843628
0.055243477 -0.012532499 0.011321261 0.023231186 -0.020342913 0.060917698 -0.016440107 -0.0020316762
0.024960853 -0.031929445 -0.042238366 0.04724575 -0.043013033 -0.016352145 -0.020065669 -0.0050101946
0.055798374 0.0034130425 0.029757218 0.057957746 -0.020315284 0.015853053 0.05055445 0.020467596
0.054448906 -0.026740244 0.013842663 0.055422645 -0.0371655 0.033041555 -0.03646777 0.020692222
0.00017210722 -0.07039785 0.06562837 -0.0004213475 0.0339164 -0.007899325 -0.017521452 0.05566428
-0.047975488 -0.041971345 0.03229601 0.053055424 -0.009407208 -0.008453208 -0.013680986 0.030242335
0.028651107 0.032985315 0.032864794 0.03879758 -0.07814675 0.044219192 0.06892675 -0.026774423
00000000: ce46 00bd 7d49 f73c cbf8 2f3d 1435 463d
00000010: a15b 87bd d1c6 4c3d 36b1 3f3c 58ad 933c
00000020: 6e99 5fbc 1e6e 0b3d 0b6b 21bd d447 f4ba
00000030: c366 64bb 9931 dc3c 0b6d 273d 4db7 8abb
00000040: 3646 623d 45a9 41bd 7e53 b6bc ab3e 8c3b
00000050: 3bfc 01bd e594 ab3c 4ecc a2bb cdba fe3c
00000060: 016a fbbc 2865 65bc 3f09 213d 61a5 1a3d
00000070: feed 143d 7184 4a3d 9dee 563d 8b8c 7a3c
00000080: 8c7b 06bd 6d97 01bd 5c00 a5bb ea19 16bc
00000090: aa17 163d 92d5 1fbd f640 8ebc 615c 16bd
000000a0: c010 ad3c eb2d c43c 2404 383d 9e55 edbc
000000b0: 6990 dabc 74cc 4c3c 4f6a dc3c f8b4 ed3c
000000c0: fc68 873d ab82 883d 40fc 3b3d 5c88 ddbc
000000d0: 2c37 70bd 7c19 8ebc 29e0 5e3b 3828 49bd
000000e0: cf9b 60bd d112 5e3d 8d92 15bd d0c4 cabc
000000f0: 9c6f f23c 3af8 fbbb ff3e 223d 954e 8ebd
00000100: a878 54bd ce51 013d 0f64 c4bc a3cd 70ba
00000110: f8fa b5bc ad7c 3c3c 260f 793d f414 643d
00000120: 84c6 9a3d a77e 2bbd 3752 09bd b360 68bb
00000130: c25c 3ebd cab0 5abd 9c9a 123d 30b2 2b3d
00000140: 99d1 acbc 45c6 223d d96a 37bd 64a1 c5bc
00000150: b317 1abd f19d bb3c cf36 c03c a0b7 c53c
00000160: 4729 36bc 41a3 7fbd 8218 aabd c5b9 78bd
00000170: 0629 793c 1267 7ebd fe3c ea3b 5bee 753d
00000180: 210b e2bc d2a9 523c 4538 493d 1d4a 6d3d
00000190: 9786 29bd 8858 d4bb 31af 3fbd 06cf aabb
000001a0: 376f 33bb e0c6 bb3c d7d2 323d a96c 9b3d
000001b0: 3c22 57bd 4bef 06bd 1aff f5bc 7027 4a3c
000001c0: a347 b43c 3bd1 0bbd eef4 1a3c f8bc d13c
000001d0: 3dd9 cabc d530 35bd a4bd 98bc 62bd 14bd
000001e0: 08a0 203d 98a0 d1bd da6d fa3a b3a1 2fbc
000001f0: 2eb2 513d 0601 8fbc 8212 1e3d 41e3 ad3c
00000200: bdcf 2abc 7116 453d 8f9d 9fbc 553a f93c
00000210: f759 11bd 7038 05bd 27f3 7bbd eea2 4d3d
00000220: c394 50bd 04bb 6c3d a89c 833d 8502 a4bc
00000230: 229d 08bd 33b6 2a3d c79f 193c 7279 603c
00000240: e5d1 9b3c 92cb 903d 5535 223d 655d d43b
00000250: 3aee 49bd 792b 293d e25c 1abd 670a 61bd
00000260: 8f42 073c 8966 03bd d3af 56bd 37ad 05bd
00000270: dea5 8abc e343 943d 3f26 7f3d d78a 723d
00000280: db9f 523d 5ce6 843d c80c 40bd 315a 5ebd
00000290: f962 3dbd 712f 4bbc bdb8 5d3b 215a f1bc
000002a0: c8cc b4bb 613d 903c 430d 743d 4f3a 4abd
000002b0: c4cc c1bc 4ecf 203d 6bd6 e53a b0b4 ab3c
000002c0: 5c2f 683d b89c 413d a154 d6bb c9ab 513c
000002d0: c4ad fc3b 41c2 863d e27f 0f3d ce6e 80bc
000002e0: 08b1 e43c 2f23 793d b265 19bd 9cb9 0cbd
000002f0: e4ad aa3c e69b e0bc 5be1 52bd a93e e33c
00000300: cee3 97bc 19ed e5bb 0f09 45bd 1d6d 9e3c
00000310: bc5a 39bd 6809 05bd d66f 683d 0406 713d
00000320: fc46 623d 1c55 4dbc cf7c 393c 544f be3c
00000330: 2ea6 a6bc d684 793d 67ad 86bc df25 05bb
00000340: b47a cc3c 73c8 02bd 2302 2dbd c284 413d
00000350: 6f2e 30bd eff4 85bc c260 a4bc 8f2c a4bb
00000360: d68c 643d 5aad 5f3b 69c5 f33c 1a65 6d3d
00000370: 3d6c a6bc 43de 813c 2f12 4f3d a9ab a73c
00000380: d105 5f3d 5b0e dbbc 56cc 623c db02 633d
00000390: da3a 18bd 9556 073d 3a5f 15bd bc82 a93c
000003a0: ae77 3439 bf2c 90bd 2b68 863d 4ee8 dcb9
000003b0: eceb 0a3d 2c6c 01bc 2689 8fbc 3a00 643d
000003c0: f281 44bd 25ea 2bbd d248 043d a550 593d
000003d0: b120 1abc 537f 0abc 3726 60bc c6be f73c
000003e0: bab5 ea3c 9c1b 073d 3c9d 063d 36ea 1e3d
000003f0: 670b a0bd 2f1f 353d 7829 8d3d 0956 dbbc

module.base.1.layers.3.bias f4 [128]
-0.038930096 -0.0034778595 -0.04536862 0.02443804 0.054563206 0.036266856 0.03477219 0.025733624
-0.027671028 -0.02160518 -0.020237496 -0.012947114 -0.0706788 0.0014064165 0.038550574 -0.014177585
0.06185056 -0.03250543 0.02756014 -0.005835126 0.04858162 -0.02372928 -0.045759812 -0.035896547
-0.06126778 0.029703032 0.045437388 -0.06219198 -0.034006853 -0.049412824 -0.051463317 0.05097368
-0.06530234 -0.042025045 0.042190026 0.05635442 -0.06246232 -0.009071997 0.0544022 0.021680059
0.020979717 -0.0394608 -0.052802593 -0.00080609095 0.020946337 -0.06478935 0.037294157 -0.008700236
0.01288997 0.040470835 0.016602423 0.034341425 0.0052263984 0.059322555 0.023372054 -0.02278255
0.056656454 -0.032824297 -0.038281888 -0.025352776 -0.04718057 -0.0071112565 0.035002187 0.061798297
0.036120474 0.020093406 -0.056226376 -0.051875573 -0.022476157 -0.05645628 0.025474425 0.05190132
-0.058209192 -0.057370298 -0.074117385 0.013398907 0.011269187 0.02455906 0.03146919 0.05706556
0.042011894 -0.025666459 -0.00314738 0.014998661 -0.05250457 0.024526544 -0.047222417 -0.039362963
-0.026127834 0.021298574 -0.030068224 -0.06064705 -0.023176327 -0.003398308 -0.013190588 0.034808926
0.02320711 -0.025704224 -0.034724202 0.0077298847 0.012979029 0.02002335 0.06113453 -0.015402396
-0.007960084 0.053793177 -0.051501278 -0.010382756 -0.033130754 -0.046233535 0.046107072 0.029217301
0.01169018 0.0038221504 0.00051383756 -0.011586203 -0.0074555697 -0.024371956 -0.031054813 -0.024346251
0.04163134 -0.026216334 -0.037996758 0.02492705 -0.0069452133 -0.046458628 -0.0035979496 0.017371705
00000000: 2a75 1fbd cdec 63bb 72d4 39bd 4932 c83c
00000010: ab7d 5f3d 8e8c 143d 496d 0e3d 52cf d23c
00000020: 5aae e2bc 59fd b0bc 1bc9 a5bc 2220 54bc
00000030: 0cc0 90bd 8257 b83a 35e7 1d3d 1a49 68bc
00000040: 0357 7d3d 6a24 05bd cdc5 e13c 9634 bfbb
00000050: 85fd 463d e863 c2bc a46e 3bbd 4208 13bd
00000060: ecf3 7abd c653 f33c 8e1c 3a3d 05bd 7ebd
00000070: c54a 0bbd 1a65 4abd 33cb 52bd c7c9 503d
00000080: 3cbd 85bd 7422 2cbd 73cf 2c3d e4d3 663d
00000090: 7dd8 7fbd b7a2 14bc d7d4 5e3d 619a b13c
000000a0: a8dd ab3c a6a1 21bd 8847 58bd d94f 53ba
000000b0: a797 ab3c 47b0 84bd c2c1 183d 6f8b 0ebc
000000c0: 7430 533c bfc4 253d ce01 883c 98a9 0c3d
000000d0: 3542 ab3b 35fc 723d c076 bf3c 78a2 babc
000000e0: 9910 683d c572 06bd 78cd 1cbd a0b0 cfbc
000000f0: 6a40 41bd 8b05 e9bb 745e 0f3d 3620 7d3d
00000100: 10f3 133d ed9a a43c a14d 66bd 7b7b 54bd
00000110: eb1f b8bc b33e 67bd beaf d03c 7b96 543d
00000120: c36c 6ebd 1efd 6abd dbca 97bd 1787 5b3c
00000130: 65a2 383c 1530 c93c d6e5 003d 94bd 693d
00000140: aa14 2c3d 7742 d2bc 4644 4ebb f2bc 753c
00000150: 080f 57bd e4eb c83c 4b6c 41bd 0f3b 21bd
00000160: 0a0a d6bc 597a ae3c a351 f6bc 0b69 78bd
00000170: 48dc bdbc 26b6 5ebb 561d 58bc ce93 0e3d
00000180: d61c be3c aa91 d2bc f73a 0ebd f94a fd3b
00000190: fea5 543c 0208 a43c 3368 7a3d 555a 7cbc
000001a0: 036b 02bc 3c56 5c3d 01f3 52bd 6f1c 2abc
000001b0: 1db4 07bd 605f 3dbd c5da 3c3d 1f59 ef3c
000001c0: 2b88 3f3c 0b7d 7a3b 0eb3 063a 0fd4 3dbc
000001d0: da4d f4bb b2a7 c7bc aa66 febc ca71 c7bc
000001e0: a085 2a3d a3c3 d6bc 7da2 1bbd d033 cc3c
000001f0: ac94 e3bb 674b 3ebd 94cb 6bbb 1b4f 8e3c

module.base.1.layers.5.weight f4 [128]
1.0573064 1.036375 1.05256 1.01965 1.02348 1.1533834 1.0092032 0.9886602
1.0679075 1.0407616 1.0076241 1.0103098 1.0641922 1.0023248 1.0527605 1.0014694
1.0122677 0.9975618 1.0153261 1.0588323 1.0110996 1.0083433 0.99930215 1.0729142
1.1556461 1.02496 1.0083222 0.99986434 1.034948 1.015691 1.0805708 1.0311604
1.0381715 0.99510974 1.0264647 1.116452 1.1165439 1.1836973 1.0173131 1.0160567
1.0111471 1.0724813 1.0095115 1.0266604 0.9972097 1.0148171 1.058686 1.0215453
1.015888 1.0157859 1.0040414 1.1486117 1.0115548 1.0428208 1.0052698 1.0136036
1.0076044 1.011895 1.0024647 1.119513 1.0749851 1.002096 1.0818788 1.0447111
1.0699031 1.0101614 1.047712 1.0295066 1.0262101 1.0567714 1.0328808 1.0118626
1.0102412 1.007399 1.065626 1.0146241 1.0176984 1.0364385 1.0295713 0.994751
1.012237 1.021508 1.0371692 0.99706674 1.0135164 1.0046755 1.011217 1.0765705
1.0085953 0.9897067 1.0130726 1.0679002 1.0583317 1.0049801 1.0278897 1.041035
1.0062414 1.0467149 1.0445317 0.9997859 1.0485837 1.112069 1.1314709 1.050127
1.0539452 1.0187554 0.9945058 1.0146723 1.0554013 1.0204377 0.9961901 1.1316489
1.0376931 0.99897474 0.9997721 1.0894275 1.0200146 1.1340187 1.0002601 1.0082963
1.0520698 1.015547 1.069381 1.0846494 1.0717627 1.029983 1.1263983 1.0211287
00000000: d155 873f f0a7 843f 49ba 863f e483 823f
00000010: 6501 833f 11a2 933f 922d 813f d618 7d3f
00000020: 31b1 883f ad37 853f d4f9 803f d551 813f
00000030: 7337 883f 2e4c 803f dbc0 863f 2630 803f
00000040: fd91 813f 3660 7f3f 35f6 813f d187 873f
00000050: b66b 813f 6511 813f 44d2 7f3f 4155 893f
00000060: 36ec 933f e431 833f b410 813f 1cf7 7f3f
00000070: 2d79 843f 2a02 823f 2550 8a3f 10fd 833f
00000080: cee2 843f 83bf 7e3f 3263 833f e6e7 8e3f
00000090: e9ea 8e3f 6583 973f 5137 823f 250e 823f
000000a0: 456d 813f 1147 893f ac37 813f 9c69 833f
000000b0: 2349 7f3f 87e5 813f 0683 873f ffc1 823f
000000c0: 9e08 823f 4605 823f 6e84 803f b505 933f
000000d0: a17a 813f 277b 853f aeac 803f c3bd 813f
000000e0: 2ef9 803f c685 813f c350 803f 344c 8f3f
000000f0: 1d99 893f af44 803f 017b 8a3f 18b9 853f
00000100: 96f2 883f f84c 813f 6d1b 863f dfc6 833f
00000110: da5a 833f 4944 873f 7035 843f b784 813f
00000120: 954f 813f 73f2 803f 6f66 883f 34df 813f
00000130: f143 823f 04aa 843f fec8 833f 00a8 7e3f
00000140: fb90 813f c6c0 823f f6c1 843f c43f 7f3f
00000150: e8ba 813f 3599 803f 8f6f 813f 10cd 893f
00000160: a719 813f 6b5d 7d3f 5dac 813f f4b0 883f
00000170: 6a77 873f 30a3 803f e491 833f a340 853f
00000180: 85cc 803f c1fa 853f 37b3 853f f8f1 7f3f
00000190: fe37 863f 4758 8e3f 0ad4 903f 906a 863f
000001a0: ade7 863f 9466 823f ef97 7e3f c8e0 813f
000001b0: 6417 873f b49d 823f 5006 7f3f dfd9 903f
000001c0: 21d3 843f cfbc 7f3f 10f1 7f3f 5c72 8b3f
000001d0: d78f 823f 8627 913f 8608 803f da0f 813f
000001e0: 39aa 863f 72fd 813f 7ae1 883f cbd5 8a3f
000001f0: 852f 893f 7cd6 833f d22d 903f 58b4 823f

module.base.1.layers.5.bias f4 [128]
-0.01437658 -0.023880692 -0.022341548 -0.0088880565 -0.0038393666 0.067288905 0.009456899 0.002565044
-0.0020491758 -0.005937137 0.0067668026 0.0063055023 -0.018248487 -0.005660204 0.014956204 0.0015840534
-0.0010196941 0.002736142 -0.0024005978 -0.019504508 0.014218516 -0.00951215 0.0024014504 0.056373958
0.044429597 -0.010164549 -0.005600726 0.005698706 -0.0088175135 0.0086616855 0.044837162 0.005703497
-0.0036343427 0.0068462472 0.02375142 -0.039657097 0.03025767 0.011522253 -0.023537688 0.009849682
-8.628795e-05 0.045128297 0.013920322 -0.013534822 -0.0036329823 -0.010047763 -0.024209758 -0.005115076
0.007090432 0.0153274825 -0.0068494803 -0.0048252484 0.0034324082 0.016191551 -0.0040433495 0.008886044
-0.001899681 -7.936434e-05 0.019498914 0.016262224 -0.003351337 0.001454095 0.025553072 0.00846439
-0.014154309 -0.0018236845 -0.0033209107 -0.0069585745 -0.0062967665 -0.017583359 0.017828083 0.0008173185
-9.808812e-05 -0.0039924644 -0.054398097 0.020021131 0.0009052183 0.013567419 -0.0014044585 0.013873588
0.012105117 -0.0019005578 -0.036009938 -0.021073053 0.049899917 -0.008035842 -0.0021069134 -0.04224476
-0.014463084 -0.00912032 -0.012996879 0.02826721 0.026790606 -0.00081913295 -0.001944014 0.01589359
-0.0068386993 0.02201763 -0.0056731612 -0.014964032 0.0059932917 0.038209785 0.0032539235 0.019430906
0.027266756 0.0073306863 -9.110389e-05 0.0041230875 0.0151130445 -0.0039530685 -0.003264173 -0.027980076
0.008257111 0.0017074569 0.016730953 -0.023825016 -0.005347505 -0.0061012916 0.0007722311 -0.004919991
0.0153064625 -0.022447184 0.008298004 0.0033997966 0.004755367 -0.012984651 0.02951211 -0.0038040772
00000000: bf8b 6bbc 71a1 c3bc 9f05 b7bc 369f 11bc
00000010: e29d 7bbb c4ce 893d 1cf1 1a3c 4c1a 283b
00000020: 774b 06bb 518c c2bb 0ebc dd3b 639e ce3b
00000030: da7d 95bc 3c79 b9bb de0a 753c 03a0 cf3a
00000040: 42a7 85ba d850 333b 5953 1dbb ebc7 9fbc
00000050: c7f4 683c d9d8 1bbc a761 1d3b 61e8 663d
00000060: cffb 353d 3589 26bc 4c86 b7bb 36bc ba3b
00000070: 5577 10bc bee9 0d3c 2ca7 373d 67e4 ba3b
00000080: 272e 6ebb 7c56 e03b 5792 c23c 7b6f 22bd
00000090: efde f73c d5c7 3c3c 1cd2 c0bc 9060 213c
000000a0: 7ef5 b4b8 73d8 383d 1012 643c 28c1 5dbc
000000b0: 5417 6ebb 5f9f 24bc 8b53 c6bc 5e9c a7bb
000000c0: db56 e83b 1f20 7b3c 9b71 e0bb 1e1d 9ebb
000000d0: 41f2 603b 25a4 843c 137e 84bb c596 113c
000000e0: b8fe f8ba 6870 a6b8 30bc 9f3c 5b38 853c
000000f0: 1ba2 5bbb 5597 be3a ad54 d13c 3aae 0a3c
00000100: 7ae7 67bc b308 efba a3a3 59bb c104 e4bb
00000110: 1b55 cebb fa0a 90bc 330c 923c 5141 563a
00000120: a9b4 cdb8 38d3 82bb 8ad0 5ebd 5b03 a43c
00000130: 2c4c 6d3a e149 5e3c cf15 b8ba 0c4e 633c
00000140: 8a54 463c 231c f9ba 287f 13bd 65a1 acbc
00000150: db63 4c3d c4a8 03bc 2414 0abb d708 2dbd
00000160: 92f6 6cbc 656d 15bc ddf0 54bc a390 e73c
00000170: f977 db3c 15bb 56ba 49ce feba 4633 823c
00000180: 2b17 e0bb 515e b43c ede5 b9bb b32b 75bc
00000190: 6063 c43b dd81 1c3d c73f 553b 902d 9f3c
000001a0: 885e df3c 4136 f03b 070f bfb8 f71a 873b
000001b0: b49c 773c be88 81bb bceb 55bb 7936 e5bc
000001c0: d548 073c bfcc df3a 5a0f 893c ae2c c3bc
000001d0: 203a afbb 58ed c7bb 8d6f 4a3a e037 a1bb
000001e0: f5c7 7a3c 28e3 b7bc 5af4 073c 1fcf 5e3b
000001f0: e9d2 9b3b 93bd 54bc 61c3 f13c d34d 79bb

module.base.1.layers.6.weight f4 [128, 128]
0.008243414 0.081329785 -0.014719885 0.08223925 0.0010147401 -0.02188696 -0.04037706 -0.00035194127
-0.051605206 -0.053636067 -0.016676115 -0.00072511804 -0.04830163 0.016350713 -0.026583064 0.00036366927
0.001882415 0.05463295 -0.07899975 0.05292825 0.045762602 -0.054144695 -0.011916322 0.0600341
0.07134885 -0.02829433 0.0110487025 0.03195119 0.054662783 -0.076522894 0.058542583 0.064569496
0.05664036 0.013820747 -0.016009675 0.046952616 -0.06816006 -0.014779261 0.035839353 -0.0030188963
0.013720852 -0.04268617 0.04873837 0.030959185 0.035562504 0.041703217 0.04488318 0.015479472
0.061570793 0.037450112 -0.07545635 0.020716809 -0.033470746 -0.0043588616 -0.0031092232 0.0015019315
0.015072103 0.07760214 -0.009999012 0.015445805 0.037485387 0.06061286 -0.05694354 -0.04143393
0.055084433 0.068062685 -0.017095309 -0.0029236677 0.08116137 0.07672809 -0.026850488 -0.07112038
0.04956283 -0.04298135 0.015777184 -0.0141227525 -0.03407722 0.0684756 -0.024888365 -0.015028435
-0.016378392 0.012437761 -0.01637933 -0.046197988 0.021990266 0.047977157 0.032147907 -0.026288541
0.019202944 0.106304094 0.027561344 0.01081393 0.07450863 0.06243242 -0.04327677 0.088142715
0.08955072 -0.07392385 -0.015639918 0.022094488 -0.05516533 -0.070487216 0.02647253 -0.081748374
-0.054463223 -0.07992364 -0.0703774 0.06459495 -0.07475811 0.07810393 -0.019642059 -0.062242877
-0.04533908 0.03822099 0.026680412 -0.07316504 0.07361936 0.07130267 0.09525185 0.019906484
-0.06544839 -0.026946163 0.07248642 0.079907745 -0.06568599 0.07203034 -0.006712141 -0.031650655
0.04437533 0.0047078077 -0.08810726 -0.008371398 0.040999528 0.030918961 0.029259011 -0.013912796
-0.03115767 0.075925246 -0.004577605 0.08139885 -0.04753913 0.027997151 -0.062482163 0.011993308
-0.03958214 0.011573378 -0.04616988 -0.1156801 0.019399496 -0.0067849434 0.0013471955 -0.028118296
-0.0070664557 -0.08184687 -0.09535056 0.082307845 0.022982778 -0.08265945 -0.05574963 -0.010141023
-0.023752207 -0.046689507 0.015228773 0.003589651 0.029113302 0.057919856 0.0065743197 -0.089088894
0.05526863 -0.072081685 0.050979618 0.03561371 0.06809962 -0.032124206 -0.039850436 -0.10433546
0.02968201 -0.021331027 -0.02889312 -0.09199427 -0.0646621 0.03132911 0.07735941 -0.013076869
0.004937131 0.04182299 0.018390143 -0.034585305 -0.02574609 0.07631671 0.04721746 -0.0152503485
-0.068874456 -0.05282963 0.08414447 -0.021974765 0.0022719968 0.0769618 0.00087601657 0.0048112585
0.047234192 -0.07472842 -0.051674645 -0.01821312 -0.00764357 -0.049253315 -0.08344094 0.075263254
-0.0093374895 -0.065746345 -0.033991642 0.03292084 0.10700155 0.0804514 -0.10658626 -0.036378585
0.027289711 0.0041201958 0.07061553 0.004408112 -0.006653094 0.07915234 0.039937366 -0.00755034
-0.03319213 0.004850175 -0.06372577 0.055727817 0.016693467 -0.08048981 -0.06328259 0.013500217
0.0151519645 -0.07268435 -0.074220404 0.060013767 0.05575496 -0.034751516 0.041811798 -0.057956953
-0.040639747 -0.06160269 0.06652703 -0.009344399 0.022690611 -0.0425256 -0.018411295 0.0414106
-0.09201091 0.054860704 0.07223861 0.08930228 -0.054620564 0.019389585 0.053125624 -0.00038245824
00000000: 620f 073c 3b90 a63d ac2b 71bc 0d6d a83d
00000010: 0701 853a 484c b3bc 6b62 25bd c284 b8b9
00000020: fb5f 53bd 7eb1 5bbd 599c 88bc d915 3eba
00000030: eed7 45bd eef1 853c bac4 d9bc ddaa be39
00000040: 5ebb f63a cdc6 5f3d 9fca a1bd 4bcb 583d
00000050: 9171 3b3d d4c6 5dbd ad3c 43bc 51e6 753d
00000060: 591f 923d 83c9 e7bc 9e05 353c 40df 023d
00000070: 15e6 5f3d 09b8 9cbd 59ca 6f3d 033d 843d
00000080: b9ff 673d 6a70 623c b926 83bc 6351 403d
00000090: 8097 8bbd b724 72bc 49cc 123d add8 45bb
000000a0: 6dcd 603c b2d7 2ebd e3a1 473d 1e9e fd3c
000000b0: fda9 113d fed0 2a3d 6dd7 373d 9c9d 7d3c
000000c0: a831 7c3d 4a65 193d dc88 9abd 4cb6 a93c
000000d0: 9f18 09bd c8d4 8ebb 1cc4 4bbb 75dc c43a
000000e0: fbf0 763c dfed 9e3d e5d2 23bc 6710 7d3c
000000f0: 478a 193d 3145 783d a13d 69bd a0b6 29bd
00000100: 37a0 613d 7364 8b3d 760b 8cbc 019b 3fbb
00000110: ef37 a63d 9e23 9d3d 8ef5 dbbc 90a7 91bd
00000120: 6502 4b3d 360d 30bd 273f 813c 1e63 67bc
00000130: 8e94 0bbd ef3c 8c3d afe2 cbbc d339 76bc
00000140: fa2b 86bc c0c7 4b3c f22d 86bc 1a3a 3dbd
00000150: ee24 b43c b283 443d 86ad 033d 115b d7bc
00000160: 7e4f 9d3c f6b5 d93d 54c8 e13c e92c 313c
00000170: fb97 983d 23b9 7f3d fb42 31bd 2b84 b43d
00000180: 5e66 b73d 6365 97bd 491f 80bc 80ff b43c
00000190: 0bf5 61bd 9a5b 90bd ebdc d83c b16b a7bd
000001a0: d414 5fbd 01af a3bd 0722 90bd 5b4a 843d
000001b0: c81a 99bd f4f4 9f3d 62e8 a0bc 63f2 7ebd
000001c0: 79b5 39bd 9d8d 1c3d e190 da3c 8dd7 95bd
000001d0: bfc5 963d 2207 923d 6713 c33d ec12 a33c
000001e0: ce09 86bd 33be dcbc c373 943d aca6 a33d
000001f0: 6086 86bd a584 933d 85f1 dbbb 1ea4 01bd
00000200: e8c2 353d f443 9a3b 9471 b4bd 3028 09bc
00000210: 1fef 273d c349 fd3c 98b0 ef3c 7ff2 63bc
00000220: 5f3e ffbc b27e 9b3d bcff 95bb 71b4 a63d
00000230: 64b8 42bd 485a e53c 4ced 7fbd 947f 443c
00000240: e220 22bd 449e 3d3c a11c 3dbd b0e9 ecbd
00000250: b1eb 9e3c 3b54 debb 6194 b03a 5758 e6bc
00000260: ba8d e7bb 559f a7bd 2847 c3bd 0491 a83d
00000270: 6146 bc3c 5c49 a9bd b959 64bd 8926 26bc
00000280: fd93 c2bc 7f3d 3fbd 1a82 793c 5a40 6b3b
00000290: 057f ee3c 5f3d 6d3d 646d d73b 3d74 b6bd
000002a0: 5c61 623d 909f 93bd 01d0 503d aedf 113d
000002b0: d077 8b3d ac94 03bd 363a 23bd d4ad d5bd
000002c0: b027 f33c 68be aebc 44b1 ecbc 7e67 bcbd
000002d0: 906d 84bd f452 003d 9c6e 9e3d 5d40 56bc
000002e0: a8c7 a13b 954e 2b3d eda6 963c 52a9 0dbd
000002f0: 77e9 d2bc ef4b 9c3d 1867 413d 99dc 79bc
00000300: 0d0e 8dbd e263 58bd f053 ac3d 6c04 b4bc
00000310: c8e5 143b 269e 9d3d 7aa4 653a c3a7 9d3b
00000320: a478 413d 370b 99bd cba8 53bd ae33 95bc
00000330: ea76 fabb d8bd 49bd 15e3 aabd 9f23 9a3d
00000340: 45fc 18bc 05a6 86bd d23a 0bbd 01d8 063d
00000350: a123 db3d b4c3 a43d e649 dabd b601 15bd
00000360: ac8e df3c b502 873b e09e 903d ec71 903b
00000370: 3302 dabb 9f1a a23d 5d95 233d d868 f7bb
00000380: 79f4 07bd 38ee 9e3b a882 82bd da42 643d
00000390: bdc0 883c d7d7 a4bd 4d9a 81bd 0430 5d3c
000003a0: f23f 783c 88db 94bd de00 98bd ffd0 753d
000003b0: 505f 643d 9b57 0ebd d942 2b3d 4564 6dbd
000003c0: dd75 26bd 1a53 7cbd 533f 883d 4019 19bc
000003d0: a9e1 b93c 532f 2ebd 49d3 96bc 299e 293d
000003e0: 3770 bcbd 9eb5 603d d6f1 933d 1de4 b63d
000003f0: d0b9 5fbd e8d6 9e3c 419a 593d ad84 c8b9
