scripts/shell/hier/checkpoint_att_2.pt (torch, 498595 bytes, 32 tensors)

module.base.0.weight f4 [36]
000000 07 4f 85 3f 58 9f 86 3f c7 0d 7f 3f 6a e8 86 3f
       1.0414742 1.0517378 0.996304 1.0539677
000010 34 34 8a 3f f6 4b 80 3f c7 7e 7d 3f 5a f5 86 3f
       1.0797181 1.0023181 0.9902157 1.0543625
000020 0c 99 7f 3f ff 5e 87 3f b6 9e 14 3f cf 7a 4e 3f
       0.99842906 1.0575866 0.58054674 0.8065614
000030 59 aa 21 3f 0f e1 87 3f da 99 82 3f b2 28 90 3f
       0.63150555 1.0615557 1.0203202 1.1262419
000040 df ab 84 3f f3 24 8f 3f af 2f 8d 3f 0e e1 0f 3f
       1.0364951 1.1183151 1.1030177 0.5620278
000050 b3 19 06 3f 8d 8d 13 3f e4 24 12 3f 68 02 8a 3f
       0.52382964 0.57637864 0.5708754 1.0781984
000060 23 c8 86 3f ac 4a 7c 3f ea a6 84 3f 0e 7b 83 3f
       1.0529827 0.9855144 1.0363438 1.0271928
000070 0d 36 93 3f 76 83 7f 3f d9 5e 80 3f 60 ee 7a 3f
       1.150087 0.9980997 1.0028945 0.9801998
000080 1b 6b 8f 3f 9e f6 85 3f 22 44 84 3f 80 01 87 3f
       1.1204561 1.0465887 1.0333292 1.0547333

module.base.0.bias f4 [36]
000000 13 5f 0a bc c1 41 dc bc 38 ab 57 bc 6e 39 91 bc
       -0.008445519 -0.026886823 -0.01316338 -0.01772758
000010 b9 35 ba 39 f0 3d c7 bc 33 88 8a 3b e4 81 cb 3b
       0.0003551671 -0.024321526 0.004227662 0.0062105525
000020 c2 ae 02 bc 9d ba 75 bd 67 be 55 3d 07 3f 19 3d
       -0.007976236 -0.05999242 0.052183535 0.037413623
000030 85 05 b4 bc 23 6a f8 ba 39 51 29 bb 20 6d a4 bc
       -0.021975288 -0.001895253 -0.0025835766 -0.020071566
000040 31 54 11 3c c9 26 dc bc 57 c4 ab bc 90 15 7e 3c
       0.00887017 -0.026873963 -0.020967646 0.015508071
000050 e2 78 ec bb fa 6e 1b bc 4a 3b 92 bc d3 b3 64 3c
       -0.007216559 -0.009486908 -0.017850537 0.013958889
000060 b9 7f c2 3c 58 63 25 ba ec ee f8 3c d4 98 8a 3c
       0.023742544 -0.0006309054 0.030387364 0.016918577
000070 a1 60 a0 3c 8a 77 89 3d 8c 74 0c bc b0 2c ba ba
       0.019577326 0.067122534 -0.008572709 -0.0014203992
000080 b4 d8 e8 3b 4a 98 62 3a fe 63 6b 3a 53 8b 35 bc
       0.007105911 0.00086439087 0.00089794386 -0.011080581

module.base.1.layers.0.weight f4 [256, 36]
000000 3f 3f 9a 3d 4d 11 47 3d a5 8c c0 bc 6c 53 91 bd
       0.075315945 0.048600484 -0.023504565 -0.070959896
000010 54 62 e5 3b 8c f1 ef bc a8 95 20 3e ba 70 de bd
       0.007000247 -0.029289983 0.1568209 -0.10861345
000020 42 67 af bd ce b5 48 bc 81 c9 46 3d f0 2c d5 bd
       -0.08564617 -0.012250377 0.048532013 -0.10408962
000030 59 71 55 bd fe ec ed 3d e4 2c 02 be f4 c9 82 3d
       -0.05211005 0.11617468 -0.12712437 0.06386176
000040 d8 45 94 bd 01 bc e2 3d ce cc 25 bd 7c 46 a1 bc
       -0.07239884 0.11071015 -0.04047852 -0.01968693
000050 d3 5d 57 bc 62 88 db bd f1 31 7f bd 4f 01 7d 3d
       -0.013144928 -0.10719372 -0.062303487 0.061768826
000060 a1 b8 ac 3d 3f 70 07 38 e4 f4 5f 3d 3f 1b 9c 3d
       0.08433653 3.2291045e-05 0.054676905 0.07622384
000070 da 1d 2d 3e 02 ea a2 3d c3 0e fa bc 02 c1 c3 bd
       0.16905919 0.0795479 -0.030524617 -0.09558298
000080 2b d5 be 3c a0 95 39 be e2 6f 96 3c 51 19 cd 3d
       0.023295006 -0.18123484 0.018363897 0.10014594
000090 b3 34 40 3c 5a 6b fc bc 1b c4 86 3d 8e cf 23 3e
       0.0117313145 -0.030812908 0.06580373 0.15997145
0000a0 dd a5 6a bd 62 be 0a 3e 75 3f 23 bd 50 72 13 3e
       -0.057287086 0.13549188 -0.03985544 0.14399076
0000b0 57 53 99 3d 2f 34 5e bd 20 62 cf 3d 1b 08 a5 bd
       0.07486599 -0.054248985 0.10126138 -0.080581866
0000c0 e2 9c d2 bd 4a 60 0b 3e 46 72 63 3d 7c d7 b3 3d
       -0.10283829 0.1361095 0.0555289 0.08781335
0000d0 fc a6 fc 3d fc b4 1b 3e e7 81 a9 3d 21 48 67 bd
       0.12336537 0.15205759 0.0827673 -0.05646527
0000e0 8f c4 36 bd 49 97 a3 3d a6 c5 53 3d 23 66 dd 3c
       -0.044621047 0.0798784 0.051702164 0.027026242
0000f0 98 fd 66 bd bd 38 84 bd 29 39 2b 3d ee 35 01 3e
       -0.05639419 -0.064561345 0.04180256 0.12618229
000100 c0 36 36 be 4c f5 3b 3d c0 f6 9d 3d 57 89 0d 3e
       -0.17794323 0.04588823 0.077130795 0.13821922
000110 65 f6 25 bd 5d b2 30 3e c2 64 6c bd 7b c6 aa bc
       -0.040518183 0.1725554 -0.057713278 -0.020846596
000120 26 bb 80 3d 69 f1 b3 3d 52 fb 24 be 70 8b d2 bd
       0.06285696 0.0878628 -0.16111496 -0.10280502
000130 81 89 c7 bd 01 21 df bd c9 15 5e 3c 0d dc 8e 3d
       -0.09743024 -0.10894967 0.013554999 0.06975565
000140 64 45 0e 3e 64 71 c6 bc eb 38 71 bc 6e a5 fb bd
       0.13893658 -0.02422399 -0.014723043 -0.122874126
000150 11 00 a2 3d ba 7d 43 3e 97 70 da bd 28 38 e4 3d
       0.07910169 0.1909093 -0.10666006 0.111435235
000160 cb 39 26 3d 03 96 00 bc 2c 14 fa bd 19 86 15 be
       0.04058246 -0.007848266 -0.12210879 -0.14601935
000170 48 31 ac bc 11 0d 22 3e 1d 12 ee 3d 74 ce 10 3d
       -0.021019593 0.15825297 0.116245486 0.03535314
000180 75 67 00 3e ee 26 df 3d 0e 74 de bd e1 39 88 3d
       0.12539466 0.10896097 -0.108619794 0.066516645
000190 ee be dd bd 99 0e f9 3d 6a f4 90 3c b7 8a fe bd
       -0.108274326 0.121609874 0.01769467 -0.124288015
0001a0 db 18 b4 3d ac f5 a4 3d a8 5e c9 bd e8 01 d1 3d
       0.08793803 0.08054671 -0.09832507 0.10205442
0001b0 b4 01 dd 3d 7a 57 04 3e 32 93 1c be 38 2e 54 3d
       0.107913405 0.12923995 -0.15290526 0.05180189
0001c0 62 1e a3 3c f6 14 2a 3e 01 94 17 3e 9b 0b 8f 3d
       0.019911949 0.16609558 0.14802553 0.069846354
0001d0 cf b1 42 bd f0 e3 d3 bd cf 94 7a 3d c1 5d 16 3e
       -0.047532853 -0.1034621 0.06117707 0.14684202
0001e0 e3 88 6d bd 70 f8 f4 bc 28 c2 0f be 02 19 8f 3b
       -0.057991873 -0.02990362 -0.14038908 0.004366995
0001f0 6c 48 07 3e ce f8 27 3c 51 d1 65 bd 71 20 c8 bd
       0.1321122 0.010252191 -0.056107823 -0.09771813
000200 6c a4 d0 bd 6d c7 82 bd 48 58 37 3d 2d 2f ee 3d
       -0.10187611 -0.06385694 0.044761926 0.11630092
000210 f5 6d 51 bd a0 5f e5 3d ce 74 ce bd 85 a2 e7 bd
       -0.051130254 0.1119988 -0.100808725 -0.11310295
000220 78 75 0b be 7f 19 be bd d8 87 48 3d 89 8d 3d 3d
       -0.1361903 -0.09282207 0.048957676 0.046277557
000230 73 3b 0d 3e af 84 27 be 6c 63 9e bb 71 5a 7f bc
       0.1379221 -0.16359209 -0.0048336294 -0.015585528
000240 8b 41 b4 bd a5 cd 0a bc c1 c0 dc 3d f7 cc 28 bd
       -0.08801564 -0.008471881 0.107789524 -0.041211095
000250 20 a8 67 bd f8 32 1c 3e 7c 1e 36 3d 83 2a 9e 3d
       -0.05655682 0.15253818 0.044462666 0.07722952
000260 f0 4c b9 bd 01 31 9d 3d f3 61 1f 3d a8 8b b3 bc
       -0.09047878 0.076753624 0.03891177 -0.02191718
000270 88 cc a6 3d a7 18 38 be 8c 06 93 bd 13 32 bb 3d
       0.0814448 -0.17978154 -0.07178983 0.0914041
000280 f7 5b 8a 3d 2e 56 99 3c bf cd 13 bd b3 02 d1 bd
       0.06755822 0.018717851 -0.036084887 -0.10205593
000290 48 a6 66 3c 14 50 b3 3d 79 60 85 3d 2a 62 a4 bd
       0.0140777305 0.08755508 0.06512541 -0.08026536
0002a0 4d c0 0c 3d 64 5d 91 bc 74 17 00 3e d5 6f fa 3d
       0.03436308 -0.017744727 0.12508947 0.122283615
0002b0 26 11 74 bd 14 34 22 be 6c 3e 01 3a 2d 61 b1 3d
       -0.059586667 -0.15840179 0.0004930261 0.08661113
0002c0 2b ac d5 bd 39 ec 0d be 8d 75 3c 3d a1 c8 c4 3c
       -0.10433229 -0.13859643 0.046010543 0.024021449
0002d0 b4 be bd bd 2d 1d 87 bd 89 0f 9a 3d f6 1f 12 be
       -0.09264889 -0.06597362 0.07522494 -0.14270005
0002e0 17 e3 57 bc 85 db a4 3d af 48 f5 bb 1c 24 a8 3c
       -0.013176701 0.080496825 -0.007485471 0.02052503
0002f0 56 9a e6 bd 8c 6d bf bd a9 a6 c3 3d 3e 39 5b 3c
       -0.11259906 -0.09347066 0.09553272 0.013380347
000300 49 e5 2d bd 7d 78 f3 bc 8f 8b 11 bd 04 32 44 3e
       -0.04245499 -0.02972054 -0.035533484 0.19159704
000310 73 f6 17 3d 6d e4 90 bd 22 08 b7 bd ad 7c d0 bd
       0.037100267 -0.07074819 -0.08937098 -0.1018003
000320 49 81 cd 3d 30 6e 42 be d9 2b a8 bd 53 57 3d be
       0.10034425 -0.18987346 -0.08211488 -0.18490343
000330 07 44 20 be 41 c1 7c bd a3 44 d8 3d 1f 2d 55 bc
       -0.1565095 -0.06170774 0.105599664 -0.013011246
000340 68 20 e4 3d 27 01 1a bd 71 5f 0e be 42 a9 b1 3c
       0.111389935 -0.037598755 -0.13903596 0.021687154
000350 5f fd ec 3d 5e 99 bf bd dc 80 20 3e f3 fd 17 be
       0.11571764 -0.09355424 0.15674156 -0.14842968
000360 57 22 56 3d 92 f1 1e be 18 0b 63 bd c0 9f 1f be
       0.052278843 -0.1552184 -0.0554305 -0.15588284
000370 83 0c d1 3d 6a 84 85 bc 3e fd 17 be 81 d6 8e bb
       0.102074645 -0.016298492 -0.14842698 -0.004359067
000380 58 9a 26 bd f9 e3 bb 3d 72 1f a2 bd 0f 43 1d bd
       -0.040674537 0.09174342 -0.07916154 -0.03839403
000390 6c 29 a6 bd 2c 3b 0f be bb 25 c6 3d a8 48 4b bd
       -0.08113369 -0.13987416 0.09675165 -0.049629837
0003a0 f1 ed 41 bb 78 d8 19 3e f0 fd b9 3d bc 4e 0d be
       -0.0029591287 0.15023983 0.09081638 -0.13799566
0003b0 43 a2 17 be 24 61 9a 3d 71 1a 9e bb 13 be 8c bd
       -0.14807992 0.07538059 -0.0048249294 -0.06872191
0003c0 86 10 ea 3c a7 2c 10 3e 2d e5 d7 ba 65 26 09 be
       0.028572332 0.14079534 -0.0016471498 -0.13393553
0003d0 dc 95 c0 3c 71 4b ac bd f5 77 d3 bd 98 28 24 be
       0.023508959 -0.08412827 -0.10325614 -0.1603111
0003e0 00 9f e5 bd 7c 1b 50 bd b0 59 e5 3d 80 5b 78 3d
       -0.112119675 -0.05080746 0.11198747 0.060634136
0003f0 9a f8 e6 bd 62 7a b1 bc 47 b2 21 3e fa 0b 80 bd
       -0.11277886 -0.021664802 0.15790664 -0.06252284

module.base.1.layers.0.bias f4 [256]
000000 cc df 0d be 53 26 3d bd d7 29 24 3e e6 b8 90 3d
       -0.13854903 -0.046179127 0.16031586 0.070665166
000010 75 89 11 3e d7 3e 15 3e 86 3d c3 bd 4c 1a ab 3d
       0.14212592 0.14574753 -0.09533219 0.08354625
000020 3c 49 9e bc 78 f8 ff 3d 1b 97 b3 3d ca 7a ad 3a
       -0.01932203 0.124985635 0.087690555 0.0013235447
000030 62 29 a7 3d 54 e5 b6 bd 72 ac 4d bd d2 66 18 3e
       0.0816219 -0.089304596 -0.050213285 0.14882973
000040 d4 2e 05 be 2a 4a 1f be 88 96 4e bb 50 2f a4 3d
       -0.13006145 -0.15555635 -0.003152283 0.08016837
000050 8c 85 3e 3d 8e 55 0a bd b9 f7 0c be 1e 25 9a 3d
       0.04651408 -0.033772998 -0.13766374 0.07526611
000060 54 07 e6 bc 75 c6 16 be 92 2e 12 bd fe 7f e6 bc
       -0.028079666 -0.14724143 -0.035688944 -0.028137203
000070 2e 3c b2 bd cd d0 f5 3d 65 6d ca bd 9d 30 2d be
       -0.087028846 0.12002716 -0.098841466 -0.16913076
000080 0e 9e 38 be 73 c7 46 bd c3 80 f4 3d c9 cd 86 3d
       -0.18029043 -0.048530053 0.11938622 0.06582219
000090 5d 1b 4c bd 10 5e 08 3e d3 ed 09 be 25 ca 8b bb
       -0.049830783 0.13317132 -0.13469629 -0.004266041
0000a0 ae 15 81 3d 88 03 8d 3c 97 f6 38 3d 53 84 6f bd
       0.06302963 0.017213598 0.04515704 -0.058475804
0000b0 c4 67 0f be a3 27 e3 3c 6b 38 b7 3d e5 69 09 bd
       -0.14004427 0.027728861 0.08946308 -0.033548255
0000c0 89 51 7f bd 18 7d 45 bd 71 8e 50 bd f2 b5 b5 bd
       -0.062333617 -0.048215 -0.050917093 -0.08872594
0000d0 b4 77 bf 3d 04 fc 20 3e a0 8a 67 3c 27 87 c5 bd
       0.093490034 0.15721136 0.014132172 -0.09644919
0000e0 e6 7f 62 3c ea e3 c0 3d 78 08 01 be b9 c0 79 bd
       0.013824439 0.09418471 -0.12600887 -0.06097481
0000f0 5e 19 25 be bc 2a 79 bd 45 8e 0f be af 26 72 3c
       -0.16122958 -0.06083177 -0.14019115 0.014779731
000100 08 24 13 bd 93 de 8b bd 15 cd a2 3d 5f dc c0 3d
       -0.035923034 -0.06829562 0.079492725 0.094170325
000110 40 24 10 3e fa 50 fa bd cb 58 ab 3d 49 96 1c 3d
       0.14076328 -0.12222476 0.08366545 0.03822926
000120 6f d3 fc bd a5 de e9 bd be 99 b1 bd a7 6a 41 3e
       -0.12345015 -0.11419419 -0.08671902 0.18888341
000130 7a dc 13 3e ef fe 93 bc 12 a4 96 3d 35 d9 fd bd
       0.14439574 -0.018065898 0.07355513 -0.123949446
000140 59 bf 0c 3e 9e af ec 3d 05 26 a0 bd fa 6d 0a be
       0.13744868 0.11556934 -0.07819752 -0.13518515
000150 7b f5 95 3d be b3 f9 3d 81 29 07 3e ff 91 26 be
       0.07322212 0.12192486 0.13199426 -0.1626663
000160 93 73 c5 3d ea 6d 91 3d 8c 2e 09 be 6a c7 a2 3d
       0.09641185 0.071010426 -0.13396662 0.079481915
000170 85 5b fe bd 93 2d 01 be 24 2d e0 3c e5 37 30 bd
       -0.124198 -0.12615041 0.027365275 -0.043022055
000180 94 ec 12 3e ae 03 9b 3d 77 72 84 3d 97 7b 04 3e
       0.1434806 0.07569061 0.06467145 0.12937771
000190 8f 89 af 3d b9 5d 42 3d 65 91 12 be 46 f2 d7 3b
       0.08571159 0.047452662 -0.14313276 0.0065901605
0001a0 cc 29 1d be 2f 9d 83 3d c2 16 ee bd 3a 52 2c 3e
       -0.15347975 0.06426465 -0.116254345 0.16828242
0001b0 c1 30 d0 bd a0 fe 4c 3d f2 22 b2 3d 4b 67 c0 bd
       -0.10165549 0.050047517 0.086980715 -0.093947016
0001c0 78 bc f6 bd a5 00 ed bd c0 df b4 bc 8a 3f 06 bb
       -0.12047666 -0.115723886 -0.022079349 -0.002048465
0001d0 b9 d9 e4 3d 7b 4f 13 be 7b a4 5d 3d b7 8b 94 3d
       0.1117434 -0.14385788 0.05411194 0.07253211
0001e0 c0 90 7c 3d 13 f8 72 bd d4 67 de 3d 21 3b b1 bc
       0.06166148 -0.059318613 0.108596474 -0.02163464
0001f0 38 1b 12 3e 73 46 06 be 60 61 05 bd 9a d0 4e 3d
       0.14268196 -0.13112812 -0.032563567 0.050491907
000200 9f 43 bb bd a5 6f eb 3d d5 3c 2b bd a6 e2 5f ba
       -0.09143757 0.11495904 -0.04180606 -0.0008540548
000210 31 df 14 3e c9 1e 8a 3d 60 8a 9b bd fa ac a6 3c
       0.14538266 0.06744153 -0.07594752 0.020346154
000220 03 36 09 be dd cc e3 3d 54 a2 88 3d 56 89 5a 3d
       -0.1339951 0.11123059 0.06671587 0.05335363
000230 1a 72 07 bd 8b 95 0d bd 1a 36 1e 3e 1b bc bd 3d
       -0.0330678 -0.034566443 0.15450326 0.09264394
000240 28 a0 33 be 29 37 92 3d aa 74 06 be e9 42 20 3e
       -0.17541564 0.07139427 -0.13130441 0.15650524
000250 53 15 08 be 59 1f 1d 3e b9 68 1c bd f9 dd d4 3d
       -0.13289385 0.1534399 -0.03818581 0.103939004
000260 af 6e e2 3d 67 c6 03 be d9 7f a0 bd 0b df 8f 3d
       0.110562675 -0.12868653 -0.07836885 0.07024964
000270 08 ad a7 3d 03 61 fe 3d fa 51 ac bd 73 5d 2a be
       0.081873 0.12420847 -0.08414073 -0.1663721
000280 ce d4 62 3d 51 4e 40 bc b0 02 83 bd 8e ca a6 bc
       0.055378728 -0.011737422 -0.06396997 -0.020360257
000290 2d 73 8c 3d c2 98 ba bb 34 60 d0 3d 49 2b da bd
       0.068579055 -0.0056944797 0.10174599 -0.10652787
0002a0 c8 71 e2 bc 0f 27 a7 3d b4 72 4b 3d 93 c6 14 be
       -0.027642146 0.08161747 0.049669936 -0.14528875
0002b0 da e2 87 bd 2b 83 e7 3d 9a 1a 35 be e9 9a 33 bc
       -0.066350654 0.11304315 -0.17685929 -0.010962226
0002c0 27 f0 b1 bc e3 18 83 bc 83 f6 f0 3d ae 51 a8 bd
       -0.021720959 -0.016003078 0.117657684 -0.08218704
0002d0 0a d6 6c bd 57 03 2e 3d a8 da 1f bd 2b a3 2b bd
       -0.05782131 0.042483654 -0.039026886 -0.041903656
0002e0 f2 ec 2e be f7 59 de 3d d3 e7 54 3d 58 a1 b0 3d
       -0.17082575 0.10857003 0.051978897 0.08624524
0002f0 4e 50 6c 3d 03 ac d1 3d 44 16 53 3c e9 d7 aa bd
       0.057693772 0.10237887 0.0128837265 -0.08341963
000300 89 5f df bd 2a 0b 9d bd 02 e8 29 3c 3e 16 9f 3d
       -0.10906894 -0.07668145 0.010370256 0.07767914
000310 5f a8 96 bb 8a cf b2 bd 44 65 4c 3d f2 80 20 bd
       -0.004597708 -0.08730991 0.049901262 -0.03918547
000320 ce f2 a9 bd e5 0c a3 3d 40 69 ae 3c b4 18 83 bd
       -0.082982644 0.07961444 0.021290421 -0.06401196
000330 b4 bc 24 be 47 12 1a 3e a7 5e 06 3e 82 8f ff 3d
       -0.1608761 0.15046035 0.13122045 0.12478544
000340 fa 38 7a 3d a4 d9 4e 3d 2b a2 c2 bd de a3 0d 3e
       0.061089493 0.050500527 -0.09503587 0.13832042
000350 6e 9f 0d be 91 bd d9 3d 4c da a4 3d f2 3a 7e 3d
       -0.13830349 0.1063186 0.08049449 0.062067933
000360 e4 3f 5a 3d 79 b5 8e 3d 95 eb f6 38 58 a9 bb bb
       0.053283587 0.06968207 0.00011774075 -0.0057269745
000370 d3 cd df 3d fe e7 fb 3d 45 d1 91 bd 5d 36 53 bd
       0.1092793 0.123001084 -0.07119993 -0.051565517
000380 48 e5 62 3d 0c e3 aa 3d f2 13 e9 3d bd 46 12 bd
       0.05539444 0.08344087 0.113807574 -0.035711993
000390 f2 dd 73 bb 74 df 31 be d2 15 2f 3e df e4 74 3d
       -0.0037211147 -0.17370397 0.17098168 0.05978858
0003a0 cf d2 e9 3c f6 59 74 bd 49 00 b6 bd 33 0d 06 3e
       0.028542904 -0.059656106 -0.08886773 0.13090973
0003b0 bd a4 2d 3e be ac 0e be 5f 16 c0 3d 9a bd 08 be
       0.16957374 -0.13933083 0.09379267 -0.13353577
0003c0 95 80 d6 bd 19 ba 79 3a ec d2 2d 3e 59 bc dc bd
       -0.10473744 0.0009526327 0.16974992 -0.10778112
0003d0 f0 62 09 3e 11 e3 5f bc 5d 1f 0e 3e f8 b0 26 be
       0.13416648 -0.013664977 0.13879152 -0.16278446
0003e0 44 d5 e4 bd 50 26 1e ba ca 68 07 3e 68 09 d6 3c
       -0.1117349 -0.00060329307 0.13223568 0.026127532
0003f0 c5 37 a7 3d 53 53 9e bd d3 c9 c9 bd 67 72 61 3c
       0.08164934 -0.077307366 -0.09852948 0.013760186

module.base.1.layers.2.weight f4 [256]
000000 e8 0d 7e 3f d7 34 7f 3f c3 d7 80 3f 86 6d 83 3f
       0.9923997 0.9969 1.0065845 1.0267799
000010 fa 02 81 3f 02 55 87 3f 51 2b 80 3f d1 46 85 3f
       1.0079033 1.0572817 1.0013219 1.0412236
000020 62 ac 83 3f 56 5d 82 3f 0b 57 87 3f 3f 5a 85 3f
       1.0286982 1.0184734 1.0573438 1.0418166
000030 66 d6 80 3f 56 ee 83 3f 19 29 82 3f f7 46 82 3f
       1.0065429 1.0307109 1.0168792 1.0177907
000040 cb 66 91 3f 8c ff 7f 3f d3 4f 7f 3f 07 56 7c 3f
       1.1359495 0.9999931 0.9973118 0.9856877
000050 27 45 85 3f 72 23 82 3f 1f 30 80 3f 86 cd 7f 3f
       1.0411729 1.0167067 1.0014685 0.9992298
000060 47 95 81 3f 8e 68 7b 3f 01 e4 80 3f 5c 30 88 3f
       1.0123681 0.9820641 1.0069581 1.0639758
000070 2a d4 89 3f fd cd 83 3f 64 c9 81 3f d3 59 85 3f
       1.0767872 1.0297238 1.0139585 1.0418037
000080 1a 58 82 3f 91 bc 7f 3f 9a d2 83 3f 8c 28 86 3f
       1.0183136 0.99897105 1.0298645 1.0481124
000090 40 7f 81 3f 9c fa 82 3f ba ee 7e 3f 34 f9 7e 3f
       1.0116959 1.023273 0.9958302 0.99599004
0000a0 31 82 87 3f a9 ae 81 3f c3 eb 82 3f ea 6d 80 3f
       1.0586606 1.0131427 1.0228199 1.0033543
0000b0 b8 83 81 3f e0 93 80 3f 14 3c 86 3f 84 a2 87 3f
       1.0118322 1.0045128 1.0487084 1.0596471
0000c0 97 48 80 3f 49 d5 85 3f cb 4d 82 3f 05 98 80 3f
       1.0022153 1.0455714 1.017999 1.0046393
0000d0 e6 31 84 3f a2 4c 83 3f 64 c1 7b 3f f0 b6 83 3f
       1.0327728 1.0257761 0.98341966 1.0290203
0000e0 4e 36 84 3f 19 01 84 3f 94 e0 82 3f 07 74 82 3f
       1.0329072 1.0312835 1.0224786 1.0191659
0000f0 1a 17 82 3f b6 87 7f 3f 09 43 7f 3f 02 4b 7f 3f
       1.01633 0.99816453 0.9971166 0.9972383
000100 a4 06 82 3f f9 e9 80 3f 3f 58 81 3f de 71 81 3f
       1.0158277 1.0071403 1.0105056 1.0112875
000110 49 9a 82 3f 5e f6 7d 3f 54 4f 82 3f 6a f1 7f 3f
       1.0203334 0.9920405 1.0180459 0.99977744
000120 20 fc 81 3f 53 ec 80 3f 4e 0b 81 3f 95 d4 85 3f
       1.0155067 1.007212 1.0081575 1.04555
000130 26 70 82 3f 83 55 80 3f e7 36 85 3f eb f3 82 3f
       1.0190475 1.0026096 1.040738 1.0230688
000140 43 00 80 3f c0 67 8a 3f 1b 53 81 3f 0c 0c 89 3f
       1.000008 1.0812912 1.0103487 1.0706801
000150 84 3b 82 3f 00 cc 82 3f 24 b4 86 3f 3d 41 7f 3f
       1.0174413 1.0218506 1.0523725 0.9970892
000160 8f e2 83 3f 05 ee 81 3f 5d 91 82 3f 28 ca 81 3f
       1.0303515 1.0150763 1.0200611 1.0139818
000170 48 f0 81 3f b2 aa 80 3f 20 52 81 3f 04 43 84 3f
       1.0151453 1.0052092 1.0103188 1.0332952
000180 39 d2 82 3f 68 21 83 3f 11 75 7c 3f e5 62 81 3f
       1.0220405 1.024457 0.9861613 1.0108305
000190 bc ee 82 3f fa f5 80 3f d2 c4 88 3f 7f 64 82 3f
       1.0229106 1.0075066 1.0685065 1.0186919
0001a0 45 39 86 3f 34 77 81 3f 4e 22 80 3f a1 74 81 3f
       1.0486227 1.0114503 1.0010469 1.0113717
0001b0 a4 1c 80 3f b0 dc 81 3f c9 86 7e 3f 21 be 80 3f
       1.000874 1.0145473 0.99424416 1.0058023
0001c0 ff 11 83 3f 42 31 93 3f 51 04 84 3f db a4 85 3f
       1.0239867 1.1499407 1.0313817 1.0440935
0001d0 8a dc 81 3f 4f 1d 7f 3f 70 d5 85 3f c6 56 86 3f
       1.0145428 0.99654096 1.0455761 1.0495231
0001e0 38 a6 80 3f 89 ab 89 3f 54 d5 82 3f e6 52 83 3f
       1.0050726 1.0755473 1.0221353 1.0259674
0001f0 3c 2d 80 3f c3 71 7d 3f 34 d4 82 3f 5e a4 80 3f
       1.0013804 0.9900171 1.0221009 1.0050161
000200 f9 c2 86 3f 29 c6 83 3f 09 34 81 3f 62 f6 82 3f
       1.0528251 1.0294849 1.0094005 1.023144
000210 4a 3a 81 3f 66 b2 83 3f b2 0c 81 3f f8 ad 8a 3f
       1.0095913 1.0288818 1.0081999 1.0834341
000220 7c 13 84 3f 56 b5 86 3f 8a f7 84 3f 27 b1 81 3f
       1.0318446 1.0524089 1.0388043 1.0132188
000230 98 4e 81 3f 87 2e 83 3f 13 24 86 3f 5b 3e 83 3f
       1.010211 1.0248574 1.0479759 1.0253404
000240 22 2b 80 3f 7b 78 7f 3f b5 42 83 3f 99 33 80 3f
       1.0013163 0.99793214 1.0254732 1.0015746
000250 13 73 81 3f 9e 8f 89 3f 03 e5 82 3f e8 13 85 3f
       1.0113243 1.0746953 1.0226139 1.03967
000260 af 25 80 3f 36 37 7f 3f 0f 13 82 3f 4d d6 80 3f
       1.00115 0.9969362 1.0162066 1.00654
000270 4c e6 80 3f b9 7d 82 3f d9 76 80 3f 0c 57 81 3f
       1.0070281 1.0194618 1.003627 1.010469
000280 d5 97 80 3f da 91 7e 3f f3 2d 80 3f 9e d5 80 3f
       1.0046335 0.994413 1.0014023 1.0065191
000290 cb 76 81 3f 29 6e 83 3f 99 b2 83 3f 0a da 80 3f
       1.0114378 1.0267993 1.0288879 1.006654
0002a0 74 33 7f 3f c4 9e 83 3f aa 27 82 3f 6b 5a 81 3f
       0.99687886 1.0282826 1.0168355 1.0105718
0002b0 59 09 7f 3f 2d fc 7e 3f 55 ea 83 3f 50 5b 8f 3f
       0.9962364 0.9960354 1.0305887 1.1199741
0002c0 d9 10 7f 3f 60 50 85 3f d0 f6 7e 3f 10 90 83 3f
       0.9963508 1.0415154 0.99595356 1.0278339
0002d0 d1 52 83 3f 7e da 81 3f 81 2a 7f 3f d7 bf 82 3f
       1.0259649 1.0144804 0.9967423 1.0214795
0002e0 43 65 87 3f 7c ac 7f 3f 03 43 7d 3f 05 89 87 3f
       1.0577778 0.99872565 0.98930377 1.058869
0002f0 38 b3 83 3f 95 f6 82 3f 41 61 83 3f 4a a2 83 3f
       1.0289068 1.0231501 1.0264055 1.0283902
000300 11 3c 82 3f 34 1d 7f 3f ea 48 91 3f ed 63 80 3f
       1.0174581 0.99653935 1.1350377 1.0030495
000310 1f f5 7f 3f cb 75 85 3f 83 7d 80 3f 77 7d 84 3f
       0.999834 1.0426573 1.0038303 1.0350789
000320 d7 9f 83 3f 58 c8 7d 3f 0b 8b 86 3f 03 b2 82 3f
       1.0283154 0.99133825 1.0511183 1.0210575
000330 c4 03 80 3f 1c 37 83 3f 21 4a 80 3f b5 b7 80 3f
       1.0001149 1.0251193 1.0022622 1.0056063
000340 a7 81 81 3f 73 84 81 3f 36 11 83 3f 5a 5e 81 3f
       1.0117692 1.0118545 1.0239627 1.0106919
000350 8a 5c 83 3f 20 1a 84 3f bf f5 83 3f f8 ac 80 3f
       1.0262616 1.0320473 1.0309371 1.0052786
000360 9d 91 81 3f 8b 79 88 3f 6c 9c 7e 3f 61 77 85 3f
       1.0122563 1.0662092 0.9945743 1.0427057
000370 0f ea 84 3f db b9 82 3f 63 0e 80 3f 6f 44 80 3f
       1.0383929 1.0212969 1.000439 1.0020884
000380 71 c8 81 3f 07 77 81 3f 3f 79 83 3f 5c 3f 81 3f
       1.0139295 1.0114449 1.0271376 1.0097461
000390 aa a8 82 3f 3a df 83 3f 4e 43 82 3f 0f c8 80 3f
       1.0207722 1.0302498 1.017679 1.0061053
0003a0 0d 29 83 3f b0 da 82 3f 99 26 7e 3f ab dc 7b 3f
       1.0246903 1.0222988 0.99277645 0.9838359
0003b0 47 78 81 3f 3e ae 81 3f 02 9d 81 3f 6b 57 82 3f
       1.0114831 1.01313 1.012604 1.0182928
0003c0 ec 49 7f 3f 43 c8 86 3f e5 b8 7f 3f c7 49 80 3f
       0.9972217 1.0529865 0.998915 1.0022515
0003d0 53 d1 83 3f 6f 76 7e 3f 6a 24 83 3f cd 17 84 3f
       1.0298256 0.99399465 1.0245488 1.0319763
0003e0 d8 ff 85 3f 57 89 80 3f 58 ee 7e 3f 14 9f 81 3f
       1.0468702 1.0041913 0.99582434 1.0126672
0003f0 f6 83 89 3f 76 8a 84 3f ac 7c 85 3f 9c 70 82 3f
       1.0743396 1.0354755 1.0428672 1.0190616

module.base.1.layers.2.bias f4 [256]
000000 fa 2e 6a 3c 1b 7e 38 3c f6 fd 83 3c 30 9d 1d 3b
       0.014293427 0.011260535 0.016112309 0.002404999
000010 e6 d7 ad bb 14 2b 36 3c 62 08 8a 3a 45 d6 a1 3b
       -0.005305278 0.011118669 0.0010531063 0.004938873
000020 ec 27 9d b9 2e 49 23 3a d8 15 cb bb 32 e7 9c 3b
       -0.00029975118 0.0006228861 -0.0061976723 0.004788303
000030 03 b0 a8 bb b2 fa b3 38 ea 60 bf bc 99 45 24 3c
       -0.0051479354 8.582081e-05 -0.023361642 0.010026359
000040 71 6d 93 3b 1a 45 06 bc 80 6e 0c bc a4 9f 11 bb
       0.0044991304 -0.008195186 -0.008571267 -0.0022220397
000050 36 8b 20 3b c8 94 49 3c af 1d 74 3b fc ae 44 bb
       0.0024497039 0.012303539 0.0037249138 -0.0030011525
000060 0e 41 92 bb d2 55 61 3c ed 26 80 3b 0d 83 8f bc
       -0.0044633215 0.013753371 0.0039108903 -0.017518545
000070 43 40 26 b8 9c 29 0b 3c ce d1 78 3c 41 05 08 bd
       -3.9637333e-05 0.008493807 0.01518674 -0.033208136
000080 9b c0 3f bc b6 1d 2e 3b af 10 68 3c 3f ad 28 bc
       -0.011703636 0.0026568002 0.014164134 -0.010295211
000090 44 0f ef 3b 4a fe 2e bc 4c 7d 1e 3c 7b ef a4 bc
       0.007295521 -0.010680744 0.009673428 -0.020133724
0000a0 f0 f4 40 3c e9 b0 b7 3a 0f 88 8c bc 18 97 f6 3a
       0.011777148 0.0014014515 -0.017154722 0.001881334
0000b0 6d e1 e0 3c fb 46 89 3c 0e 27 13 bd f5 28 99 3c
       0.027451241 0.016757479 -0.035925917 0.018696288
0000c0 1b ab ea ba 22 4b b2 3a fa f4 d9 3c e6 a0 1a 3c
       -0.0017903777 0.0013602714 0.026606072 0.009437775
0000d0 43 2c 2a 3c 77 94 c1 3c aa ab c1 3c da 01 ac bc
       0.010386529 0.023630364 0.023641426 -0.020996977
0000e0 61 e2 29 3c 43 b2 19 bc c7 4a b7 bc 27 c4 8c 3b
       0.010368914 -0.00938088 -0.022374524 0.004295844
0000f0 53 3f 4b 3c f2 49 a7 3b ac 5b 35 3a 5b 16 47 3c
       0.012405234 0.0051052505 0.0006918262 0.012151326
000100 45 f1 9c 3c 3e 06 ee bb 22 0c 92 3c 74 66 48 3c
       0.019158015 -0.0072639277 0.017828051 0.012231458
000110 9d f3 81 bc 17 17 7c 3c 00 4f a3 3c e9 4d 9c 3a
       -0.015863234 0.015386364 0.019935131 0.0011925075
000120 93 9e 05 3c 0f 8e dd 3c 1a 58 69 3b 17 49 3b bc
       0.008155483 0.027045278 0.003560549 -0.011431
000130 69 3c 16 bc 58 c8 85 3c b2 a0 e8 3c 01 1b bd 3c
       -0.009169676 0.016330883 0.028396938 0.023084166
000140 cb fb bd bc 39 57 c7 bc 00 fb 16 3c 8b 44 d8 bb
       -0.023191353 -0.024333583 0.0092151165 -0.006599968
000150 b5 af ba bb 2d f1 62 3c c6 aa 85 3b f0 a5 9d bb
       -0.0056972154 0.013851446 0.0040791957 -0.004811041
000160 ec 98 99 3b 75 4a e1 bc 43 63 0a 3c ee 2b d8 3c
       0.004687419 -0.027501324 0.008446517 0.026388135
000170 7b 4b b9 3c 06 fd d3 ba 15 5b 0f 3b 85 43 6f bc
       0.022619 -0.0016173429 0.0021874357 -0.0146035
000180 0a fe 83 3c fa bb e4 3b 76 82 33 3c 9a 86 9a bb
       0.016112346 0.0069804164 0.010956397 -0.004715753
000190 fb f1 b1 bc 92 3a b5 bb e1 ce 06 bb a9 10 33 bc
       -0.02172183 -0.0055306638 -0.0020570087 -0.010929265
0001a0 4a 22 af 3b 05 e6 81 bc 88 e4 3d bc fc 5c da 3b
       0.0053446637 -0.015856752 -0.011590131 0.0066639166
0001b0 da c8 8b bb b9 6e e4 bc 11 da f5 bb 37 03 1f bb
       -0.0042658867 -0.027884828 -0.007502802 -0.002426339
0001c0 51 e9 74 ba e0 53 1b bb 90 76 31 b9 31 10 92 bc
       -0.0009342628 -0.0023701116 -0.00016924203 -0.017829986
0001d0 84 65 10 3b 78 d9 41 bc 47 1b 38 bc 91 1a f0 3c
       0.0022033164 -0.011831634 -0.011236972 0.029309543
0001e0 11 ca c3 bb 3d e1 2c 3c 10 91 2c 3a bd b6 2d bc
       -0.005975016 0.010551748 0.00065828953 -0.01060265
0001f0 b7 d7 46 bb 07 da e7 bb 93 ac d3 3c 78 a9 a5 3b
       -0.0030340978 -0.0070755514 0.025839126 0.0050556026
000200 38 5e 32 3c e6 d9 14 3d a2 ba 85 3b 4a 6d 98 bb
       0.010886721 0.036340617 0.0040810863 -0.0046517
000210 b0 6d 84 3c c9 b8 b1 bc 33 db 5f 3c 55 77 7f bc
       0.016165584 -0.021694558 0.013663101 -0.015592416
000220 a3 95 af 3b 19 c3 45 bb 3f ec ad 3c 44 e8 e4 3b
       0.0053584143 -0.0030176102 0.021230815 0.006985696
000230 4e 10 2d 3c d8 fb 73 bc 49 fc 05 3d 84 d1 6e 3b
       0.010562969 -0.014891587 0.0327113 0.00364408
000240 4f 97 20 bc aa 75 49 3c d1 e4 b1 bc 99 bf e2 3b
       -0.0098017 0.01229612 -0.021715553 0.006919813
000250 99 c4 64 bc af bf 51 bb 1d de 4a bb b2 e5 4c 3d
       -0.013962888 -0.0032005121 -0.0030955144 0.050023742
000260 9a f3 42 bc 10 a8 06 3b 62 8d dd bc fd 5f 9f 3c
       -0.011898899 0.002054695 -0.027044956 0.01945495
000270 a4 5b eb 3c 37 77 e2 bb 91 19 20 3b 6f 81 51 bb
       0.028730221 -0.006911184 0.0024429301 -0.0031968018
000280 bc 6b c7 bc d2 9b 6b 3c d7 b3 27 3c 82 fd b5 3b
       -0.024343364 0.014380412 0.010235748 0.005553902
000290 98 82 80 3b dc 70 5f bc 37 17 ba 3a 04 c4 4c 3c
       0.003921818 -0.013637748 0.0014197592 0.012497906
0002a0 79 6e e2 ba f2 12 f0 3c 7a 25 22 3b cb 3c 39 bb
       -0.0017275355 0.029305909 0.0024741576 -0.0028264995
0002b0 fc a0 22 ba 02 44 67 bc ad da ae bc d4 82 e8 b8
       -0.0006203798 -0.014115335 -0.021344507 -0.00011086991
0002c0 04 43 77 bc 07 e4 74 bc fc b0 0c bc 22 ea be bb
       -0.015091661 -0.014946944 -0.008587118 -0.0058262506
0002d0 ce b6 c8 bb 4c cd 53 bc 7d 04 34 bb 2f e4 13 3c
       -0.0061253076 -0.012927365 -0.0027468496 0.009026571
0002e0 34 13 92 bd ea c0 88 3b fd 6d 31 bc dd a6 e4 3a
       -0.07132569 0.004173388 -0.010829446 0.0017444749
0002f0 bc b0 f8 bb 1e 39 c6 bc e9 6d cb bb cc 64 6d bb
       -0.0075894278 -0.024197157 -0.0062081707 -0.003622341
000300 bf c5 ba 39 58 c4 ed bb 2e bb c7 bc 61 74 68 bb
       0.00035624017 -0.007256072 -0.024381246 -0.0035469758
000310 af 26 b4 3a 25 9d ca bb 42 f1 7d bb ec 0b 4c bc
       0.0013744439 -0.006183284 -0.0038748537 -0.012454014
000320 bd 1a 0d bc c3 33 94 3b e1 09 3e bc 01 61 95 3c
       -0.008612332 0.004522772 -0.011599035 0.018234732
000330 46 29 a5 bc 35 19 22 bc 89 cf 8b 3c 23 88 5f 3c
       -0.020161282 -0.009893705 0.017066734 0.013643297
000340 01 27 74 3a 3e ad d1 bb a0 7d 92 ba 45 d1 f6 ba
       0.00093136734 -0.006398826 -0.0011176355 -0.0018830678
000350 5c c9 b4 bc e3 54 81 3b 00 ff 70 3c 5d 05 bd 39
       -0.022068672 0.003946887 0.014709234 0.00036052885
000360 33 84 3b 3b d0 25 fd bc 2c 27 5f bc 7f 90 88 bc
       0.0028612732 -0.03090182 -0.013620179 -0.016670464
000370 1e 81 30 3c 7a 95 a9 bc 5e 20 2a bc 62 42 7a bc
       0.010772971 -0.020701159 -0.0103836935 -0.015274616
000380 26 d8 aa b5 eb 45 34 3c 29 a6 bf bb 52 e5 27 3c
       -1.2728894e-06 0.011002998 -0.0058486653 0.010247545
000390 98 08 d7 bb 9a 64 99 bc d5 ac ef 3c 83 75 9f 3b
       -0.0065623038 -0.018724728 0.029257217 0.0048663034
0003a0 83 8f 88 3c a6 5b 70 bb d0 e7 a2 bb a6 6e 93 bb
       0.016669994 -0.003667572 -0.004971482 -0.0044992743
0003b0 45 35 ef 3c 21 9f 07 bc 6a 3c d3 3c 2d e3 9e 3c
       0.029200206 -0.008277685 0.025785644 0.019395435
0003c0 b3 a3 ec bb da 7c 2b 3c 53 0e 68 bb be 5a e5 bb
       -0.007221663 0.010466779 -0.0035408929 -0.0069993427
0003d0 e6 24 07 bc ae 1e fa bb ab b9 21 3c 18 53 a6 bb
       -0.008248543 -0.007633052 0.009870927 -0.0050758235
0003e0 2f 30 13 39 0f f2 b0 bb 70 97 cc 3c 73 66 5c bc
       0.00014036962 -0.0053999494 0.024974555 -0.01345216
0003f0 01 0e 10 3d 25 b1 43 3c 49 26 09 bd bc 29 94 bc
       0.035169605 0.01194409 -0.033483777 -0.018086307

module.base.1.layers.3.weight f4 [128, 256]
000000 d0 8e e3 3c c1 86 e3 3c 47 06 0c 3d 13 c9 7c bc
       0.02777806 0.027774217 0.034185674 -0.015428799
000010 35 6f 0e bd 19 2a 03 bd 10 39 5e 3d 80 3f 3f bc
       -0.034774024 -0.03202257 0.054253638 -0.011672854
000020 32 e8 0d 3d 64 fe 45 bd 20 0b 16 bc 5b 3f 36 3d
       0.034645267 -0.04833831 -0.009157926 0.044494014
000030 8c ac 2b bd 50 f6 e1 bc 67 6d a8 bc 5a ff ff bc
       -0.0419126 -0.027583271 -0.02055998 -0.03124969
000040 47 6d b0 3c 67 2e dc 3c ef 11 01 3d e3 d9 0f 3d
       0.021536482 0.026877595 0.031511243 0.035119902
000050 aa fe 26 bc ed ad 01 bc 3b 9e 44 bd 6f 19 12 3d
       -0.010192553 -0.007915002 -0.048002463 0.035668787
000060 93 07 ac 3c 90 c0 3d 3d 94 8e 28 bd cc 22 8e bd
       0.020999705 0.04632622 -0.041151598 -0.06940231
000070 06 11 26 3d 09 93 04 3d 26 14 d5 ba 9e ed 43 3d
       0.04054358 0.032366786 -0.0016256615 0.04783403
000080 7f a7 1d 3d f7 92 3b 3d f2 02 17 bc 2e b3 11 3d
       0.038489815 0.045794453 -0.009217011 0.03557127
000090 65 af 6e 3d 16 eb 55 bd 9c d6 5c 3c a6 10 f4 3b
       0.058272738 -0.05222615 0.013478901 0.0074482737
0000a0 2d db a3 3c b1 55 35 bd 01 d9 90 bb 6d 5f 49 3c
       0.020001972 -0.044271175 -0.0044204 0.012290818
0000b0 2d 54 4e bd 6a b0 8f bc b1 d5 08 bc 63 c6 f1 3c
       -0.050373245 -0.017540175 -0.008351729 0.029513543
0000c0 7f 00 71 bd ff 85 43 3d e6 d0 37 3d c2 e2 0b bc
       -0.058838364 0.04773521 0.044876955 -0.00853795
0000d0 6c 11 28 3c 5b 41 63 3c ef 02 3b bd c1 13 d5 bc
       0.01025806 0.013870562 -0.045657095 -0.026010396
0000e0 b6 9c 67 bd 5b 40 96 bc b1 b4 93 3c 20 a9 48 3d
       -0.056545936 -0.018341234 0.018030496 0.048989415
0000f0 6b 7a 0e 3d 8b 13 1d 3d ed 22 1e bd f6 bf 0a bc
       0.034784716 0.038348716 -0.038607527 -0.008468619
000100 3c 0a 3d bd 7f 37 10 3d a5 c7 f8 bc ff 78 df 3c
       -0.04615234 0.035209175 -0.030368635 0.027279375
000110 bb a0 ce bc 9d 0b 39 bd 82 f6 14 bc 3d 2b 1e bd
       -0.025223127 -0.04517709 -0.009091975 -0.038615454
000120 46 f1 22 3c 7b e8 18 bd d9 87 9c bc be 89 2e bd
       0.009945219 -0.037331086 -0.019107746 -0.04261183
000130 bf 82 0d 3c 9c fb d9 3c 2b a5 5e bd d3 97 59 3d
       0.008637129 0.026609235 -0.054356735 0.053123306
000140 21 7b 73 bc 3d ec be bc 05 ce 73 3d b2 03 9c 3c
       -0.014860899 -0.023306007 0.059522647 0.01904473
000150 b3 50 bd bb b9 e8 4f 3d 05 ee c2 3a 66 64 11 3d
       -0.0057774424 0.05075905 0.0014871961 0.035496138
000160 11 0b e1 3c ef 9d 9e 3c 92 bc 25 3d 3a b7 27 ba
       0.027471097 0.019362418 0.040463038 -0.00063978473
000170 a9 d9 1a bd 87 81 22 bd 51 38 72 bd 70 44 9b bb
       -0.037805233 -0.03967431 -0.05913574 -0.004738383
000180 e4 ae 3e 3d 6d f7 00 bd 89 2a 23 3d f6 99 45 3d
       0.046553507 -0.031485964 0.039835487 0.04824253
000190 63 c5 ef bc 04 1a d3 bc ca a9 f3 bc 4d db ad 3b
       -0.029268926 -0.025769241 -0.029744048 0.0053056837
0001a0 9b e7 6a 3d d9 6b 83 3c c6 a6 16 bd 1d 0b 43 3d
       0.057349782 0.016042637 -0.03678014 0.04761802
0001b0 ef e6 87 bd 40 82 09 bc ba c6 8e bb 22 05 74 bc
       -0.06635844 -0.00839287 -0.004357186 -0.014893802
0001c0 9a fc 83 bb 11 43 24 3d 97 4f 6a bb cc ca 2a 3c
       -0.004027915 0.040103022 -0.0035753006 0.010424327
0001d0 ee fd 12 3d 6a ad 84 3d fa b6 f2 bc b2 e0 6f 3c
       0.035886697 0.064783886 -0.029628266 0.014640974
0001e0 3f 20 fa 3b 8f 53 51 3c cb b5 93 3d ba 1a 00 bd
       0.0076332386 0.01277627 0.07212409 -0.03127549
0001f0 8e 3a 1d 3d 6d 1b 3a bd 05 74 23 3d 49 ad b8 3c
       0.03838592 -0.04543631 0.039905567 0.022543566
000200 a8 b5 22 bd 78 81 5b 39 b1 c4 a9 3b 10 ff 0e bd
       -0.039724022 0.00020933698 0.005180918 -0.034911215
000210 57 15 5d 3d 24 de b8 3a 3a 15 0b 3d e1 41 13 bd
       0.05397543 0.0014104289 0.03395579 -0.0359515
000220 59 c7 25 bd c4 0d 12 3d 6d 9a 66 bc d0 ca 0b 3c
       -0.040473316 0.03565766 -0.014074904 0.008532241
000230 c7 50 ec 3c 4d cb 6b 3d 60 4f 01 bc f4 9c 47 3d
       0.028847111 0.05756693 -0.00789246 0.048733667
000240 e7 41 3e bd 4e 2a 44 3d 88 4f 11 3d 86 24 25 3c
       -0.046449568 0.047891907 0.035476238 0.010079509
000250 d5 94 16 3c 03 20 0a 3d 1b 2f 9f bc 4b 3c fc bc
       0.009190758 0.033721935 -0.019431641 -0.030790469
000260 82 14 a9 3c 11 51 da 3c 88 8d d9 3c 6e 18 95 3d
       0.020639662 0.026649984 0.026556745 0.0728005
000270 d2 3d 64 3c e3 76 49 bd 67 e3 a6 bc 4b 31 92 bd
       0.013930755 -0.049185645 -0.020372106 -0.07138308
000280 41 9e 76 bb fe 5c 39 bc a5 c6 42 3d 20 45 a7 bc
       -0.0037630948 -0.011313675 0.047552723 -0.020418704
000290 c3 67 22 bd ac c6 9a 3c ff 13 ad bc 3a 3a 22 3d
       -0.039649736 0.018893562 -0.021127699 0.03960631
0002a0 a4 fe 06 3c cb f5 fb bc cf 9e 83 3b 56 79 1c bd
       0.008239422 -0.030756852 0.004016734 -0.038201652
0002b0 bc 4b 33 3d 6c e7 02 3c 61 8b dd bb 5f ed 6c 3d
       0.043773398 0.007989746 -0.006761 0.057843562
0002c0 3f 86 7f bd 73 3f 0b bd 4d 48 fc 3c 57 97 87 3c
       -0.062383886 -0.033996057 0.030796194 0.016551657
0002d0 75 85 61 bd aa d6 2b bc e7 8a f6 3c a3 45 38 bd
       -0.055058915 -0.010488192 0.03009553 -0.044988286
0002e0 53 50 84 bd 99 fb c2 3c 9d f5 f2 3c fb d0 47 bd
       -0.06460633 0.023801612 0.029658133 -0.048783284
0002f0 0b 90 5b 3c 5c 5a 4f bd cb cb cf 3c 1c bb 90 bd
       0.013401042 -0.050623283 0.02536573 -0.07066938
000300 67 70 6e bc ce b4 2b bd 64 8d 35 3d 12 b5 59 bd
       -0.014553166 -0.041920476 0.044324294 -0.053151198
000310 1e bc 49 3d ce b3 bb bc 98 8d 1a 3d 65 a5 8f 3d
       0.04925167 -0.022912886 0.03773269 0.070139684
000320 be 11 26 3d db 00 0b 3d d5 18 9c 3d 26 c7 81 bd
       0.040544264 0.033936363 0.07621924 -0.06336813
000330 85 a1 77 bd 96 d0 91 bd a8 b1 e4 bc 89 49 0a 3d
       -0.06045677 -0.07119863 -0.027916744 0.033761535
000340 92 95 27 3d 2f 89 0c bc 54 42 0e 3d 63 d0 1a 3d
       0.040914126 -0.008577629 0.034731224 0.03779639
000350 d7 ab 53 3d ba 95 06 bd 8c 33 93 bc 7e fb 26 bd
       0.05167755 -0.032857634 -0.017968915 -0.040767185
000360 51 dc d1 bc ec 8d db 3c 91 92 ad b8 b6 58 21 3d
       -0.02561775 0.026801072 -8.276583e-05 0.039391242
000370 0e d2 14 bd e7 28 8a 3c ed 23 4b 3d 0d c9 a1 3d
       -0.036333136 0.016865207 0.04959481 0.078996755
000380 f5 23 53 3d e8 9d 31 3c 53 75 c5 3b a2 4f 03 bd
       0.051547963 0.01084087 0.006025949 -0.032058366
000390 4a c1 f1 3b 5e c5 90 bd e4 34 67 bc 94 c6 7a 3c
       0.007377778 -0.07068895 -0.014111731 0.015306134
0003a0 f0 60 24 bd 0f 51 16 bc 6f ef cf bb 4d 89 1c bd
       -0.04013151 -0.009174599 -0.0063456814 -0.038216878
0003b0 07 5d ec 3c 95 65 73 bd 42 81 92 bb 0a f4 54 bd
       0.028852953 -0.059423048 -0.004470975 -0.051990546
0003c0 6e df 50 3d ba d8 ac 3c 53 7c 12 bd 2c 7d 84 3b
       0.05099433 0.021099437 -0.035763096 0.004043242
0003d0 4c c7 47 bb f8 91 52 bd 5d e9 63 bd 7c d9 1f bd
       -0.003048378 -0.051408738 -0.055642474 -0.03902577
0003e0 03 7d 97 bc 51 c3 86 3c eb 7c 31 bd 83 26 1a bc
       -0.018492227 0.016450556 -0.04333202 -0.009408596
0003f0 98 75 5a 3d 9f 46 8c bc bf 6b 47 3d 45 dc d2 3b
       0.053334802 -0.017123519 0.04868674 0.0064349496

module.base.1.layers.3.bias f4 [128]
000000 2a 1b d3 bc 57 43 92 bd 6d 11 21 3d 31 ea 47 3d
       -0.025769789 -0.0714175 0.03932326 0.048807327
000010 26 ff 37 bd 87 a3 a4 b8 fc 2b 63 3d 38 4f 3c 3d
       -0.044921063 -7.850589e-05 0.05546187 0.045973986
000020 3d 11 48 3d 30 ee dc 3c e8 80 a8 bc c3 56 19 3c
       0.048844565 0.026969045 -0.02056928 0.0093590645
000030 f1 7f 2e bd 0b 3c 92 bb 48 0b 98 3c 2f 39 5e 3c
       -0.042602483 -0.004462724 0.018560067 0.013563438
000040 00 d0 27 bd d8 07 0a bd b5 96 6d bd 65 e3 6a 3c
       -0.04096985 -0.033698887 -0.058005054 0.014336442
000050 d4 6f 94 3c ba e9 97 3c b9 5c 90 bc f9 01 d7 3c
       0.01811973 0.018544067 -0.017622339 0.026246058
000060 fa ad 7a bd 56 79 b1 bc 71 b5 ff 3c 7b 37 5c bd
       -0.061201073 -0.021664303 0.031214448 -0.053763848
000070 f6 3e 68 bd 58 d6 7d bd 30 14 82 3a d6 06 51 3d
       -0.05670067 -0.061971992 0.0009924229 0.05103191
000080 c3 b0 0d 3c e0 09 86 3d de 5c ba bb fb 07 24 bd
       0.0086481 0.06544852 -0.00568734 -0.040046673
000090 94 61 1e 3d cd 05 ca bc b8 cb b8 ba e6 e6 d8 3b
       0.038667277 -0.02466097 -0.0014098799 0.006619322
0000a0 d6 a0 89 bd 2b 5c 01 3d 75 fe 2a 3d d2 40 4f 3d
       -0.0672013 0.03158204 0.041746575 0.050598927
0000b0 fd dc 13 3d a8 c2 e8 3c 2e 92 78 bc 2d c4 2b bd
       0.036099423 0.028413132 -0.015171571 -0.041935135
0000c0 a9 80 8e 3c 3b 25 27 3b 76 3b b0 bb 4b cc 05 3d
       0.017395334 0.0025504369 -0.005378182 0.032665532
0000d0 78 ae 44 3b 6b 32 81 3a 85 db b3 3c 6a dd 6c 3d
       0.0030011218 0.0009856945 0.021955261 0.057828344
0000e0 8f 73 9b 3c 13 9a 5c 3d ff 94 30 3d 53 0a 40 bd
       0.018976001 0.053857874 0.043110844 -0.046884846
0000f0 24 bc 89 bc 59 50 fd bc 84 27 92 3a 28 4f 32 bd
       -0.016813345 -0.030922102 0.0011150693 -0.04353252
000100 c8 23 63 3c ea 59 f9 bc cc 1b fa bc 30 89 3d bd
       0.013863511 -0.030438382 -0.030530833 -0.04627341
000110 58 41 8f bc be 30 db bc f1 57 6a 3d dd 49 10 bd
       -0.017487213 -0.02675664 0.057212774 -0.03522669
000120 b5 02 ae bc 21 1b fd bc b5 72 03 3d 9e 00 8a bd
       -0.021241525 -0.030896725 0.032091815 -0.06738399
000130 a0 54 5b 3d 76 3b d5 3c 03 6b 4d bd 30 66 82 3c
       0.0535475 0.02602933 -0.050150882 0.015917867
000140 5a 6f 06 3d 24 38 ac bd 11 e9 39 bd b1 51 9e bc
       0.032821037 -0.084091455 -0.045388285 -0.019326063
000150 18 cb aa 3c c9 ec d9 3c c5 78 42 3c ec c0 75 bd
       0.020848796 0.026602166 0.011869614 -0.059998438
000160 74 4e 47 3d eb 7a 78 bd 63 8c d6 3c a5 38 39 3c
       0.048658803 -0.0606641 0.026189988 0.011305009
000170 89 10 89 3d 47 10 cc bb 6d e8 7e bd 9e 2f f2 3c
       0.06692607 -0.0062275263 -0.062233377 0.029563721
000180 a8 34 83 3d 2a c9 73 bd 3e a1 fa bc a5 20 3a bd
       0.06406528 -0.059518017 -0.030594464 -0.04544129
000190 00 b0 01 3d bc 24 9c bc 1b f9 e2 3c c7 a4 29 3c
       0.031661987 -0.019060485 0.027706673 0.010354227
0001a0 44 ec e2 3b 38 1f 64 bd 4a 95 ca bc 5b 08 73 3b
       0.0069251377 -0.055693835 -0.02472939 0.0037083838
0001b0 e8 2d 87 3c de 6d d1 3b 7e 95 a7 3c 59 61 de bc
       0.016501382 0.006391271 0.020457026 -0.027146028
0001c0 0e 59 69 3a 6f c7 01 3d 3f fd 3e bd d3 aa 69 bd
       0.0008901515 0.031684335 -0.046628233 -0.057047676
0001d0 b3 1d 00 3a d0 24 23 3d c4 ac 52 3c f5 d0 da 3c
       0.0004887238 0.03983003 0.012858573 0.026710967
0001e0 37 d2 65 bb 0e 4c 03 3d bf 71 97 bc c5 57 4e 3d
       -0.0035067925 0.032054953 -0.018486856 0.050376672
0001f0 ff 69 b2 bc 61 ee 4c 3d cb d5 2e bd bd df da 3a
       -0.021779059 0.050032023 -0.042684358 0.0016698759

module.base.1.layers.5.weight f4 [128]
000000 89 97 82 3f ac 66 83 3f b2 9a 8a 3f c4 68 8d 3f
       1.0202495 1.0265708 1.0828459 1.1047597
000010 4a b5 81 3f 9f 7e 80 3f ea d5 87 3f 03 56 83 3f
       1.013345 1.0038642 1.0612156 1.0260624
000020 f7 d4 7e 3f ef df 85 3f 5d de 82 3f 5b 19 81 3f
       0.9954371 1.0458964 1.022411 1.0085863
000030 04 fc 88 3f 75 7d 85 3f 52 c7 83 3f 70 71 8b 3f
       1.0701909 1.0428911 1.0295203 1.0893993
000040 93 6c 82 3f a9 fd 8e 3f 1f fc 83 3f c8 5a 85 3f
       1.0189384 1.1171161 1.0311316 1.0418329
000050 8b 8f 7f 3f d9 d2 8d 3f 47 9b 84 3f 61 35 7e 3f
       0.99828404 1.1079971 1.0359887 0.993002
000060 0d 6b 82 3f 11 59 8d 3f 29 5b 81 3f c8 a1 80 3f
       1.0188919 1.1042806 1.0105945 1.0049372
000070 8c 22 80 3f ac 1f 8b 3f cb 4c 81 3f c0 df 84 3f
       1.0010543 1.086904 1.010156 1.0380783
000080 0a e3 85 3f 09 34 87 3f b7 30 81 3f 09 93 7f 3f
       1.0459912 1.0562755 1.0092992 0.9983373
000090 50 8c 86 3f b2 2f 7f 3f 7f 88 80 3f f7 d3 85 3f
       1.051157 0.9968215 1.0041655 1.0455312
0000a0 6f 3c 84 3f 93 f1 86 3f 4b 1c 81 3f a0 62 81 3f
       1.0330943 1.0542473 1.0086759 1.0108223
0000b0 9a 03 81 3f d0 26 84 3f e8 7e 81 3f cd 34 87 3f
       1.0079224 1.0324345 1.0116854 1.0562989
0000c0 30 c5 84 3f 88 58 81 3f 88 0e 7d 3f 45 1e 7f 3f
       1.0372677 1.0105143 0.988503 0.9965556
0000d0 53 33 84 3f db d6 91 3f b2 37 82 3f 64 5b 86 3f
       1.0328163 1.1393694 1.0173247 1.049664
0000e0 80 ed 8b 3f d9 36 81 3f 5c 1a 83 3f 02 3d 83 3f
       1.0931854 1.0094863 1.0242419 1.0252993
0000f0 f8 50 84 3f b0 fb 80 3f 7f 9a 85 3f bc a9 82 3f
       1.033721 1.0076809 1.0437773 1.0208049
000100 9c 95 8c 3f 63 30 8a 3f 24 55 8b 3f ea 1f 82 3f
       1.0983157 1.0796016 1.0885358 1.0165989
000110 14 da 85 3f b7 73 7e 3f 86 a4 87 3f af e0 85 3f
       1.0457177 0.99395317 1.0597084 1.0459193
000120 aa 16 80 3f 22 e6 8b 3f e0 7e 82 3f ef e8 82 3f
       1.0006917 1.0929606 1.0194969 1.0227336
000130 98 c2 82 3f cb 3b 82 3f 99 ef 8c 3f 6d f2 80 3f
       1.0215635 1.0174497 1.1010619 1.0073982
000140 4d c4 80 3f 65 91 88 3f 88 ff 86 3f 82 ce 89 3f
       1.0059906 1.0669371 1.0546732 1.0766146
000150 dd e2 82 3f 72 42 8d 3f ca 82 82 3f cb a8 86 3f
       1.0225483 1.1035903 1.0196164 1.0520262
000160 0b 07 81 3f 65 5d 82 3f 1f 51 8b 3f 2a 3a 7e 3f
       1.0080274 1.0184752 1.0884131 0.993075
000170 e7 82 88 3f 5a 6f 84 3f f5 56 87 3f d6 d8 80 3f
       1.0664948 1.0346482 1.0573412 1.0066173
000180 3d df 83 3f f9 c0 8c 3f 2d 74 83 3f 24 54 82 3f
       1.0302502 1.099639 1.0269829 1.0181928
000190 c9 3c 83 3f 6e 85 80 3f 66 5d 8c 3f 1e 71 8a 3f
       1.0252925 1.004072 1.0966003 1.0815771
0001a0 c2 f2 81 3f 25 1f 80 3f 8a 4b 7b 3f 56 50 87 3f
       1.0152209 1.0009505 0.9816214 1.0571392
0001b0 ec 2c 82 3f 69 f2 8e 3f 8f 89 81 3f 0a 76 83 3f
       1.0169959 1.1167728 1.0120105 1.0270398
0001c0 00 fe 84 3f 46 6d 80 3f 57 09 83 3f d9 87 80 3f
       1.0390015 1.0033348 1.0237225 1.0041457
0001d0 1a 4b 7e 3f 86 b0 87 3f 03 88 80 3f d5 ab 84 3f
       0.99333346 1.0600746 1.0041507 1.0364939
0001e0 3a 31 83 3f 41 87 81 3f eb b7 89 3f 0e 72 89 3f
       1.0249398 1.0119401 1.0759252 1.0737932
0001f0 0c 24 82 3f 8c b7 81 3f 6a 51 82 3f 95 ee 7e 3f
       1.0167251 1.0134139 1.0181096 0.995828

module.base.1.layers.5.bias f4 [128]
000000 db c0 08 3d 0f 3e af ba cc b5 01 3c f7 52 aa 3c
       0.033387046 -0.0013369935 0.007916879 0.020791514
000010 5b b2 c1 bb cd f7 e5 3b c4 60 bb bc e6 6f 56 bc
       -0.005911154 0.0070180655 -0.02287329 -0.013088202
000020 1d 3b 77 bb 9d a6 62 bc f6 70 6d bb c3 30 84 3b
       -0.0037724443 -0.013833669 -0.003623066 0.004034133
000030 0b a3 eb 3c c1 1c 62 3c 4e df b2 3c e1 2a d1 bc
       0.028764268 0.013800801 0.021834996 -0.025533142
000040 c1 d3 55 bb 2f 18 80 3c 9b 84 60 bb f2 96 f0 3b
       -0.0032627436 0.015636532 -0.0034258727 0.007342213
000050 ee 43 22 ba 1c 6c e3 3b ab 00 14 3d 0e e2 e7 3a
       -0.0006189932 0.006940378 0.03613345 0.0017691271
000060 41 b2 85 3c 11 a0 0c 3d a3 ab 12 bc 2f 42 e0 3a
       0.01632035 0.03433234 -0.008952054 0.0017109568
000070 fa 84 a4 3b 33 97 03 bc bb f0 17 3d 0d 1c 29 bb
       0.005020735 -0.008031654 0.037094813 -0.0025804073
000080 8b d5 12 bc 43 58 0c 3d 74 14 de bb 76 e6 60 bb
       -0.008962045 0.03426386 -0.0067773405 -0.0034317053
000090 6a fa 81 3c e8 67 87 bb 2b d7 2c bc 88 8f 3c 3b
       0.015866477 -0.0041322596 -0.010549347 0.0028772075
0000a0 5e 5b ca 3b 71 57 3f bc 41 29 e3 bb 07 eb be 3b
       0.0061754426 -0.0116785625 -0.006932408 0.0058263573
0000b0 1f 4f 67 3b 69 bb 12 3c d2 f7 3d 3c 66 57 07 3d
       0.0035294963 0.008955815 0.0115947295 0.033042334
0000c0 11 f5 81 3c 35 aa 38 3c 81 12 08 3c 4c 6c c7 ba
       0.015863927 0.011271049 0.008305193 -0.001521477
0000d0 f2 93 0f 3d 77 40 44 bc 29 64 b0 bb 62 a6 3d 3c
       0.0350532 -0.01197826 -0.005383034 0.011575313
0000e0 14 63 d9 3c 02 51 ae 3b 6a b7 06 bc ed 53 67 bb
       0.026536502 0.0053197155 -0.00822244 -0.0035297826
0000f0 72 f3 ae 3a 9a 60 2f 3b 45 03 bf 3c 66 fc 87 bb
       0.0013347699 0.002676046 0.023316989 -0.0041499613
000100 80 d7 6f bc 86 5e 29 3b 98 dc 1f 3d e6 4e 46 3c
       -0.014638782 0.0025843694 0.039028734 0.012103772
000110 71 8d d9 bc c8 1b c4 b9 5c 9d 3a 3d fc c6 94 3b
       -0.026556702 -0.00037404732 0.045560226 0.0045403223
000120 89 14 e8 ba e1 b3 93 bb 68 23 d3 3b ae a4 4a bc
       -0.0017706315 -0.004507527 0.0064434297 -0.012368364
000130 36 80 e0 b9 58 30 26 3b cd 11 ad ba b3 b9 c3 3a
       -0.00042820134 0.0025358405 -0.0013204158 0.0014932662
000140 4e cf 06 3c fa 8b 23 bc e3 f4 aa bb d9 8e fe 3c
       0.008228136 -0.0099821035 -0.005217181 0.031073974
000150 69 ee d4 b9 7a 49 6d bc 22 31 e6 ba 73 16 01 bd
       -0.0004061342 -0.01448285 -0.001756225 -0.03151555
000160 44 69 ab 3c 9c 8d 49 3c ab dc 5b bc d9 c9 97 bb
       0.020924218 0.012301829 -0.013419311 -0.0046322164
000170 35 08 20 3d 65 7e 1e 3c c3 88 ef 3b 11 e1 9a ba
       0.039070327 0.0096736895 0.0073100044 -0.0011816343
000180 c6 ce 65 bc e5 f7 ff bc 2e 3d 0e 3d c3 7d 54 bb
       -0.014026349 -0.031246135 0.034726314 -0.0032423593
000190 19 1c e8 3b 29 d1 83 bc a4 b5 33 bb b9 c2 34 3b
       0.0070834276 -0.016090946 -0.0027421499 0.0027581884
0001a0 6b 72 3a ba 64 76 1c bc 0b fc 2c 3c 1f 7e 06 3d
       -0.00071123865 -0.009549711 0.010558139 0.032835122
0001b0 b4 6b 88 3c af 50 ce bc 3a 2a 4f 3c d0 8d 86 bc
       0.01665292 -0.025184957 0.012644345 -0.016425043
0001c0 68 87 96 bb 54 19 42 3b 50 bc 2a 39 85 b2 9e 3c
       -0.0045937784 0.0029617148 0.00016282615 0.019372234
0001d0 79 0a 21 bb 7d 79 fe bb ea 31 b2 39 1b cd 0c 3b
       -0.0024572893 -0.0077659474 0.00033987995 0.0021484557
0001e0 30 fb a4 3b aa 7b c9 b8 5e a5 56 3c 76 7e fe ba
       0.0050348267 -9.607461e-05 0.01310095 -0.001941635
0001f0 f4 da 6d bc eb 8b 7a 3b c2 af 16 bb 1c 39 30 3c
       -0.0145175345 0.003823037 -0.0022992943 0.010755803
