scripts/shell/hier/checkpoint_goto.pt (torch, 477263 bytes, 32 tensors)

module.base.0.weight f4 [26]
000000 45 82 8a 3f 4e 98 86 3f 38 da 91 3f 7f 64 80 3f
       1.0821005 1.051523 1.139472 1.0030669
000010 99 e9 88 3f 62 86 65 3f 64 34 7e 3f d5 34 51 3f
       1.0696288 0.89658177 0.9929869 0.8172124
000020 5f 5c 4f 3f b7 c6 78 3f 3a 55 1e 3f b4 9e 39 3f
       0.8100032 0.97178215 0.61848795 0.72507787
000030 4a 95 5b 3f c0 06 76 3f 60 64 88 3f e3 81 8a 3f
       0.8577467 0.9610405 1.0655632 1.0820888
000040 8b 01 a8 3f 48 c4 a6 3f 71 36 86 3f 7d 67 fb 3e
       1.3125471 1.302865 1.0485364 0.49102393
000050 15 ac f3 3e 46 c3 0b 3f db c7 fd 3e 92 26 9b 3f
       0.47592226 0.5459484 0.4956654 1.2121146
000060 26 f8 8e 3f e0 c9 80 3f
       1.1169479 1.0061607

module.base.0.bias f4 [26]
000000 11 d6 4c 3e 4c 9e d6 3d 21 ac 71 3d 4d af e3 bd
       0.20003535 0.104794115 0.059002046 -0.1111742
000010 b1 3f e8 3d 67 b0 1f 3e 36 12 07 3e ad d3 9b 3d
       0.11340273 0.15594636 0.1319054 0.07608733
000020 8d aa 18 3e 44 00 72 3d 4f 6d 25 3e 43 9b 53 3e
       0.1490881 0.059082285 0.16154979 0.20664696
000030 5c 2f 94 3e cf cb f5 bd a6 32 92 3d 4a 22 8a 3d
       0.28942382 -0.12001764 0.07138567 0.06744821
000040 9f 0d 1d 3e 7b fc 11 3e bf 5b bd bd 72 86 a6 be
       0.15337227 0.1425647 -0.09246015 -0.3252445
000050 aa 01 b7 be 4d c9 ac be 06 5f 9a be a4 5a 2b 3e
       -0.35743457 -0.3374733 -0.30150622 0.16733795
000060 eb 16 7c 3d ad 54 b7 3d
       0.061545294 0.089516975

module.base.1.layers.0.weight f4 [256, 26]
000000 f7 b9 10 be 02 f5 3b 3c 4d f4 e1 bc 01 07 04 3d
       -0.1413344 0.011471989 -0.027582312 0.032233242
000010 aa 50 23 3e 34 89 0c bd 2a f2 10 3d 74 e5 01 3e
       0.1594874 -0.034310535 0.035387196 0.12685186
000020 04 8b df bd 7d 88 1d 3e 72 b5 36 3d cd d2 03 be
       -0.10915187 0.15384097 0.044606633 -0.12873383
000030 89 fe 84 bd 0b 37 12 3e 78 0f fe bc 7c bd 1e bd
       -0.06493861 0.1427881 -0.031013235 -0.038754925
000040 33 57 59 3c 4c fe 2e 3e 55 c8 18 bd c6 49 a5 bd
       0.013265419 0.17089194 -0.037300427 -0.08070712
000050 d8 ca d7 bc 1d ab 14 3e c7 b0 11 bd f4 0f c9 be
       -0.02634184 0.145184 -0.03556898 -0.39269984
000060 83 70 1b bd 6d 11 05 be 06 3d 8d 3d e9 61 1d 3e
       -0.037949096 -0.12994929 0.06896405 0.15369381
000070 ba 85 09 be 10 83 bf bd 8a 86 a6 3e 79 20 80 be
       -0.13429919 -0.0935117 0.3252452 -0.25024775
000080 31 c0 d1 bc f4 a7 3c 3d 0e 24 0c be 9d 30 55 bc
       -0.02560434 0.04605861 -0.13685629 -0.013012079
000090 82 ec 2d bc 8e c4 15 3c 8a bc eb 3d 1a a3 d9 3d
       -0.01061547 0.009141101 0.1151057 0.10626812
0000a0 c7 ff d6 bd 31 4b 2a 3e 48 4f b2 be 15 17 8d bd
       -0.104980044 0.16630246 -0.34826112 -0.06889168
0000b0 af 3a bb 3d 1d d4 26 bc 5c bd 9e 3d 5d 85 09 be
       0.091420524 -0.010182408 0.07750961 -0.1342978
0000c0 cf 75 82 be f9 d4 36 39 29 c5 15 3e dc b7 ac bd
       -0.25480506 0.00017436211 0.14625992 -0.08433506
0000d0 f6 a6 8d 3c 3d 46 1c 3e 0e 65 8b be a3 fc f3 3c
       0.017291527 0.15261169 -0.27225536 0.029783553
0000e0 b9 f8 97 bd 58 16 f7 3d 2a 54 fe bd a1 39 0f 3d
       -0.07420487 0.120648086 -0.12418397 0.03496707
0000f0 3f f1 ed bd 4c 8f 8b 3d f8 26 98 bd 1d 01 5a 3d
       -0.1161828 0.06814441 -0.07429308 0.053223718
000100 15 27 ec bc 75 b6 8a bd c4 3c 54 bb b5 3e 55 be
       -0.02882723 -0.06773082 -0.0032384852 -0.20824702
000110 4e 67 ad 3e 84 09 31 be b2 70 c8 bc 46 0a 14 3e
       0.33867878 -0.17288786 -0.0244678 0.14457044
000120 86 47 a2 3d 2c 79 84 be c7 71 7f 3d 9b b0 ef 3e
       0.07923798 -0.25873697 0.062364366 0.46814427
000130 a3 6c 0d be ec 3a 82 be 8d 91 e5 bd 44 4f 69 bd
       -0.13810973 -0.2543558 -0.11209402 -0.05696036
000140 6b 81 dd bd 8f 85 21 3d cb bc 49 bd 27 67 17 be
       -0.108157 0.039434012 -0.049252313 -0.14785443
000150 ef b1 36 be f4 8d e4 bc 3c e2 69 be 7f 4c 54 3d
       -0.17841314 -0.02789972 -0.22840208 0.051830765
000160 f1 bc 28 3e 5d b7 67 3d 54 d6 53 3e 82 83 01 3e
       0.16478325 0.056571353 0.20687228 0.12647822
000170 08 46 bc be 96 30 63 be aa c8 64 bd fd fe 1f be
       -0.3677218 -0.22186503 -0.05585543 -0.15624614
000180 6c 9d de bd 2e b0 11 3d da 1e 2a 3e 1e 5a 23 3c
       -0.108698696 0.03556841 0.16613331 0.009970216
000190 10 97 49 be be 96 a0 3d 12 ea 8c 3e b0 39 25 be
       -0.19686532 0.07841252 0.2752233 -0.16135287
0001a0 80 b3 ae 3c 57 d1 41 be dc 80 0c 3e 13 a3 b0 3d
       0.021325827 -0.18927513 0.13721031 0.08624854
0001b0 d2 b4 d1 3d e0 cc c8 bd 04 5f 25 be 77 03 0e bd
       0.10239567 -0.09804702 -0.16149527 -0.034671273
0001c0 ae eb 28 be ca 8b 94 be e8 31 92 3e 97 fb f8 bd
       -0.16496155 -0.290129 0.285537 -0.12157362
0001d0 a0 98 b4 be 29 85 ad bd 9c 33 a2 3d 07 65 48 3e
       -0.35272694 -0.08472664 0.0792 0.19569789
0001e0 4e 08 7a bd 12 79 55 bd 1e 71 19 be 6b 5c c1 3d
       -0.061043076 -0.052117415 -0.14984557 0.094414555
0001f0 8a 62 c7 3d 92 70 29 3e 53 5d 8e bc b8 be 5d be
       0.09735592 0.16546848 -0.017378485 -0.21654785
000200 82 20 9c 3d 2d fc 09 be 02 ad 82 be ca b3 35 be
       0.07623388 -0.13475104 -0.2552262 -0.17744365
000210 98 c7 b3 be 31 5c 1b be 31 db 95 3e 14 c1 1a 3e
       -0.35113215 -0.15171887 0.29268792 0.15112716
000220 62 b6 b4 3d 31 4d 8e 3e 28 0a 45 3e 35 a6 e9 3d
       0.08823849 0.27793267 0.19242156 0.114086546
000230 1f fc 19 3d 3c be 99 bd 02 48 99 bd b8 e0 5e 3e
       0.037593957 -0.075069875 -0.074844375 0.21765411
000240 ad b2 64 3e 46 b4 e9 3d 7c 5e af 3c 36 aa d7 bd
       0.22333784 0.114113376 0.021407358 -0.10530512
000250 3c d3 7f 3d 05 5f 16 bb 9b ef 41 3d f1 42 eb 3c
       0.06245731 -0.002294482 0.047347646 0.028718444
000260 4d d2 a6 bd cc 17 80 bd 0f b0 79 be 8b 05 f7 3d
       -0.081455804 -0.06254539 -0.24383567 0.12061604
000270 2e 97 44 3d 3d 54 28 be 3e 22 7a 3d fc 31 c3 3d
       0.04799574 -0.16438384 0.061067812 0.09531018
000280 fd af 9e be 0b cf 63 3c df 52 39 be 55 aa 8d ba
       -0.30993643 0.013904343 -0.18098019 -0.0010808209
000290 86 88 26 3e 49 75 71 be b7 b9 52 be b7 ad 14 be
       0.16263017 -0.23579897 -0.20578657 -0.14519392
0002a0 23 6c 19 3e 7f f1 35 be 37 5a 3f bd 4f 7e 86 bd
       0.14982657 -0.17767905 -0.046716895 -0.0656706
0002b0 aa e1 0d 3e 70 1b a0 3e 6d 42 99 3d 51 4e 3c 3e
       0.13855615 0.31270933 0.07483373 0.1838925
0002c0 22 81 2f 3d 14 89 0d 3e d7 3e 1b be 45 4a d1 3d
       0.04284776 0.13821822 -0.1516069 0.10219244
0002d0 4c 89 2a be cc fe a3 bd b8 1a 26 bb 26 62 6c 3d
       -0.16653937 -0.08007583 -0.0025345515 0.05771079
0002e0 0c d3 02 3d bd 35 60 3e ac e7 e6 bc 1c 28 8b 3d
       0.03193955 0.218955 -0.028186642 0.0679476
0002f0 85 9e 11 bc a4 44 8d 3d f7 3a af 3d 9f 22 51 3e
       -0.008887892 0.06897858 0.085561685 0.20423363
000300 90 92 32 be be d6 90 bc 91 bc 31 bc 37 0e f0 bc
       -0.17438722 -0.017680522 -0.01084818 -0.029303653
000310 c8 f0 24 3e 3c 31 96 be 97 b6 f3 3e 24 49 ae be
       0.16107476 -0.29334438 0.47600242 -0.34040177
000320 64 31 1a bd 5a ce 55 3d 86 eb 84 3e d4 a2 77 3e
       -0.03764476 0.052198745 0.2596094 0.24183208
000330 b6 04 0c 3d 34 d4 62 bd 01 f7 b3 be a9 09 5e 3e
       0.03418418 -0.055378154 -0.35149387 0.21683373
000340 59 6f 07 3e 3d fe cc bd 5f 64 ac 3e 5b 10 83 be
       0.1322607 -0.100094296 0.33670327 -0.25598416
000350 71 f1 a6 3d bf 63 54 3d 2b 2b 83 3e 92 38 6b 3c
       0.0815152 0.051852938 0.25618872 0.014356749
000360 a3 37 71 3e 09 00 2c 3b 49 1b 41 be eb a1 b9 3d
       0.2355638 0.0026245138 -0.18858065 0.090640865
000370 01 90 22 3e 6c a5 b8 be 83 9a 55 3e 53 cc 85 3d
       0.15875246 -0.36063707 0.20859723 0.065331124
000380 35 e0 1c 3e ab dc fa 3e cb 94 bc bc 6f fc 8f 3d
       0.15319903 0.4899648 -0.023020169 0.0703057
000390 95 e7 9e bd ff 5d 52 be cb 3f fd bd 02 0b 2e be
       -0.077590145 -0.20543669 -0.12365683 -0.16996387
0003a0 3a 63 2f 3e 97 25 67 bd fe 23 37 be 68 b9 7f be
       0.17127696 -0.056432333 -0.17884824 -0.2497307
0003b0 71 6c 04 bf c2 46 bf bd 73 c8 af 3e f3 92 27 3e
       -0.5172797 -0.09339668 0.34332618 0.1636465
0003c0 be ed 71 3e c6 76 3e bd 56 af 31 3d cf 5b b2 bb
       0.23625848 -0.04649999 0.043380104 -0.0054430733
0003d0 f0 e0 01 3e 08 55 91 bd 4a 36 15 3e e2 74 44 be
       0.12683463 -0.070962965 0.14571491 -0.19185212
0003e0 fc c2 04 3e f5 7e e6 bc 8c 36 88 be f9 a6 0b 3d
       0.12965006 -0.02813671 -0.26604116 0.034094784
0003f0 c1 13 01 bc 41 33 bf 3d df a0 df bb ba 8d 6a 3e
       -0.007878245 0.09335948 -0.0068245973 0.22905627

module.base.1.layers.0.bias f4 [256]
000000 2c 0e c1 be 73 e7 24 bd 6a 3a b4 3e af 67 1c be
       -0.37706125 -0.04025979 0.35200816 -0.15273927
000010 95 ea e3 3d 6c 67 24 bd 1a 8b 63 bc 6d 85 5d be
       0.11128727 -0.040137693 -0.013888145 -0.21632929
000020 83 aa 21 3d 6c 9a 3e bd 04 35 17 3e a9 ce 46 be
       0.039469253 -0.046533987 0.14766318 -0.19414772
000030 60 66 99 3c 4f 52 3c bc 2a 17 a2 3c 21 92 e1 bd
       0.018725574 -0.011494233 0.019786436 -0.110142
000040 6e e1 63 be c7 f5 ee bd 9c d6 09 3d 66 10 0d bd
       -0.22253963 -0.11667972 0.033651933 -0.034439467
000050 06 cd 52 3d cd 0a 46 be f1 1a d1 bd ef 3e 13 be
       0.051465057 -0.19340058 -0.10210217 -0.14379476
000060 3c 3d ef bd 50 3a 19 be 3d 13 19 be 93 aa 95 3e
       -0.116816014 -0.1496365 -0.14948745 0.292317
000070 2a ed 57 be b3 10 e0 bc fc 39 0c 3e 5b 79 7f be
       -0.21086565 -0.027351713 0.13693994 -0.24948637
000080 25 0d 61 3d 73 f6 ba 3d 05 a9 58 3b d1 35 68 be
       0.054944176 0.09129038 0.0033059728 -0.2267678
000090 8e 3d 67 3d 93 21 61 be 3a d6 10 be 60 28 eb bc
       0.056455187 -0.21985464 -0.14144221 -0.028705776
0000a0 14 31 00 be da de f6 bd 85 e5 48 be 5e a3 77 3c
       -0.12518722 -0.12054224 -0.19618805 0.015114633
0000b0 71 03 43 3c c2 48 90 3d f9 00 e5 3d ab 5d 6c bd
       0.011902676 0.070451275 0.11181826 -0.057706516
0000c0 85 f5 aa 3c 22 68 04 3d 9a 82 32 3e 03 74 13 be
       0.020869026 0.03232587 0.17432633 -0.14399724
0000d0 0c c0 82 bd e6 04 86 3d 62 6a d8 bd 1f ae 14 be
       -0.06384286 0.06543903 -0.10567166 -0.14519547
0000e0 68 a4 a3 3e e6 fa 59 3e 12 3a 18 be df 67 87 3e
       0.3196137 0.21287116 -0.14865902 0.26446435
0000f0 99 b0 e9 3c 72 c7 1e 3e 0e 82 db bc 63 31 ea bd
       0.028526591 0.1550577 -0.026795413 -0.11435201
000100 7e a8 e2 3d 6e 67 63 bd 42 e1 36 be 4f 12 0f be
       0.110672936 -0.05551856 -0.17859367 -0.13971828
000110 bf b1 b3 be 4c 11 e1 3d d6 e1 ca 3e 16 d3 07 bb
       -0.35096547 0.10989627 0.39625424 -0.0020725182
000120 21 9f 34 3e e7 b2 75 3e 62 0e c0 bd 1a fc 1b be
       0.17638828 0.23994027 -0.09377743 -0.15232888
000130 70 ea 7a bd 18 17 32 bd 86 b2 e1 bd 4f c9 a2 bd
       -0.061258733 -0.043479055 -0.11020379 -0.07948553
000140 ce 52 e5 bd 0c b7 54 be 95 6a 46 3e 40 c2 be 3c
       -0.11197434 -0.20772952 0.19376595 0.023285985
000150 09 e2 1a be 70 5a db 3c ec d0 d2 bd 33 81 dd bd
       -0.15125288 0.026776522 -0.10293755 -0.108156584
000160 1c ba 77 be 2d dc 80 3d 04 f6 8e 3d c4 b9 9c bd
       -0.24192089 0.06291995 0.069805175 -0.076526195
000170 a7 1f 32 3d 4d 45 58 be 0f cd 2c 3e ef a8 e1 bd
       0.043487217 -0.21120186 0.16875099 -0.1101855
000180 e1 b4 90 3c aa 53 a0 3b fe 2c 84 be 33 b7 ca 3c
       0.017664375 0.004892786 -0.25815576 0.02474556
000190 c8 2f 44 bd f3 e4 1f 3d e4 3c aa 3d a9 9c de bc
       -0.04789713 0.039036702 0.08312395 -0.02717431
0001a0 fa d2 4e bc 0d 08 8b bd 7f cc 2b be 35 76 75 3e
       -0.012623543 -0.06788645 -0.16777228 0.23970874
0001b0 84 fa b3 bd 3c 30 b5 bd f3 34 47 3e a9 ac 01 be
       -0.087880164 -0.088470906 0.19453792 -0.12663521
0001c0 bb e1 0f be 25 36 13 3d f6 ce 81 3e f1 4f 3a 3e
       -0.14050953 0.035940308 0.2535321 0.18194558
0001d0 18 26 18 bb c3 5a 7b 3e a7 13 fc 3c 7b 10 82 3e
       -0.0023216065 0.24546342 0.03077109 0.254032
0001e0 9f 5b 2c 3d 97 75 be bd b7 7f 80 bd 14 bf 46 bd
       0.042079564 -0.09299772 -0.0627436 -0.04852207
0001f0 f4 2c 64 be 19 91 7b 3e dc 30 c6 bc 51 52 6a be
       -0.22282773 0.24567069 -0.02419322 -0.22882964
000200 48 b7 ce bd 6b 17 85 bc d4 6e b0 bd a3 05 9d bd
       -0.10093552 -0.016246518 -0.08614889 -0.07667091
000210 2a 10 b5 bd f1 4c 37 be 2d 7f ff bd 2b b1 f6 bd
       -0.08840974 -0.17900445 -0.12475429 -0.12045511
000220 2a c4 4b be 40 65 70 3d de a9 f5 3d 2c 39 81 3e
       -0.1989905 0.05869031 0.1199529 0.2523893
000230 8f 1f 09 3e c3 01 92 bb 34 e8 41 3e a6 0a e0 bd
       0.13390945 -0.0044557764 0.18936235 -0.10939531
000240 0a cf 09 bd 4d 87 69 be 35 58 2c be ce 8e 78 3d
       -0.033644713 -0.2280552 -0.16830523 0.060683064
000250 72 4d 74 3c 49 96 44 bc b8 96 6f be f2 c2 56 3e
       0.0149110425 -0.011998721 -0.23397338 0.20972803
000260 d2 2d 86 3d 75 75 1e 3e 95 2f 9b bd a5 0e 09 3e
       0.06551708 0.15474494 -0.07577435 0.13384493
000270 aa 8c 2d 3d 04 e6 94 3e 5f 75 0d be 5b 4b 79 3e
       0.042370476 0.29081738 -0.13814305 0.24345152
000280 f6 27 70 be 29 e7 a7 bc 66 4f b9 bc 0a 1f a6 bd
       -0.23452744 -0.020495968 -0.022620868 -0.08111389
000290 89 19 0c be 77 5f 71 bd 9d 78 58 be 7e 8d 11 be
       -0.13681616 -0.058928933 -0.2113976 -0.14214131
0002a0 99 5b cc 3d 1f 83 69 be 1c 94 62 3e 56 31 68 be
       0.09978408 -0.22803925 0.22126812 -0.2267507
0002b0 af 14 56 3b d2 28 42 bd 2b da a8 bd ce 9e 8c 3d
       0.0032666137 -0.04740221 -0.08244737 0.06866227
0002c0 39 0c 49 3e d7 88 c9 bb 73 3b c4 bd f7 72 6b be
       0.19633569 -0.006150346 -0.095816515 -0.22993074
0002d0 7a 68 40 bd 44 dc d6 bd b3 c4 b8 bd 62 58 d9 bd
       -0.046974637 -0.10491231 -0.090218924 -0.10612561
0002e0 23 ab 1c be cb 9d 69 bd 1e ed 9f bd be 10 24 3e
       -0.15299658 -0.05703525 -0.078088984 0.16022012
0002f0 e7 43 bf 3b 36 23 14 bd 18 1a 0d be 6e 8b 20 3e
       0.005836952 -0.036166392 -0.13779485 0.15678188
000300 79 5d b1 bc ba e2 1c bd 0b df ec bd 70 07 6f 3c
       -0.021651017 -0.03830216 -0.115659796 0.014589176
000310 a2 7a 31 3e 1f 02 1c 3e 69 ee 5a 3e b9 8f 6c be
       0.17331937 0.15235184 0.21380009 -0.23101701
000320 6e 9d e8 bd 89 2e 2e bd 48 f5 ad bd e1 38 ba 3d
       -0.11358152 -0.042524848 -0.08494049 0.0909288
000330 29 15 23 be 77 9d bd bd a9 ae de bd b2 aa 2b 3c
       -0.1592604 -0.0925855 -0.108731575 0.010477709
000340 b7 ad 0f be 72 8a 77 be d9 4c 6a 3e 39 3e 40 3e
       -0.1403111 -0.24173906 0.22880878 0.18773736
000350 03 52 dd bd 7c 3b 6e be e4 fd d8 3d df 1b 4d 3e
       -0.10806658 -0.23264879 0.10595301 0.20030163
000360 ca 1c 8f 3d f9 5a 25 be ef 7e 1a be 6c 81 77 3d
       0.06987913 -0.16147985 -0.15087484 0.06042616
000370 cf 1c f6 bb 0e bb 59 be 98 41 8e bd 20 c8 68 3c
       -0.0075107585 -0.21262762 -0.06946105 0.01420787
000380 36 ca 82 be 00 a1 22 3e 71 d7 bf 3d b6 5c 0f bd
       -0.255449 0.15881729 0.09367264 -0.035000525
000390 40 62 dd bd 5f 0e 43 3d d5 50 83 bd 4f cb cb 3d
       -0.10809755 0.047621127 -0.06411902 0.099508874
0003a0 92 7d e5 3d b7 2c c8 bd 15 b8 a6 bd 76 a1 42 be
       0.11205591 -0.09774154 -0.081405796 -0.19006905
0003b0 25 c6 33 be c1 29 77 3e a3 8d 14 3e 49 b3 43 bd
       -0.17556055 0.24137022 0.14507155 -0.0477784
0003c0 26 26 b0 bd 1e ea ba 3d ff 90 86 3d a8 1e 57 be
       -0.08601026 0.091266856 0.065706246 -0.21007788
0003d0 e4 95 16 be ec bc 12 3d 05 0c 75 be 22 f6 84 be
       -0.14705616 0.0358247 -0.23930366 -0.25969034
0003e0 5e 7b b1 bd a4 25 3f be e0 85 1a 3e 9e 96 28 bc
       -0.086661085 -0.18666703 0.15090132 -0.010289816
0003f0 94 90 05 3d 1a 58 1d be 36 51 3e be 40 a7 c2 3d
       0.032608584 -0.1536564 -0.18585667 0.09504557

module.base.1.layers.2.weight f4 [256]
000000 97 30 5d 3f 9f 67 70 3f bf c5 83 3f 20 04 82 3f
       0.8640227 0.93908113 1.0294722 1.0157509
000010 e8 6b 7d 3f 6d 1b 6e 3f df b2 7f 3f 11 21 9c 3f
       0.98992777 0.930106 0.9988231 1.2197591
000020 c6 df 93 3f 39 15 82 3f 68 6b 73 3f 28 9c 82 3f
       1.1552665 1.0162727 0.95085764 1.0203905
000030 7c 0a 5e 3f 2c 91 92 3f e5 11 76 3f 9e e3 88 3f
       0.8673475 1.1450553 0.96121055 1.0694463
000040 4d d4 6b 3f de 87 7c 3f db be 8a 3f 81 84 96 3f
       0.9212082 0.98644817 1.0839494 1.1759187
000050 64 3b 7c 3f c0 f5 6c 3f 5c c6 78 3f f8 85 79 3f
       0.9852812 0.92562485 0.9717767 0.97470045
000060 7b 00 6f 3f 6d 6a 7a 3f a6 85 8d 3f 55 be 66 3f
       0.9336011 0.9781864 1.1056411 0.90134174
000070 19 e7 82 3f 71 15 86 3f 40 e1 69 3f 8e 84 68 3f
       1.0226775 1.0475293 0.9135933 0.9082726
000080 f0 10 5e 3f 0b 81 75 3f 13 f5 6b 3f db 93 63 3f
       0.86744595 0.9590003 0.9217083 0.88897485
000090 4e ac 73 3f b1 24 91 3f 20 eb 72 3f 0b 69 83 3f
       0.9518479 1.1339322 0.9489002 1.0266432
0000a0 da a4 5f 3f 00 64 89 3f 87 35 67 3f 25 c6 8c 3f
       0.8736092 1.0733643 0.9031605 1.0997969
0000b0 61 19 85 3f cf cc 8d 3f 90 1a 88 3f d1 79 6d 3f
       1.039837 1.1078128 1.0633106 0.92764
0000c0 62 2e 93 3f cc 8e 7c 3f da cf 8b 3f 2c a0 69 3f
       1.149853 0.9865539 1.0922806 0.9126003
0000d0 49 5f 8b 3f 0c 34 6f 3f b7 bf 70 3f 70 33 82 3f
       1.0888454 0.9343879 0.94042534 1.0171947
0000e0 1c fb 74 3f 95 65 7d 3f a4 68 8a 3f 06 f9 83 3f
       0.9569566 0.98983127 1.0813184 1.0310371
0000f0 c7 84 70 3f 94 6e 7e 3f 33 b6 7a 3f ea 4a 6b 3f
       0.939526 0.9938748 0.97934264 0.91911185
000100 80 b5 80 3f 18 ee 7e 3f cb 7f 8a 3f e9 28 8b 3f
       1.005539 0.9958205 1.0820249 1.087186
000110 cb 13 56 3f c7 1d 67 3f 47 c4 9d 3f 8e c8 7e 3f
       0.8362395 0.9027981 1.2325524 0.9952477
000120 58 40 7a 3f 59 a2 71 3f 6a d8 7e 3f 73 dc 72 3f
       0.9775443 0.9438835 0.9954897 0.9486763
000130 a8 23 8f 3f c8 6d 8d 3f 55 3d 70 3f 2c 0a 6c 3f
       1.1182756 1.1049128 0.93843585 0.9220302
000140 35 12 5f 3f 28 de 8d 3f f6 57 84 3f 86 90 7a 3f
       0.87137157 1.1083422 1.0339344 0.97876775
000150 3c 6f 89 3f 95 e2 8d 3f b8 db 6a 3f b4 e9 33 3f
       1.0737071 1.1084772 0.91741514 0.7027848
000160 7c d6 79 3f 2e f4 90 3f 42 1e 8a 3f 73 11 7f 3f
       0.975929 1.1324518 1.0790484 0.99636
000170 75 19 6d 3f fb d4 6d 3f 0a 8a 88 3f dd 7e 87 3f
       0.9261697 0.9290311 1.0667126 1.0585591
000180 59 9a 7d 3f 08 d0 7d 3f ee ec 80 3f fc 7e 88 3f
       0.9906364 0.99145555 1.0072305 1.0663753
000190 ee 41 7c 3f 8a 70 86 3f 34 67 87 3f 08 89 60 3f
       0.985381 1.0503094 1.057837 0.87709093
0001a0 7b da 82 3f b3 eb 5a 3f 29 c3 82 3f fe 2b 81 3f
       1.0222925 0.855159 1.0215808 1.009155
0001b0 a5 ae 8c 3f 5d 78 68 3f 5f ac 42 3f 25 7c 7f 3f
       1.0990797 0.9080866 0.7604427 0.99798805
0001c0 4e 22 7f 3f 8c 76 83 3f 1d db 7a 3f 28 32 8c 3f
       0.9966172 1.0270553 0.9799059 1.0952806
0001d0 a0 4b 53 3f 66 22 92 3f a7 9a 82 3f bc 40 7f 3f
       0.8253727 1.1416748 1.0203446 0.9970815
0001e0 d4 57 a6 3f 8e ad 90 3f cf 56 6c 3f 18 2c 79 3f
       1.2995553 1.1302965 0.9231996 0.97332907
0001f0 1d 7d 6e 3f 1c ee 76 3f 19 32 7e 3f 0e 25 8d 3f
       0.9315966 0.96457076 0.9929519 1.1026933
000200 51 b6 80 3f 0f 78 81 3f c0 ab 92 3f 92 fd 8a 3f
       1.0055639 1.0114764 1.1458664 1.0858634
000210 3c 53 55 3f a2 45 67 3f cb cd 35 3f 5f 2f 82 3f
       0.8333013 0.90340626 0.7101714 1.0170707
000220 7e cb 97 3f 1b 62 83 3f 58 1c 87 3f 89 98 6e 3f
       1.1858976 1.0264314 1.0555525 0.932015
000230 1f 91 75 3f 49 56 7d 3f 93 a7 82 3f 3a 44 7d 3f
       0.9592456 0.98959786 1.020739 0.9893223
000240 fe d2 65 3f 04 e8 83 3f 4e f0 75 3f f5 c8 56 3f
       0.89775074 1.030518 0.960698 0.83900386
000250 6f e4 49 3f ab 35 9b 3f 08 1a 7f 3f ff 15 72 3f
       0.78864187 1.2125753 0.99649096 0.94564813
000260 96 2f 85 3f 76 bf 58 3f 59 4a 94 3f 4a 80 86 3f
       1.0405147 0.84667146 1.1585189 1.0507901
000270 4e ef 64 3f 5d 51 6f 3f 54 2b 8b 3f 6d 64 67 3f
       0.8942765 0.93483526 1.0872598 0.9038761
000280 d6 2b 97 3f d7 00 8b 3f 9f 8e 4b 3f 5a 00 60 3f
       1.1810253 1.0859631 0.795145 0.87500536
000290 c6 49 91 3f 8d 96 61 3f 33 75 7d 3f 01 28 3b 3f
       1.1350639 0.8812035 0.99006957 0.73107916
0002a0 f2 1a 8a 3f a3 c4 80 3f d6 8b 8c 3f e3 63 6c 3f
       1.0789473 1.0060009 1.0980175 0.92339915
0002b0 d5 65 89 3f 31 2d 4c 3f fc 64 8a 3f d3 f4 66 3f
       1.0734202 0.79756457 1.0812068 0.9021732
0002c0 cc 1f 80 3f d4 7f 7d 3f 75 1f 64 3f 17 42 77 3f
       1.0009704 0.99023175 0.891105 0.9658522
0002d0 0c 8a 9e 3f 4e af 88 3f 89 15 64 3f b0 99 6d 3f
       1.2385879 1.0678499 0.8909536 0.92812634
0002e0 0c 79 71 3f 4c 4b 6c 3f 80 7c 9c 3f 95 c5 7d 3f
       0.9432533 0.92302394 1.2225494 0.9912961
0002f0 8b 05 63 3f a7 90 84 3f fe f5 8b 3f 3b 0f 79 3f
       0.8868033 1.0356644 1.0934446 0.97288865
000300 a5 ee 88 3f e1 92 81 3f ed 95 7f 3f 50 bf 5f 3f
       1.0697829 1.0122949 0.99838144 0.87401295
000310 c6 a3 7d 3f 9b 16 81 3f 4b 9f 82 3f e8 bf 85 3f
       0.99078023 1.0085024 1.0204862 1.044919
000320 c9 63 67 3f 21 61 62 3f 1f 1b 82 3f c2 a6 7e 3f
       0.90386635 0.88429457 1.0164527 0.994732
000330 ad 9c 83 3f 97 e4 4a 3f 58 5d 75 3f 12 9f 55 3f
       1.0282189 0.7925505 0.95845556 0.8344585
000340 91 c0 90 3f 58 33 73 3f 91 94 7a 3f d0 f2 9a 3f
       1.1308767 0.9500022 0.97882944 1.210535
000350 bc 72 7b 3f fa 2e 91 3f b0 00 7f 3f 05 bf 83 3f
       0.98221946 1.1342461 0.99610424 1.029267
000360 63 95 7d 3f 10 9a 92 3f 5d e0 9c 3f e7 80 58 3f
       0.9905607 1.1453266 1.225597 0.8457169
000370 b9 2c 9b 3f 8f a2 6c 3f e1 03 56 3f 5d 3e 5a 3f
       1.2123023 0.92435545 0.8359967 0.8525141
000380 83 36 4d 3f d9 af 78 3f 0f 31 61 3f 30 61 6b 3f
       0.80161303 0.9714332 0.8796548 0.9194517
000390 81 c2 72 3f cd e8 73 3f c4 39 7f 3f 78 ce 66 3f
       0.9482804 0.952771 0.9969752 0.90158796
0003a0 ee 60 81 3f 75 32 6f 3f bc 09 98 3f a2 62 8c 3f
       1.0107706 0.93436366 1.1877971 1.09676
0003b0 bc a6 86 3f b3 cc 6d 3f 99 63 86 3f 62 e1 61 3f
       1.0519633 0.9289047 1.0499145 0.8823453
0003c0 76 74 80 3f b7 5d 2f 3f 6a 86 7b 3f 11 17 5f 3f
       1.0035541 0.6850237 0.98251975 0.8714457
0003d0 0e 9f 73 3f 30 41 6a 3f 5f 56 75 3f 17 78 79 3f
       0.95164573 0.9150572 0.95834917 0.9744887
0003e0 14 f2 6d 3f b0 a4 7a 3f 1c 60 57 3f 3b 3f 8c 3f
       0.92947507 0.97907543 0.84131026 1.0956796
0003f0 75 e9 91 3f e3 e5 6f 3f 8e 56 79 3f 70 ee 72 3f
       1.139937 0.93710154 0.97397697 0.94895077

module.base.1.layers.2.bias f4 [256]
000000 44 61 90 be 6a ff 1b be 24 37 72 3e 68 26 b7 bd
       -0.28199208 -0.15234151 0.23653847 -0.08942872
000010 61 b5 b5 3d 35 32 0e be 00 d8 81 bd d9 1a dc bd
       0.08872486 -0.1388634 -0.06340027 -0.10747308
000020 c6 a2 9e 3d b3 d3 fa 3d 2e 3f 4d 3d 4b 78 c5 bd
       0.0774589 0.1224741 0.05010908 -0.09642085
000030 1e fc c6 3d 70 11 80 bd b1 96 ba bd 7c 1d d7 bb
       0.09716056 -0.06253326 -0.09110773 -0.006564794
000040 98 df 5c bd 1a eb c6 bd 3a e4 b8 bd 10 0c a7 3d
       -0.053924173 -0.09712811 -0.09027906 0.081565976
000050 4d bb 0f be 82 6b 8b 3d 87 d1 96 3d 1b d0 11 be
       -0.14036293 0.06807615 0.07364183 -0.14239542
000060 04 4a 1d be cf f2 2e 3d 77 95 e2 bd f6 ca 97 3e
       -0.15360266 0.04271203 -0.110636644 0.29647034
000070 3c a6 2a be 7c bf 12 be cf 0a c8 3d 67 82 5b be
       -0.16664976 -0.14330858 0.097676866 -0.21436463
000080 2a 22 1b be 64 54 91 3d be 7d 76 3d 93 1a 77 bd
       -0.15149751 0.07096174 0.06017851 -0.060328078
000090 ce 79 9f 3d 9e a6 f7 bd b5 e7 28 be c9 ed 49 bd
       0.07786904 -0.120923266 -0.16494639 -0.049299035
0000a0 19 9b 41 be be a5 13 be 32 20 0e be e5 d7 f1 3d
       -0.18906821 -0.14418694 -0.13879469 0.11808757
0000b0 35 3d 54 bd 9d 0f e4 3d 68 eb da bd 6f 9d 19 3e
       -0.051816184 0.111357905 -0.106894314 0.15001462
0000c0 2a ae ee 3d 6a 12 25 be 72 4e ef 3d bd de 02 be
       0.11654313 -0.16120306 0.11684884 -0.1278028
0000d0 6a c4 b5 bd 1c 1f b6 3d 27 0e 9c 3c 17 5b 29 be
       -0.08875354 0.088926524 0.019049717 -0.16538654
0000e0 01 71 a7 3e 3d e6 f9 3c 49 c7 3a 3c 56 7d 26 3e
       0.32703403 0.030505294 0.011400052 0.1625875
0000f0 e7 a5 09 be db da a6 3d ad 7f 87 bd df ee 0a be
       -0.13442193 0.08147212 -0.06616149 -0.13567685
000100 d7 79 f4 bb 20 95 06 3e 66 97 f9 bd 67 3d 91 3d
       -0.0074608135 0.13142824 -0.1218708 0.0709179
000110 44 5d 20 be 04 70 97 bd 89 79 8b 3e 0e 32 00 3e
       -0.15660578 -0.07394412 0.2724116 0.12519094
000120 72 19 e7 3d b1 bf 85 3e 37 72 b4 bd 98 c5 af 3d
       0.1128415 0.2612281 -0.08810847 0.0858261
000130 da 0c 8c 3d bc b2 3d be ac c2 37 be 6b b2 58 be
       0.06838389 -0.18525213 -0.17945355 -0.21161811
000140 f1 fb 32 3d 6d eb 2f be b3 b0 79 3e 4b 75 f4 3d
       0.0436973 -0.17179652 0.24383812 0.11936434
000150 39 a6 af 3d f8 18 f6 3d dd 04 1e be 37 f1 f6 3d
       0.08576626 0.12016481 -0.15431543 0.12057727
000160 5b fa c4 bd 2b 05 ba bd e9 02 eb 3d 6e 11 11 be
       -0.09618064 -0.09083017 0.114751644 -0.14166805
000170 4e c9 5d 3e 8a 5f 35 be 39 31 72 bc 7e ae c2 bd
       0.21658823 -0.17712227 -0.014782243 -0.09505938
000180 5a 29 ff 3d ae 1c ae 3d 89 dc 60 be 87 f1 b9 3c
       0.12459059 0.08501564 -0.21959127 0.022698177
000190 e9 c1 03 be 25 8f 8a bd af 40 cd 3c 98 88 d4 3d
       -0.1286694 -0.06765584 0.025055258 0.10377616
0001a0 9c ee fe 3d 24 ac 2d 3e 76 e5 23 be 0a 29 08 3e
       0.12447855 0.16960198 -0.16005501 0.13296905
0001b0 53 44 f2 3a 4d 4e 8e be 0e 00 72 3e 38 80 0f 3c
       0.0018483497 -0.27794114 0.23632833 0.008758597
0001c0 53 06 e6 3d 88 38 c4 3c e6 e4 10 3d d8 1e a9 3d
       0.11231675 0.023952737 0.035374545 0.08257836
0001d0 a3 80 1f be 98 4e 02 3e e7 22 7f 3d 20 87 81 3e
       -0.15576415 0.12725294 0.062289145 0.25298405
0001e0 b8 37 9b 3d 8b e9 99 3d 43 3d d7 3d de 9c 47 bd
       0.07578987 0.07515248 0.105097316 -0.048733585
0001f0 c5 19 12 bd b9 eb 45 3e 14 60 74 bd 09 0f f9 bd
       -0.035669107 0.19328202 -0.05966194 -0.12161071
000200 52 15 11 3d 28 ca 0b be 11 6c 69 bd 61 fe 52 bd
       0.035420723 -0.13651335 -0.056987826 -0.051512126
000210 08 07 c0 bd 22 64 55 bb 65 8c 1d 3e 0d 1d 27 3c
       -0.09376341 -0.0032560905 0.15385588 0.010199797
000220 f8 e8 11 be 3b 68 49 3c b7 81 d8 bd 19 16 9a 3d
       -0.14249027 0.012292917 -0.10571616 0.07523746
000230 74 bc eb 3d 72 93 08 be e1 ee 41 3e 5b 17 0c be
       0.11510554 -0.13337496 0.18938781 -0.13680784
000240 b4 88 fe bd da c1 11 be 88 37 1d be 2f d4 5b 3e
       -0.12428418 -0.14234105 -0.15353215 0.2146766
000250 b5 46 18 3d 81 83 fa bd ba 55 1e be 20 5b 92 3e
       0.037176806 -0.12232114 -0.1546239 0.28585148
000260 cb ad cc 3d 6f 8f d2 3d 95 a6 3e bd b2 3b 28 3e
       0.09994086 0.10281264 -0.046545584 0.16429022
000270 e0 e5 fa 3d f1 b0 68 3e ba d3 16 be ad c7 6d 3e
       0.122508764 0.22723748 -0.14729205 0.23220702
000280 59 fe b0 bd b7 a8 ba bd 54 89 f0 3c 44 d9 97 bd
       -0.08642263 -0.09114211 0.029362358 -0.07414487
000290 0d 3d a1 3d 6b 7a 03 3e fc 0b 44 be 10 1c 35 3b
       0.07872973 0.12839667 -0.19145197 0.0027635135
0002a0 95 9d 05 3d 4c d1 24 be 18 0f 12 3e 51 13 47 be
       0.032620985 -0.16095465 0.1426357 -0.19440962
0002b0 11 24 c7 3b 13 bd 28 be ee d2 88 3c 5c f8 1c 3e
       0.0060772975 -0.16478376 0.016702142 0.15329117
0002c0 5b b9 22 bc 0a 10 ec 3d ee ef 80 bc 7e a9 0d be
       -0.0099318875 0.11526497 -0.015739407 -0.13834187
0002d0 7b 73 b4 3d 30 6f 14 3d 16 1f 98 3d ee bb d7 bd
       0.08811089 0.03623885 0.07427804 -0.105338916
0002e0 a2 f1 53 be e2 d7 29 be 82 72 a8 3d 69 ef b5 3b
       -0.20697644 -0.16586259 0.08224966 0.0055522216
0002f0 7f 4a 83 3c aa f1 b9 bd 00 04 b0 bd b2 3f 5b 3d
       0.016026733 -0.09079297 -0.08594513 0.05352754
000300 51 66 04 3e 04 5f ba bd b7 62 d9 3d bf 3d 2b 3e
       0.12929656 -0.09100154 0.106145315 0.16722773
000310 84 e3 07 3e 40 b7 52 3e cc e4 53 3e c9 51 de bd
       0.13270384 0.20577717 0.20692748 -0.10855443
000320 68 1d 5e 3d 02 33 fc 3d 93 81 92 bc 6b 78 79 bc
       0.054227263 0.123144165 -0.017884051 -0.015226464
000330 cb c7 18 be 5a 41 b4 bd 11 21 bb 3d d9 b0 2e 3d
       -0.14919965 -0.08801527 0.09137166 0.042649124
000340 b7 0b e8 3d 7e e5 13 be 75 37 dd 3d 68 c6 0d 3e
       0.113303594 -0.14443013 0.10801593 0.13845217
000350 14 37 fd bd 8e e0 28 be 41 32 da bd f0 53 16 3e
       -0.12364021 -0.16491911 -0.106541164 0.14680457
000360 76 fe 9b bc 51 d6 9c 3c f0 33 01 be 9e 31 6e 3c
       -0.019042235 0.019145163 -0.12617469 0.014538197
000370 92 d9 7e 3d 54 c7 fb bd 98 95 b3 bd dc 60 cb 3d
       0.06221921 -0.12293878 -0.08768767 0.09930584
000380 78 d5 ca bd 49 51 69 3e 80 30 9f bc bf 45 2c 3e
       -0.09903997 0.22784914 -0.019432306 0.16823481
000390 6f 8d 9a 38 fd 97 39 3b 81 5b c6 bd 07 28 2d 3e
       7.369636e-05 0.0028319352 -0.09685422 0.169098
0003a0 19 d3 46 bd d8 3b 0a be 3d cf 54 3d 24 51 ea bd
       -0.048541162 -0.13499391 0.05195545 -0.114412576
0003b0 56 ee e5 bd 44 98 6b 3e 69 2d 20 3e 04 94 16 be
       -0.112270996 0.23007303 0.15642323 -0.14704901
0003c0 2c 89 fc bd 9b 20 96 3d f5 15 17 3e 2c 26 f8 3b
       -0.12330851 0.07330438 0.1475447 0.00757291
0003d0 cc 30 0d be 02 5d 02 3e e1 8e 0e be ff 59 81 be
       -0.13788146 0.12730792 -0.13921691 -0.25263974
0003e0 cd 3d bb 3d 95 76 05 be c6 30 58 3e 01 4c 91 3d
       0.09142647 -0.13033517 0.21112356 0.07094575
0003f0 92 dd ad 3d ba ea 99 3d 00 39 23 be aa 73 73 bd
       0.08489527 0.07515474 -0.15939713 -0.059436478

module.base.1.layers.3.weight f4 [128, 256]
000000 9a cd 4e 3d 14 87 e5 3d 60 cf d5 bd ab f3 5b 3e
       0.050489046 0.11207405 -0.10439944 0.2147967
000010 6e 4e 07 bd 19 35 98 bd 47 10 de bd a5 1c 2e bd
       -0.03303378 -0.074320026 -0.108429484 -0.042507786
000020 ed 4c 9b 3c 4d fa 56 bc 24 e8 71 3b c3 9c e7 3d
       0.01895758 -0.0131212 0.0036912048 0.11309197
000030 b8 52 dd bd b6 26 bf ba 9b 3b 5e 3d 02 a5 1a 3e
       -0.10806793 -0.001458368 0.054256063 0.15102008
000040 53 9b bc 3c 68 96 f6 3c b2 df 96 3d 53 26 4d 3b
       0.023023283 0.030101016 0.07366885 0.003130336
000050 17 3b df 3d c8 b6 77 bd 52 4b d5 b9 f2 5a b4 3d
       0.10899942 -0.06047705 -0.00040682644 0.08806409
000060 fa 4e 0b 3e 40 27 d2 bc 5c 25 74 3e 36 0d 01 3d
       0.13604346 -0.025653481 0.23842376 0.03150674
000070 03 86 97 3d 1f 7b 88 3d 27 43 85 3c 24 e4 1c bc
       0.073986076 0.066641085 0.016267372 -0.009575877
000080 40 e1 9c 3c ea f1 a4 bd d4 62 67 bc e9 d7 9d bc
       0.019150376 -0.08053954 -0.014122684 -0.019267993
000090 f4 a3 4e be 17 71 ef 3d c9 25 26 3e 2c 01 e4 bc
       -0.2017973 0.11691492 0.16225351 -0.02783259
0000a0 5e d9 0a bd 34 6c 0b 3b 5c 9d 1c 3d 7f b6 03 be
       -0.033898704 0.002127421 0.038236007 -0.12862585
0000b0 b1 65 9d 3d 2a 96 1e be 43 8b c0 3c ac 06 2f bd
       0.07685412 -0.1548697 0.023503905 -0.042730972
0000c0 e3 63 96 bd 52 a9 3e bd f6 38 f1 bb e8 9c 02 3c
       -0.07343271 -0.046548195 -0.0073615266 0.00797198
0000d0 53 0b e5 bd 12 d6 93 bb cb 39 98 3c e1 74 63 3d
       -0.111838005 -0.004511603 0.018582245 0.055531386
0000e0 ff 9e b4 bd 46 30 af bd 6b ce 35 bc 2d 35 c7 bd
       -0.088193886 -0.08554129 -0.011096577 -0.09726939
0000f0 4f 1f b6 bd d7 11 5a 3d 15 52 02 3d 13 d6 02 3d
       -0.088926904 0.05323967 0.03181656 0.03194244
000100 21 a2 45 bd d2 0b 23 bd 84 51 5c 3a a1 cc 06 bd
       -0.04825032 -0.039806195 0.0008404481 -0.032909993
000110 96 fb 1e 3d 04 9f cb 3c a0 9f 5e bd ff 3c a4 bc
       0.03881415 0.024856098 -0.05435145 -0.020048616
000120 b9 57 85 bd fd 9b 8f bc 9a dd 6e 3d ef 3b 4e 3c
       -0.065108724 -0.017530436 0.058316804 0.0125875315
000130 b9 0d e9 3c a1 5e 91 bc 82 3f 2e 3d cd 50 8f 3d
       0.028448926 -0.017745318 0.042541035 0.069978334
000140 b8 30 9c 3d de 28 25 3c 41 3d e6 bc 43 ab b4 bc
       0.0762648 0.010080544 -0.02810538 -0.02205432
000150 da fd 08 bd d8 fa 9a bd 68 4e 2b 3e c2 20 fb bd
       -0.033445217 -0.07567376 0.16729128 -0.122621074
000160 7d 02 52 3d 6e b3 8e bc 3f cc ef bd 04 c2 c0 3c
       0.051271904 -0.017419543 -0.11708879 0.023530014
000170 0a f0 47 be 58 dd 80 3c 96 56 91 3d 39 d2 5e bd
       -0.19525161 0.015730545 0.07096593 -0.054399703
000180 c2 f6 e7 bc fa aa ec bd ba f1 02 3e 1e 40 2b bd
       -0.028315905 -0.11556049 0.12787524 -0.041809194
000190 f5 cf 0c 3d b6 ec a6 3d a8 66 a7 bc 2a 91 9a 3c
       0.03437801 0.08150618 -0.020434693 0.018868048
0001a0 ba 74 b8 bd b0 8f a9 3d 22 44 00 3e 66 60 ed 3b
       -0.09006639 0.08279359 0.1252599 0.0072441576
0001b0 16 98 3e 3c 01 77 40 3e 51 86 f4 bc e1 2e 1e 3d
       0.01163294 0.18795396 -0.029849203 0.038618926
0001c0 c6 de bb 3c e8 3b a1 ba 64 92 ee bd 9e 32 24 3d
       0.022933375 -0.0012301179 -0.116490155 0.040087335
0001d0 3e f7 e7 bc 58 fb c0 bc 8f 4e e6 bc 42 72 ad bd
       -0.028316136 -0.02355735 -0.028113632 -0.084690586
0001e0 ca 7d 19 be 69 d6 ef bd 67 44 52 3c 43 d7 f8 3a
       -0.14989391 -0.11710817 0.012833691 0.0018985051
0001f0 82 71 38 3e 80 b9 d2 bd 38 48 88 bc 62 de f7 bb
       0.1801205 -0.102892876 -0.016636 -0.007564352
000200 6c ad 3a 3c 29 6f b9 3d 81 59 40 bd b4 fa a5 bd
       0.011393886 0.09054405 -0.046960358 -0.081044585
000210 52 c1 a4 ba 35 d1 6a 3d 13 0a 21 3c 38 64 59 bd
       -0.0012569821 0.05732842 0.009829062 -0.05307409
000220 40 1d 7e 3d 56 55 0e 3d 27 01 57 3d 4c 6f ab bc
       0.062039614 0.03474935 0.052491333 -0.020927094
000230 be 50 d1 bd 52 1f 36 bd 2b cb d1 bc 53 c0 05 3d
       -0.102204785 -0.044463463 -0.025609573 0.032654118
000240 50 bc a1 bb 62 11 a6 3d d1 f8 bd ba be 5f 64 3b
       -0.0049357787 0.08108784 -0.0014493709 0.0034847106
000250 b1 8e f1 3c 7a 78 c1 bd 08 06 2a 3e 12 4e 69 bd
       0.029486986 -0.09446807 0.16603863 -0.05695922
000260 6a 13 ca bd cf fa 90 bd dc 81 9d 3d e4 51 c0 3c
       -0.09866984 -0.07079088 0.07690784 0.023476548
000270 d1 95 66 3d c8 e9 19 be a2 b8 e1 3c 0e 0a eb bd
       0.05629522 -0.15030587 0.02755386 -0.11476527
000280 73 20 4d 3e fe e1 58 3d fb 0d 3e bd 65 5b 74 3d
       0.2003191 0.052949898 -0.04640005 0.059657473
000290 7a 41 1b 3c f9 58 86 bc 9b ca 54 3e 8a 6f c0 bc
       0.00947606 -0.016399847 0.20780413 -0.023490686
0002a0 6a 51 29 3e ec 3b 98 3d f7 89 06 bd f6 d5 01 3d
       0.16534963 0.07433304 -0.032846417 0.03169819
0002b0 b7 49 8a 3d a3 f1 5c 3d 9e 73 1b 3d ec 35 40 3a
       0.06752341 0.05394138 0.037952058 0.0007332254
0002c0 f9 1c 46 3d 22 8a 96 bd 4f 05 d6 3d fd 46 b9 bc
       0.048367474 -0.073505655 0.10450231 -0.022616858
0002d0 e7 77 29 bd 11 07 9f 3d 8f 23 c3 3c 37 52 8f 3d
       -0.041374113 0.0776502 0.023820667 0.06998103
0002e0 a8 38 15 3e bd ad da bc ac 0b c8 bd 3c ed ee bd
       0.14572394 -0.026694173 -0.09767851 -0.116663426
0002f0 5d 1c d2 bd e9 29 1d be a3 cb ec 3d 00 5f d8 bd
       -0.10259316 -0.15348019 0.11562278 -0.10564995
000300 1d 04 0f bd df 18 22 bc 89 90 92 bc ee fc 8f bc
       -0.034916032 -0.009893625 -0.017891185 -0.017576661
000310 9f d8 5e 3c c9 e7 e8 bd 65 1e 9a bd 15 6b 81 3d
       0.013601451 -0.113723345 -0.075253285 0.063192524
000320 74 00 b6 3c 2b 24 cb 3c 52 95 54 3c bf 3e 07 bd
       0.022217013 0.02479752 0.012975054 -0.033018824
000330 39 0c dc 3d 2d 81 f6 bc df 86 39 3c d4 40 64 3d
       0.10744519 -0.030090893 0.01132366 0.055725887
000340 d0 ee 29 bd e2 89 33 3e 40 6d 93 bd 1e c8 c0 bd
       -0.041487515 0.17533067 -0.07198572 -0.09413169
000350 ee 18 3d 3d ea 3e 3e 3b 92 3c 05 bd c9 5a f6 bb
       0.046166353 0.00290292 -0.032528467 -0.0075181467
000360 e2 a2 b6 3c e7 06 16 be 19 3f 7f bc 4f a0 16 bd
       0.022294465 -0.1465107 -0.0155790085 -0.036773976
000370 2e f9 d1 bd d9 6b da 3d c2 ac f9 3c 1b 14 8a 3c
       -0.102526054 0.106651016 0.030477885 0.01685529
000380 01 5f f7 bc 83 2b f0 bd 2d 1e 8c bd 9f e1 c5 3c
       -0.030196669 -0.11727049 -0.06841693 0.024155436
000390 73 09 ae 3d bd de d0 3b 22 37 05 3e 38 40 a7 bd
       0.08497896 0.0063742087 0.13009313 -0.08166546
0003a0 e7 2c c2 bd 55 f4 96 bb ab c8 92 bd 7b 8d 6d 3d
       -0.09481221 -0.0046067634 -0.07167181 0.057996254
0003b0 b6 ec b3 bc e6 fe 4e bd 9b 0f c2 bd e0 58 8e bc
       -0.021963459 -0.05053606 -0.09475633 -0.017376363
0003c0 9d e3 ee 3c 84 27 b7 3d b3 54 b3 bd 12 9b bc 3d
       0.029161269 0.08943084 -0.087563895 0.09209265
0003d0 8f 1d 36 3e 2b 5e a2 3b ca 55 c0 bc 7d f7 f6 3d
       0.17784713 0.0049550734 -0.023478407 0.120589234
0003e0 1a dc 8a bb e6 e7 49 3d 9f 1c 48 bc 61 52 9f bd
       -0.004237664 0.04929342 -0.012213855 -0.077793844
0003f0 7f ca 40 3d 58 19 2b bd 15 32 1f 3e dc 67 79 bd
       0.047068115 -0.041772217 0.15546449 -0.060890064

module.base.1.layers.3.bias f4 [128]
000000 04 69 c9 bd 31 8d a7 3c 95 bd 11 be 42 86 0f bd
       -0.09834483 0.020453067 -0.14232476 -0.035040148
000010 1f bc 81 bd 55 aa 17 be dc 58 09 be 45 af 0b be
       -0.063347094 -0.1481107 -0.13412803 -0.13641079
000020 30 9d f7 bd c7 91 57 be 07 e3 2a be c3 0a b4 ba
       -0.12090528 -0.21051703 -0.16688167 -0.0013736117
000030 32 92 81 bc d2 dd 80 3d 02 38 ae 3d 53 1b 56 3e
       -0.015816782 0.06292309 0.085067764 0.20908861
000040 e8 77 09 3e 2d 5c 49 3d 66 b1 12 be 38 9f 8e 3d
       0.13424647 0.04916017 -0.14325485 0.06963962
000050 ad 67 ac bd 11 d1 10 be d2 0b e4 3c 45 ec 47 be
       -0.08418212 -0.14142253 0.027837668 -0.19523723
000060 58 cd f1 3c b5 51 5b be 3a 79 13 bd d0 d8 2e be
       0.02951686 -0.21417888 -0.036004283 -0.17074895
000070 a1 b7 02 3e ea 95 43 bd be 67 0b be 45 b1 d7 3d
       0.12765361 -0.04775039 -0.13613793 0.10531858
000080 dc 03 01 be 31 31 44 3e 83 8f 77 3c 02 17 ac 3c
       -0.12599128 0.1915939 0.015109899 0.021007065
000090 00 9d a1 3b a9 64 13 3e b2 99 a5 bd 80 b2 c6 bd
       0.004932046 0.14393868 -0.08085956 -0.09702015
0000a0 57 bd a5 bc 5d 91 5d bd 10 d3 5d bd 25 69 50 bc
       -0.020231886 -0.054093707 -0.054156363 -0.012720381
0000b0 fc 6c 6a 3d 9e 29 3b 3c 8e c8 1e 3d 75 fd eb 3b
       0.05723284 0.0114234965 0.038765483 0.0072018453
0000c0 21 fa 18 be 9c 2d 24 be b4 a5 2f be 98 c2 18 be
       -0.14939167 -0.16033024 -0.17153054 -0.14917982
0000d0 ee 7b d5 3d 50 ac 7c bd a2 f3 26 be a0 49 f0 bd
       0.10424028 -0.061687768 -0.16303876 -0.11732793
0000e0 40 bb e1 bc 2f e9 42 3e 57 10 0c bd b9 bd 1b 3d
       -0.027555108 0.19034265 -0.03419527 0.03802273
0000f0 f2 fc a8 bc b4 14 3a be 5e 96 3a be 47 f2 e3 bd
       -0.020628426 -0.1817196 -0.18221423 -0.11130195
000100 c5 85 fb bc d6 a9 b8 be 28 c5 40 3e f9 4f 2f 3e
       -0.030703435 -0.36067075 0.18825209 0.17120351
000110 fa 39 51 be 38 c7 36 be ce b4 c0 3d 4a 07 af bd
       -0.20432273 -0.17849433 0.09409486 -0.08546312
000120 94 e5 6d bd 2f c7 29 3d 36 0d 63 be c2 de 2d be
       -0.05808027 0.041449722 -0.22173008 -0.16979507
000130 3b 24 25 bb 71 1e df bc 45 f0 13 bd 41 74 9a 3d
       -0.0025198597 -0.027236195 -0.03611781 0.07541705
000140 da 65 9d be 4e 37 fd bd 6e 61 9f bd e9 53 4a 3d
       -0.3074177 -0.12364064 -0.07782255 0.04939643
000150 aa 95 8b bd 6f b6 f1 bd 04 e1 8a bd 1a d0 1f 3d
       -0.068156555 -0.118023746 -0.067811996 0.03901682
000160 f5 12 8c be 01 1e 0f be 20 2f 16 3d dc b3 34 be
       -0.27358213 -0.1397629 0.036666036 -0.17646736
000170 9c 42 c3 bd 60 85 eb bd d5 77 85 bd 14 41 83 bd
       -0.09534189 -0.11500049 -0.06516997 -0.06408897
000180 60 82 08 be e4 c2 09 3d 0d 55 83 bd 6f 24 1e ba
       -0.13330984 0.033633128 -0.064127065 -0.00060326507
000190 6c f3 b8 3d 4e 97 1a 3d 88 d4 2b be 77 41 53 3d
       0.09030804 0.03774195 -0.16780293 0.051576104
0001a0 ed a0 3b 3d d8 da f1 bd 67 42 10 3d 7c 36 31 3d
       0.045807768 -0.11809319 0.035219576 0.04326485
0001b0 00 c3 ed bd 7e b1 23 be 82 46 9b bd d0 df 29 be
       -0.11609459 -0.15985677 -0.07581808 -0.16589284
0001c0 3e b4 a0 bc 9b 3c 84 3d 2a 3d 83 3d 7e ec 2f be
       -0.019617196 0.06456872 0.064081505 -0.17180058
0001d0 39 69 b0 bc 10 3d 32 bd 15 33 56 be cc 1e 94 bd
       -0.02153455 -0.043515265 -0.20917924 -0.072324365
0001e0 9c b0 90 bc 70 d8 4f 3d 2f de bf 3d 46 28 ab be
       -0.017662339 0.05074352 0.0936855 -0.33429164
0001f0 d2 33 22 be 93 d1 b2 bd 6c 6a 1d be dd 64 42 3d
       -0.1584008 -0.08731379 -0.15372628 0.047459472

module.base.1.layers.5.weight f4 [128]
000000 9d 93 66 3f 6c 96 8e 3f c6 f7 4c 3f ad f5 5f 3f
       0.9006899 1.1139655 0.8006557 0.87484246
000010 bd 0e 87 3f 02 18 94 3f 4b 86 b1 3f 80 bd 75 3f
       1.0551373 1.1569827 1.3869108 0.9599228
000020 48 b6 97 3f 06 37 76 3f 5e 02 98 3f 4e e2 94 3f
       1.1852503 0.9617771 1.1875722 1.1631563
000030 5d d3 ab 3f ea 8d 8b 3f 6a 86 9e 3f ab f0 86 3f
       1.3423878 1.0902684 1.238477 1.0542196
000040 68 cd 74 3f 92 e2 b5 3f 23 7f 6d 3f 0b 42 a2 3f
       0.95625925 1.4209769 0.9277212 1.2676405
000050 72 df 7d 3f f5 ce 68 3f 56 bd a5 3f cb 87 6b 3f
       0.99169075 0.9094079 1.2948406 0.9200408
000060 5d 2a ac 3f 45 33 88 3f 57 02 87 3f 34 d7 8d 3f
       1.3450428 1.0640646 1.0547589 1.10813
000070 fd 7e 65 3f 6b 0e 93 3f ab a0 78 3f b7 c9 52 3f
       0.89646894 1.1488775 0.9712016 0.8233904
000080 46 c0 b3 3f e8 66 98 3f e4 f5 c7 3f dc 56 8a 3f
       1.4043052 1.1906404 1.5621915 1.0807757
000090 e1 e1 b6 3f e3 f4 ac 3f 31 43 52 3f f6 2b 43 3f
       1.4287683 1.3512233 0.82133776 0.76238954
0000a0 b0 fe a9 3f 04 fc 9e 3f d8 d5 a6 3f 79 a1 b3 3f
       1.328085 1.2420659 1.303401 1.4033653
0000b0 83 fb 95 3f c9 04 63 3f cf 0f a3 3f 63 16 a4 3f
       1.171738 0.88679177 1.2739199 1.2819332
0000c0 02 98 55 3f 8b a2 6d 3f 49 79 29 3f 6e 2d 8c 3f
       0.8343507 0.92826146 0.6620069 1.0951364
0000d0 c7 02 a2 3f e6 e0 b2 3f 16 bd 8d 3f c6 94 86 3f
       1.2657098 1.3974884 1.107333 1.0514152
0000e0 cf 3b 5e 3f c4 1a 85 3f 70 fc ac 3f 6c 65 87 3f
       0.8681001 1.0398793 1.3514538 1.0577826
0000f0 9b fd c3 3f f2 39 51 3f b6 a9 68 3f 94 52 9c 3f
       1.5311769 0.8172904 0.9088396 1.2212701
000100 f9 d2 b0 3f ab 65 60 3f 65 98 86 3f b1 c3 80 3f
       1.3814384 0.87655133 1.0515257 1.005972
000110 e6 b7 83 3f e9 40 31 3f f8 4d 93 3f 29 07 6e 3f
       1.0290496 0.6923967 1.1508169 0.92979676
000120 eb 0c a8 3f 1a 3d b1 3f 04 0f 54 3f 25 31 82 3f
       1.3128942 1.3846772 0.8283541 1.0171248
000130 a5 85 b2 3f 60 d8 88 3f 59 f0 a0 3f c7 c6 c6 3f
       1.3947035 1.0691032 1.2573348 1.5529412
000140 30 c2 a3 3f 10 a8 a3 3f 1b 55 97 3f 87 55 61 3f
       1.2793636 1.2785664 1.1822847 0.8802113
000150 0d ac b1 3f eb 70 65 3f d9 09 bf 3f 1d 90 92 3f
       1.3880631 0.89625424 1.492488 1.145023
000160 e1 49 5e 3f 93 da 8e 3f c3 97 ad 3f 38 45 4f 3f
       0.8683148 1.1160454 1.3561939 0.80964994
000170 9f 96 a8 3f 93 82 88 3f dd 39 3b 3f b4 b6 5f 3f
       1.3170966 1.0664848 0.7313517 0.8738816
000180 ea 46 af 3f 08 c0 96 3f 44 0a 8e 3f 03 e4 a2 3f
       1.3693516 1.1777353 1.1096883 1.2725834
000190 07 60 86 3f 4d 3b 94 3f 8b 6f 86 3f d8 da a2 3f
       1.0498055 1.1580597 1.050279 1.2723036
0001a0 5b 98 8d 3f 47 a4 a7 3f d7 39 a1 3f e4 2f 89 3f
       1.106212 1.3097008 1.2595776 1.071774
0001b0 47 87 7f 3f fc 84 5e 3f 02 63 8a 3f 6f 7f 96 3f
       0.9981579 0.8692167 1.0811465 1.175764
0001c0 3c 80 a2 3f 01 ea 75 3f 66 9d 89 3f 79 f6 96 3f
       1.2695384 0.96060187 1.0751159 1.1793967
0001d0 39 49 a8 3f 5b b9 85 3f 25 20 3e 3f 53 00 9e 3f
       1.3147346 1.0447191 0.742678 1.2343849
0001e0 25 e1 b3 3f 56 82 a3 3f 6b eb b4 3f 44 84 65 3f
       1.4053084 1.277415 1.4134344 0.89654946
0001f0 a0 0e 90 3f b8 0c 48 3f 23 39 88 3f 5b 2a 91 3f
       1.1254463 0.7814441 1.0642437 1.1341051

module.base.1.layers.5.bias f4 [128]
000000 1a 56 1d bd f7 4a bc bc ab 59 30 bc f8 e1 e3 3d
       -0.03841219 -0.022984965 -0.010763566 0.111270845
000010 4e 80 33 be cc 7a 82 be 1b 18 cb be 48 2f b4 bd
       -0.17529413 -0.25484312 -0.3966683 -0.08798081
000020 f5 36 91 be 15 77 d7 3d f4 92 a9 be fb fc 0f be
       -0.2836224 0.1052076 -0.3311993 -0.14061348
000030 d6 ef 2e bb 20 8e b3 3d 7d b0 3e 3e eb 37 d0 3e
       -0.0026693246 0.087673426 0.18622012 0.40667662
000040 a8 ac 27 3e b1 6b 25 3e 17 e4 2e 3d ae 9b 33 3e
       0.16374457 0.16154362 0.042697992 0.17539856
000050 9d f4 f1 3d 31 77 42 bd 1d 6c 1f 3d 5f 77 35 3c
       0.118142344 -0.04747695 0.038921464 0.011075824
000060 8c c9 ff bd cb 75 05 be 81 3c 17 bd 3e 67 89 bb
       -0.12489614 -0.13033216 -0.036922935 -0.0041932156
000070 3f 77 aa 3e 56 8a 0c be f1 4f 63 be 5f 3d 85 3e
       0.33294103 -0.13724646 -0.22198464 0.26023385
000080 ae 31 9b be 0e ff 4d bc 9e 84 de 3d 1e 3a 1e 3e
       -0.3031134 -0.012573017 0.108651385 0.15451857
000090 77 4e 99 be 30 01 ab 3e d5 12 b7 bc 80 bc 94 bd
       -0.29942676 0.33399343 -0.022347847 -0.07262516
0000a0 1d 8d f3 bc 86 76 9b bd 51 43 12 bc b1 f4 82 3d
       -0.029730374 -0.07590966 -0.008927182 0.063943274
0000b0 0e 8c 32 3c 52 30 5b 3d df 82 22 3e 3d f0 c0 bd
       0.010897649 0.05351288 0.15870236 -0.09420822
0000c0 43 85 a8 bd 20 1c 26 3e 68 3e 8d bc 4e ae bb bd
       -0.08228543 0.16221666 -0.017241672 -0.09164105
0000d0 b9 24 c9 bb 75 29 08 3d f4 8d db bd b6 50 0e 3e
       -0.006138411 0.03324266 -0.10720435 0.13897976
0000e0 56 d5 06 3e d9 1e 85 3e 0f cf 31 be 43 71 8e 3d
       0.13167319 0.26000097 -0.17364143 0.06955197
0000f0 4a 62 50 3d 62 4b 7b be 56 94 16 be 8b cf 47 bd
       0.050874986 -0.24540475 -0.14705023 -0.048781913
000100 ea f4 e2 3c 9e 32 b5 bc 5f 7c 82 3e 04 e6 66 3e
       0.027704675 -0.022118863 0.25485513 0.22548681
000110 ed 1e 94 be cb d1 98 3d a5 1b 82 bd 8c 40 59 3d
       -0.28929844 0.0746189 -0.06352929 0.053040072
000120 db c9 02 be 68 a2 6b be f0 6c 8d bd 19 73 d8 bc
       -0.12772314 -0.23011172 -0.06905544 -0.02642207
000130 4a 27 81 be b5 89 83 bc f6 c4 57 bc e8 94 07 3e
       -0.25225288 -0.016056875 -0.013169518 0.13240397
000140 c3 d7 99 be 0b 18 5a be 9c 40 a1 bc f4 85 9f 3e
       -0.30047426 -0.21298234 -0.019684128 0.31156886
000150 5e a0 5c 3e 5d 39 b2 bc 12 93 02 be c5 42 80 3e
       0.2154555 -0.021755869 -0.12751415 0.2505094
000160 65 af 47 be 09 d0 75 3d 6a 57 43 be bc 60 8c bd
       -0.19500501 0.06001285 -0.19076315 -0.06854388
000170 70 a5 60 be 09 53 a3 bd d3 2c b1 bc fb ab c3 bd
       -0.2193811 -0.07974822 -0.02162782 -0.09554287
000180 ad 96 14 3b 95 0a ea 3c da 77 8a bd 06 26 37 be
       0.0022672818 0.028569499 -0.06761141 -0.17885599
000190 fd 9b e2 3d 0e 5f 9f 3d 4f 13 82 bd 23 c8 2f 3e
       0.11064909 0.07781802 -0.06351339 0.1716619
0001a0 0e 10 c7 3d 2a 96 76 be bc 9c 34 3e 0d bd 99 3c
       0.09719859 -0.2408072 0.17637914 0.018766904
0001b0 69 55 a5 3c c7 56 89 bd a8 2f 53 bd 93 dd 34 be
       0.020182328 -0.067060046 -0.05155912 -0.17662649
0001c0 7e 9c 07 be 07 40 1c 3d 45 05 26 3d e1 c1 a9 bd
       -0.13243291 0.038147 0.04053237 -0.082889326
0001d0 da 15 21 be 4b 1f 91 bc 83 0d 51 3e 6c 00 0b be
       -0.15730992 -0.017715117 0.2041531 -0.1357438
0001e0 4e 03 3e be cd e7 cc bc 13 61 89 3d ef 78 17 3d
       -0.18555948 -0.025012875 0.067079686 0.036980566
0001f0 20 74 d4 bd a2 e1 98 3d 31 33 7d be 77 ce 97 3c
       -0.103737116 0.07464911 -0.24726559 0.018531067
