scripts/shell/hier/checkpoint_att_hover_2.pt (torch, 477859 bytes, 32 tensors)

module.base.0.weight f4 [26]
00000000: 1ddc 853f 3af6 853f c266 853f 1962 7c3f
00000010: 1be8 853f 6653 823f feb0 843f eddf 793f
00000020: 049e 783f 290d 573f 0a5b 3f3f ec5c 543f
00000030: af76 823f f9f5 7a3f f00e 813f 2f58 8a3f
00000040: 7c0d 873f f896 8a3f e8e0 823f da5f 4d3f
00000050: b53c 343f c89c 353f e696 483f 62e6 883f
00000060: 3d2c 7d3f b61c 8a3f
1.0457798 1.0465767 1.0421984 0.98587185 1.0461458 1.0181701 1.0366514 0.9760731
0.9711611 0.84004456 0.7474829 0.8295429 1.0192469 0.98031574 1.0082684 1.0808161
1.055099 1.0827322 1.0224886 0.8022438 0.7040513 0.70942354 0.7835525 1.0695307
0.9889563 1.0790012

module.base.0.bias f4 [26]
00000000: 9dc3 ca3c cc8a 9bbc 696d c73b a65d 73bd
00000010: 17ec 683c 3ede 603c caa7 d93c 11fd 823c
00000020: e382 74bc cf1e 83bc 3181 973d d5ab 203c
00000030: e3ac d63c 6f2f 5abd 7512 0a3d a7d8 9e3c
00000040: 9ebc 1fbc 6d29 053b 6beb 2ebd 9ab1 6dbc
00000050: 89f4 203d c236 e3bb 4366 933a 9ffb 4a3d
00000060: 020f 5e3d fe17 473c
0.024751479 -0.018987082 0.0060860408 -0.059415482 0.014216444 0.013724862 0.026569266 0.015989812
-0.014923784 -0.016005902 0.07397688 0.009806593 0.026205486 -0.053267892 0.03370901 0.019390417
-0.00974956 0.002031888 -0.04270498 -0.014507676 0.039295707 -0.006934018 0.0011245686 0.04955637
0.05421353 0.012151716

module.base.1.layers.0.weight f4 [256, 26]
00000000: 67ce 47be 111d 3d3c 7cb7 a53d f8c2 f4bd
00000010: a87b 22be 6059 a3bd d9c3 91bd 534b 9fbd
00000020: db1c 1e3e fe23 003e fb95 903d 8458 fd3c
00000030: 6c15 813d 8052 bd3d f0b5 f73d 35ac aebd
00000040: a51d 83bd b604 3d3e 0b4b 043e eed3 58be
00000050: 5c8a 873d 3a5a b73d 4084 9f3d c877 783d
00000060: 887d 0c3e 4f41 37be 0322 913d 0810 99bd
00000070: 758a 4abe 3df6 71bc d7ae bebd b141 29be
00000080: 9aef 12bb 82bf 22be 0a6e 5ebe 445e 1abe
00000090: 5a05 213d 8fe3 bfbd caf7 eb3d dba2 8bbd
000000a0: 09c7 943d 611a 47bd bb2a 04bd 109f 993d
000000b0: 7e5d 87bd f129 81bd dabd cabd 4049 cc3d
000000c0: 3391 febd 16e4 243e a43b a53d a23b 233e
000000d0: 70a4 223d c072 83ba 24f6 9fbd c38b 403d
000000e0: 590e 36be 0353 6fbd 9cfb 04be e2e1 2a3c
000000f0: cc50 2f3e 7014 00be 6ff7 883d ec1d 51bd
00000100: 8907 2d3e f294 2e3c 353e 8fbd a9dc cd3c
00000110: a47d 3a3c 56d6 173e 6486 543b 2473 53bd
00000120: 2202 6cbc 9b59 ac3b 34ad 043e 84e7 e4bd
00000130: f986 02bd 4234 2dbd 9983 203e 9b83 523d
00000140: cce6 013e d93e 183e 7fe1 ddbd f57b 8cbd
00000150: 5ca4 1ebe 0583 c23d ca7a 343e 342e 313e
00000160: c8ee 1bbd 805d 123d 7672 7b3d 37e3 40be
00000170: ba74 9e3c 743a 59bd 72e7 ddbd 2dc0 21be
00000180: 7e3f 40bd c6a1 133e 0abf 18be c979 193e
00000190: 2b6b 653c f222 bebd f5a0 213e 510c 24be
000001a0: caab 13be c06d 18bd afaa b33d 6860 b8bd
000001b0: f322 4abe 6a53 3e3e 7e8d a2bd 4eb8 fc3d
000001c0: 0d93 8c3d c193 2cbd 1a25 27be d5b5 1e3e
000001d0: 752d 52be 2174 2cbc 91a0 f4bc 714b 78bc
000001e0: 549b dcbd 1278 253e 1ea5 ae3d 7d45 043c
000001f0: 943e ecbd e343 4ebc 0ad1 863d bd15 833d
00000200: 0071 9e3d 0c4f 453e 4571 133e dbc1 4dbe
00000210: 3c4b d9bd a44a dabd 0632 84bd f24f 043e
00000220: c264 473e 6210 813b 5b32 dcbc b616 0f3e
00000230: 8011 1b3d efa5 f23b 30e7 093e 5149 c3bd
00000240: 4a96 da3c 7c0a 4cbe d472 d4bc 9d63 863d
00000250: 7102 3c3e 2674 08be 2635 063e 96be a83d
00000260: 1435 1c3e 320c a23d 9d27 b8bd 86c7 01be
00000270: 2575 373e 98f9 cd3d aaa5 2dbe 5db5 443d
00000280: 31c0 92bc c06d 04bd f4e2 413e e84c 09bd
00000290: 15a5 26bd d2c0 db3d bbfa b63d 0eb2 52bd
000002a0: fe7c 073d 70a2 f03d c52a 0fbe 4217 063e
000002b0: 11ea 22bd 8b8c 3fbe 680c 273e 0223 1e3e
000002c0: 212a e03d 9b03 01be a4bd b6bd 8a97 263e
000002d0: cc3f 37bc e440 afbd 1014 a33d 8ddc 3f3e
000002e0: c3f4 fdbd e4d4 163e f0af 90bd e836 043d
000002f0: 50d9 d93d 4768 17be 8d9e 683d 1371 b53d
00000300: 1c24 2e3d e41f 2dbe 6c28 f63d 8b75 bcbd
00000310: b451 cfbd ddd7 25be 696e fa3d 481d 3ebe
00000320: 48ae e1bd 9bca fabd a560 eb3d 8a25 25be
00000330: 0da1 02bd 2bcd 8e3d 25fd b8bd 28c7 1cbe
00000340: a7f1 9cbd feae 1bbe 6b70 9fbc 01eb 95bd
00000350: ae63 1a3e 426d a3bd 7d94 5e3d 11a4 f3bd
00000360: 66ed 52bd ebf6 04be 3557 15be aa2b 493b
00000370: 7088 e23d ab5f 1d3e 8e9b 6bbd 2180 3f3d
00000380: 13ec 89bd 4eb9 8e3e 04e8 c63d ee1e fd3d
00000390: 9025 56bd 581c 68bd ca1d 30be ebdc ad3d
000003a0: 54e5 d7bd aeca 24bd 6060 29be e9ef 793d
000003b0: 15d9 833d 554c ec3d 9beb 053d 3457 c9bd
000003c0: de4b 9e3d c4f7 5bbd d381 c7bd 2a75 983d
000003d0: 1f7b d33d a21e e33d fec8 533d 125d 26be
000003e0: 695e b53d 5197 0d3e 6610 f23d bf99 1abe
000003f0: e518 0cbe a0d4 41bb 8bb3 c23c 7178 04be
-0.1951233 0.0115425745 0.080916375 -0.1195125 -0.15867484 -0.07976031 -0.07117433 -0.07778039
0.15440695 0.1251373 0.070598565 0.030925997 0.06302914 0.09244251 0.12095249 -0.0852894
-0.064021386 0.18458828 0.12919252 -0.21174595 0.06618187 0.08952756 0.077888966 0.060661107
0.13719761 -0.17896007 0.07086565 -0.07473761 -0.1977938 -0.01476818 -0.09310692 -0.16528966
-0.0022420646 -0.15893367 -0.21721664 -0.15075022 0.039311744 -0.09369575 0.115218714 -0.068181716
0.072645254 -0.04860914 -0.032267313 0.07501042 -0.06609629 -0.06306828 -0.098994926 0.09974909
-0.12430038 0.16102633 0.08068016 0.15940717 0.0397076 -0.0010028705 -0.078106195 0.047008287
-0.1777891 -0.058428776 -0.12986606 0.010429831 0.17120665 -0.12507796 0.06687819 -0.051053926
0.16897406 0.0106556285 -0.06994287 0.025129633 0.011382494 0.14827856 0.0032428736 -0.05162348
-0.014404805 0.0052597052 0.12956697 -0.111769706 -0.031867 -0.042286165 0.156752 0.05139504
0.12685698 0.14867724 -0.108340256 -0.068595804 -0.15492386 0.09497646 0.17624965 0.17302781
-0.038069516 0.0357337 0.061388455 -0.18836676 0.019342769 -0.05303426 -0.1083516 -0.15795965
-0.04693555 0.1441718 -0.14916626 0.14987864 0.014002602 -0.09284009 0.15784056 -0.16020323
-0.14421001 -0.03721404 0.0877279 -0.09002763 -0.19739895 0.18586507 -0.07937144 0.12339841
0.06863985 -0.042133097 -0.16322747 0.15499051 -0.20525153 -0.010525734 -0.02986172 -0.015154705
-0.10771814 0.16159084 0.08527587 0.008073208 -0.11535373 -0.012589428 0.0658284 0.064006306
0.07736397 0.19268435 0.14398678 -0.20093481 -0.10610053 -0.10658768 -0.06454854 0.12921122
0.1947203 0.0039387206 -0.02687948 0.13973507 0.037858486 0.0074050347 0.13467097 -0.09535468
0.026682992 -0.19925874 -0.02593366 0.065619685 0.18360306 -0.13325557 0.13106212 0.082394764
0.15254623 0.07912482 -0.08991931 -0.12673768 0.17915781 0.10057372 -0.16957727 0.048024524
-0.01791391 -0.03233123 0.18934232 -0.03352061 -0.04068478 0.10730137 0.08934542 -0.051439337
0.033078186 0.117497325 -0.13981159 0.1309481 -0.039774004 -0.18705957 0.16313326 0.15443042
0.109455355 -0.12599032 -0.0892289 0.16268745 -0.011184644 -0.08557299 0.07962811 0.18736477
-0.124002 0.14729649 -0.070648074 0.032278925 0.10637152 -0.14785872 0.05679183 0.08859458
0.042514905 -0.16906697 0.120194286 -0.09202107 -0.101230055 -0.16195627 0.1222809 -0.18565857
-0.1101957 -0.12245675 0.11493043 -0.16127601 -0.03189187 0.069727264 -0.090326585 -0.15310347
-0.07663279 -0.15203473 -0.019462785 -0.07320214 0.15077087 -0.07979824 0.05434083 -0.118965276
-0.051495932 -0.12984817 -0.14584048 0.0030696192 0.1106118 0.15368526 -0.057521395 0.046753053
-0.06734481 0.2787575 0.09712222 0.12359415 -0.052281916 -0.056667656 -0.17198864 0.084894024
-0.10541788 -0.040232353 -0.1654067 0.06101981 0.064378895 0.11537997 0.032695394 -0.09831086
0.07729314 -0.053703085 -0.09741559 0.07444222 0.10326218 0.11089827 0.051705353 -0.16246441
0.08855898 0.13827254 0.11819534 -0.15097712 -0.13681372 -0.0029576197 0.023767253 -0.1293657

module.base.1.layers.0.bias f4 [256]
00000000: da0d 32bb 2c47 873d 154e 833d b9dd d33d
00000010: 19c6 02be 8869 0cbe a355 21be 1543 253e
00000020: 9050 093e b07a 1ebd 5369 093e ede4 c13d
00000030: 2a0b f73d f795 b73d c6b8 473d 6c6c 8e3d
00000040: 4ddb 69bd 7bc1 4b3e fc8b 3cbd f61e 19be
00000050: 3a6c 363e 3fd5 e03d 2c18 45be b788 333e
00000060: e3b8 903d 0636 0cbe d4b6 debc 8e03 3fbe
00000070: 5735 53bd f5de 3f3d 856d d1bd b442 533e
00000080: 9453 8abd 8b40 043e 901b d83d f4bc 463e
00000090: 312c 17be 9741 03be b7f1 a2bc e651 053e
000000a0: 38d3 c13b 7686 fa3d ba6f a53d 1ca6 233e
000000b0: 3f7f 9dbd 6878 ef3d 6d54 3bbe 00f7 f83c
000000c0: ea05 c3bd f3df 82bc 37fa 00be c8c8 e63b
000000d0: 19e6 32be c090 b7bd fa74 2ebe 45a4 26be
000000e0: 74c6 1e3e 5d08 66bd 9820 ccbd 8379 0abd
000000f0: 573d bf3d 88c5 773c 2602 033d 9aa7 eb3d
00000100: 1faf 4a3e f56f 4cbe 800d b8bd 0565 c53d
00000110: f2ff 43be d7b4 133e 5808 21be 3a7b 953c
00000120: 85b3 2dbe 42de 46be 09eb 07be 8655 4c3d
00000130: 95c3 a23d ebb3 133e 8a93 603e f043 c43d
00000140: 5b77 263e 6408 c03d 29b8 113c a955 29be
00000150: cd44 4cbe af86 4ebe 760b ce3d a79e 193e
00000160: 7bdf 083e b2f4 0cbe cbf9 adbd a3a0 413e
00000170: 5f82 29be f2ac c4bc ec53 d5bd 5470 57be
00000180: cde0 0cbd b717 143e 19c3 943c 847e fabd
00000190: d70b d83d 8863 7a3c 9eba 5f3d 66fe 3b3e
000001a0: 4ec5 bfbc c754 51bd 72e0 483e 16e2 693e
000001b0: 23c8 043d 8e61 393e 6aba a63c ee35 62be
000001c0: 25ee 3b3e f93d 26bd 8185 793c 2124 953d
000001d0: 3cd3 133e 5e3c 1bbd 0bdd fabd 1477 243b
000001e0: 3bb8 9c3d ec4b 47be 2668 d0bd fbdd a8bd
000001f0: c56b 1a3e 8b41 91bd d762 e93d 5fdf 0f3e
00000200: 28cb 523d ee5c 453e a0e3 813d b06e 433e
00000210: 5e77 02be 3634 52be 3d70 4f3c 358b 0e3d
00000220: 7779 a13d 066f 22be 53ce 8bbd 2c56 9f3d
00000230: 2e7f bdbd 67c9 873c 7c30 db3d 2738 373d
00000240: d3af fa3d 74b0 203e c20b d03d cbee ab3d
00000250: f1ba 0bbe cfae c7bd effb a53d e8c6 f33d
00000260: ab75 e43c 350d 513e d0b0 18be 9d3c 9f3c
00000270: 7f2a 3fbb 6903 c73d 1b56 2ebe 0410 35bd
00000280: 2b46 0abe c84d 483e c2db aa3c 6dbc 47bd
00000290: 5348 b5bd 6a7a 0e3e 567a 373c d9a0 83bd
000002a0: fec9 99bb b065 773d 3dd9 ecbd 8540 b5bd
000002b0: 020d bebd 03a5 003e 5ebe 08be 48f2 8abd
000002c0: 7ee1 233d 37d2 883d 474d dcbc 8bb7 1fbd
000002d0: 5926 643b e817 353e 9612 20be 8490 e4bc
000002e0: 90ac 11bd 4515 56bd 0ee6 c0bd 5398 c9bc
000002f0: 0035 c03a d963 03bd 414c 623d 78a1 133e
00000300: b263 243b 38aa ef3d d9be 243d b185 033e
00000310: b4b3 d63b 90c5 d1bd c113 df3c 69da 143e
00000320: e8e4 fcbd ca52 05be 15a0 51bd 0c1b f03d
00000330: ef89 643d 3492 ccbd 2afb 563b fc13 adbb
00000340: 502d 253e 64d9 0e3e 9a07 5b3d 390c 263d
00000350: 2659 dfbd 1e17 1bbe bf3d 21be 5f2f ffba
00000360: 3afe 5dbd 759b 543e 98a8 47be ab96 b73d
00000370: 4f0d 3b3d 3472 223a e97c 92bd 6cae 9abd
00000380: 1220 c8bd 2832 91bd e350 303e 3617 38bc
00000390: f69f 4d3e fe39 1fbe cf20 60bd 027c 723d
000003a0: 5039 13bd cf81 983d 001b 0dbe ae87 133d
000003b0: 30ef ef3d 6d6b 1cbe ecf6 4b3d 22ac d9bd
000003c0: f48f 1a3c a675 48be 48fd 413e ae49 80bd
000003d0: 60f9 4a3e 6fbe ffbd beaf ae3c 2df3 14be
000003e0: 2bea 9e3d fb26 003e fa3c d53d 0885 85bc
000003f0: 8eaa f03b 3e62 af3d 65c5 afbd 3cff 2a3e
-0.00271689 0.06605372 0.06411377 0.103450246 -0.12770881 -0.13712132 -0.15755324 0.16138871
0.13409638 -0.038691223 0.13419084 0.09467492 0.12062676 0.089641504 0.048760198 0.069542736
-0.057093907 0.19898026 -0.046031937 -0.14953217 0.17814723 0.109781735 -0.19247502 0.17532621
0.07066514 -0.13692483 -0.027186789 -0.186537 -0.05156454 0.046843488 -0.10225967 0.20630914
-0.067542225 0.12915246 0.10552132 0.19408017 -0.14762951 -0.1281799 -0.01989065 0.13019523
0.005915072 0.12232678 0.08077951 0.15981334 -0.07690286 0.116928875 -0.18293925 0.030391216
-0.095226124 -0.015975928 -0.1259545 0.007042978 -0.17470588 -0.08963156 -0.1703681 -0.16273601
0.15505391 -0.05616032 -0.09967154 -0.03380729 0.093378715 0.015122779 0.03198447 0.11506577
0.19793366 -0.19964583 -0.0898695 0.096384086 -0.19140604 0.14424454 -0.15725839 0.018247236
-0.16963013 -0.19420722 -0.13273253 0.04988625 0.079474606 0.14424102 0.21931282 0.095832705
0.16256468 0.093766004 0.008894005 -0.16536583 -0.1994812 -0.20168565 0.1006078 0.15001927
0.13366501 -0.13765219 -0.0849491 0.18908934 -0.16553639 -0.024008248 -0.104163975 -0.21038944
-0.034394074 0.14462171 0.018159436 -0.12231162 0.10549133 0.015282519 0.05462133 0.18358764
-0.023409512 -0.05110624 0.19616869 0.22840151 0.032417428 0.1810362 0.020352561 -0.22090885
0.18352564 -0.040586445 0.015229584 0.07282282 0.14436048 -0.037899368 -0.12249192 0.002509539
0.07652327 -0.19462556 -0.10176115 -0.082454644 0.15080173 -0.070925795 0.11395805 0.14050053
0.051463276 0.19273731 0.06342244 0.19085193 -0.12740847 -0.2052773 0.012661037 0.034800727
0.07884496 -0.15862665 -0.068264626 0.07780108 -0.09252773 0.016575528 0.10702607 0.044731285
0.12240567 0.15692312 0.101584926 0.083951555 -0.13645531 -0.09750139 0.08104693 0.11903173
0.02788814 0.20415194 -0.14911199 0.019438082 -0.0029169617 0.09717447 -0.17025034 -0.044204727
-0.1350333 0.19560921 0.020856742 -0.04876368 -0.088516854 0.13913885 0.011198601 -0.06427164
-0.004693269 0.06039971 -0.115648724 -0.08850197 -0.09279825 0.12562947 -0.1335387 -0.06784493
0.040009968 0.0668072 -0.026892317 -0.0389934 0.0034812896 0.17684901 -0.1563209 -0.027900942
-0.03556496 -0.052266378 -0.094188794 -0.024608767 0.0014664233 -0.032077644 0.055248503 0.14417064
0.0025083837 0.117023885 0.04022107 0.12843968 0.006552184 -0.1024276 0.0272311 0.14536442
-0.12348348 -0.13019863 -0.051178057 0.11723909 0.055795606 -0.099888235 0.0032803514 -0.0052819233
0.16130567 0.13950115 0.053474046 0.040539 -0.109056756 -0.15145537 -0.1574621 -0.0019469074
-0.054197527 0.20762427 -0.19497907 0.089642845 0.04566699 0.0006196827 -0.07152731 -0.075527996
-0.09771742 -0.07089645 0.17218356 -0.011236003 0.20080552 -0.15549466 -0.05471879 0.059200294
-0.03594333 0.07446634 -0.13779831 0.036018066 0.11715543 -0.15275355 0.04979603 -0.10628535
0.009433735 -0.1957613 0.18944275 -0.06264053 0.19821692 -0.12487494 0.021324035 -0.14545889
0.07759508 0.1251487 0.10412021 -0.016298786 0.0073445505 0.0856366 -0.08582572 0.16698927

module.base.1.layers.2.weight f4 [256]
00000000: 38cf 823f 7020 863f e8a8 7d3f 7abe 863f
00000010: 7f85 8a3f 2de5 893f 0dc8 853f 732c 843f
00000020: 588f 7e3f 3532 813f 7233 893f 8059 813f
00000030: 7b76 823f 89d4 873f fc44 7e3f c1d1 853f
00000040: 695e 7f3f 0705 843f 8ce8 813f d8b3 843f
00000050: 953e 813f c61e 823f 4948 823f 938a 853f
00000060: b9ad 823f 117e 813f 4e04 7c3f 5192 813f
00000070: ec8d 7f3f a832 823f 6ebb 833f 5510 883f
00000080: 81c9 803f db5a 863f 3778 833f c022 803f
00000090: 2b8a 843f 7199 803f 5a53 873f daf0 7e3f
000000a0: ddb0 833f 84b6 803f ab4f 823f 762b 833f
000000b0: 6498 813f 76e5 8d3f ebff 843f fe69 803f
000000c0: c191 853f e648 853f c64c 863f 12f0 813f
000000d0: d9b3 823f 8723 833f 2d20 7d3f 97ef 7c3f
000000e0: 6c7a 7b3f 7ed5 7f3f b569 843f 5e1b 853f
000000f0: bbcb 7f3f d06e 823f 2e32 873f 31d1 833f
00000100: 3a9f 7d3f 97f0 833f 2efc 823f 6fe3 863f
00000110: 7108 863f 3be6 813f ac68 843f a217 843f
00000120: 67b2 843f 8a82 833f 24d1 813f 5340 843f
00000130: f4d6 7b3f bc04 843f 7b09 833f d2a7 843f
00000140: c8d2 813f ec74 833f ee80 833f 26cf 843f
00000150: 61fa 883f f1bf 873f e3e6 843f fa53 823f
00000160: 10de 7e3f 8f86 873f be28 803f 26df 843f
00000170: e2b0 813f aef7 833f 52bd 803f 2843 813f
00000180: de5e 813f 6f57 813f f87a 7d3f 06e3 823f
00000190: 2aa3 823f ab1c 893f 5113 823f 478c 843f
000001a0: 52c7 813f 734a 813f f8da 863f 358f 863f
000001b0: c5f1 8f3f cf0a 833f baff 823f 9968 843f
000001c0: fc3b 893f d9d3 823f f690 803f 50eb 813f
000001d0: 450c 813f c3d4 893f f15b 833f 3349 833f
000001e0: 30ad 833f 90df 853f 7ccc 7f3f b5b7 803f
000001f0: 552b 8b3f a1ca 7f3f 7ea4 823f bedf 823f
00000200: 3141 7e3f 0919 893f 55a8 813f 3a0d 873f
00000210: c48f 823f eed1 813f 16ba 833f ab7a 873f
00000220: c967 833f 40e9 813f 3db4 813f 42b5 7f3f
00000230: 5674 833f 7bbd 833f 9d4c 813f ea12 813f
00000240: 569f 823f f6f6 863f f321 833f 0200 823f
00000250: be4f 823f 61dc 823f c7a7 843f ee07 8a3f
00000260: c070 7d3f 4b39 833f daef 863f 483a 803f
00000270: 4613 843f 1f90 7d3f b404 843f 21e2 863f
00000280: 3407 8c3f 0eb5 853f 9a13 803f cde2 833f
00000290: 567b 853f b0c0 813f 69af 823f 44f6 823f
000002a0: 8fef 833f 9462 843f f0f6 803f 904e 863f
000002b0: 2916 803f eeef 833f 2856 863f 30f4 833f
000002c0: 99b4 813f 7db6 833f 6057 863f fd8c 833f
000002d0: 4ba1 803f cdcc 7f3f d0e8 863f 8285 853f
000002e0: e668 7c3f 1413 833f 1763 833f 3e17 833f
000002f0: 91c7 7e3f 8fc3 843f cbf4 853f 9727 803f
00000300: 2142 843f 5c5d 883f 8f71 843f 459b 833f
00000310: eed3 843f 0b6e 803f a8c0 7d3f 8da5 853f
00000320: 831d 843f 1076 813f baf4 813f 5913 813f
00000330: bbcd 813f ff42 813f 2d78 833f 1d79 7f3f
00000340: e320 813f 6206 813f e6ee 823f f9d2 803f
00000350: 4a51 7f3f 674a 853f 8629 823f a474 863f
00000360: 3b6f 833f 77f1 803f b1e5 803f 7e81 813f
00000370: fd80 873f af9b 873f c365 823f d181 833f
00000380: 0890 823f 12df 803f 7d39 803f be49 813f
00000390: 5dfc 823f c50f 853f 2857 843f 7c64 893f
000003a0: 6f09 883f 474c 863f 7352 863f 0ae5 813f
000003b0: b7da 813f d9a8 823f c563 813f f473 813f
000003c0: 36ed 833f 0c5b 833f b52c 853f 90bc 843f
000003d0: 87c6 823f 8a46 813f 7818 813f 2b59 843f
000003e0: 2010 833f d7cd 833f 9f69 803f c867 803f
000003f0: 05b3 843f 3ab6 863f 7091 813f 0931 813f
1.0219488 1.0478649 0.99085855 1.0526879 1.082199 1.0773064 1.0451676 1.0326065
0.99437475 1.0093447 1.0718825 1.0105438 1.0192407 1.0611736 0.9932401 1.0454637
0.99753433 1.0314034 1.0149093 1.0367384 1.0097224 1.0165641 1.017831 1.0432914
1.0209266 1.0116597 0.9844407 1.0122777 0.9982593 1.0171709 1.0291574 1.0629984
1.0061494 1.0496477 1.0271062 1.0010605 1.0354666 1.0046827 1.0572312 0.9958626
1.0288349 1.0055699 1.0180563 1.0247638 1.0124631 1.1085651 1.03906 1.0032346
1.0435106 1.0412872 1.0492179 1.0151389 1.0211135 1.0245217 0.9887722 0.98803085
0.98233676 0.9993514 1.0344759 1.0398977 0.99920243 1.0190067 1.0562189 1.0298215
0.99071085 1.0307797 1.0233209 1.0538157 1.0471326 1.0148386 1.0344443 1.0319712
1.0366944 1.0274212 1.014195 1.033213 0.9837487 1.0313945 1.0237268 1.0363715
1.014245 1.0270057 1.0273721 1.0375717 1.070141 1.0605451 1.0382961 1.0181878
0.9955759 1.0587939 1.0012434 1.03806 1.0132105 1.0309961 1.0057776 1.009862
1.0107076 1.0104808 0.9901576 1.0225532 1.0206044 1.0711874 1.0162145 1.0355309
1.0138953 1.0100845 1.0535574 1.0512453 1.1245657 1.0237674 1.0234292 1.0344421
1.0721431 1.0220901 1.0044239 1.0149937 1.0081869 1.0768055 1.0262433 1.0256714
1.0287228 1.0458851 0.99921393 1.0056063 1.0872599 0.9991856 1.0206449 1.0224531
0.99318224 1.0710765 1.0129496 1.0550911 1.0200124 1.014219 1.0291164 1.058431
1.0266048 1.0149307 1.0133129 0.9988595 1.0269878 1.02922 1.0101506 1.0083897
1.0204875 1.0544116 1.0244735 1.0156252 1.0180585 1.0223504 1.0363702 1.078367
0.9900017 1.025186 1.0541947 1.0017786 1.0318382 0.99048036 1.0313935 1.0537759
1.0939698 1.0445879 1.0005982 1.0303589 1.0428264 1.0136929 1.0209781 1.0231404
1.0307482 1.0342584 1.0075359 1.0492725 1.0006763 1.0307596 1.0495043 1.0308895
1.0133239 1.0290066 1.0495415 1.0277401 1.0049223 0.99921876 1.0539799 1.0431368
0.9859756 1.0240197 1.0264615 1.0241468 0.99523264 1.037218 1.046533 1.0012082
1.0332681 1.0653491 1.0347155 1.028176 1.0377176 1.0033582 0.99122095 1.0441147
1.0321506 1.0114155 1.015281 1.008403 1.0140909 1.009857 1.027105 0.9979418
1.0088161 1.0080073 1.0229156 1.0064384 0.9973341 1.0413331 1.0168922 1.0504346
1.026832 1.0073689 1.0070096 1.0117643 1.0586239 1.0594386 1.0187305 1.0273992
1.0200205 1.0068076 1.0017544 1.0100629 1.0233265 1.0395437 1.0339098 1.073379
1.0627879 1.0492028 1.0493912 1.0148022 1.0144871 1.0207778 1.0108572 1.0113511
1.0306766 1.026216 1.0404269 1.0370045 1.0216836 1.0099652 1.0085592 1.0339712
1.0239296 1.0297192 1.0032233 1.0031672 1.0367132 1.0524361 1.0122509 1.0093089

module.base.1.layers.2.bias f4 [256]
00000000: ddd7 7cbc c001 19ba da60 11bd fa0a c1bc
00000010: ccad 1dbd 9728 edba b4d1 3e3c 0588 7dbc
00000020: 13c6 9cb9 dfcf 3fbc 7def 783c 6444 d4bb
00000030: 3e3f 143c b9ac e1bc 9a3f c8bc e696 05bd
00000040: 33ec 44bc 7358 453c de68 3dbc 9f9f 84bb
00000050: e003 af3c 0a13 b43c 3165 273c 200d 663c
00000060: 4c3b 9abb 3a8e 48bc 1a62 11bc c116 2cbc
00000070: 3eaa 39ba bfc7 773c 3624 173c a5f0 c63c
00000080: d314 27bc 9a29 fb3b 5d45 2dbc ac43 193c
00000090: 42a1 d83c ae48 3a3d b591 70bd 0ceb 6f3b
000000a0: b343 14bc 1a65 0b3d 75c8 82bc 77ab b43c
000000b0: 42ed 49bc f3c8 0f3c f14b 15bd 8fe9 0a3d
000000c0: 48bb 243c 9aa2 36bb d222 cebc af5d 21bd
000000d0: e1a9 f2bc 4124 363b 96f6 2e3c 73a7 e5bc
000000e0: 5d75 c93c 438a 063c 2fdc dcbc be8f 78bc
000000f0: b7db 853c 7a20 b2bb cdfd 693c 3564 263d
00000100: 9c27 d33c 209e dfbc 0214 bcbb b168 233c
00000110: 1a25 2dbd 305b 3a3c 2589 b5bc 8453 ea3b
00000120: cff0 70bc 5f3f 94bb f5ae e6bb fb3b c43c
00000130: 5100 cdbc 168b 4a39 2d60 5f3d 7a2a 883b
00000140: c002 1c3c 2e95 263c f64b 21bc 793f 733b
00000150: cb2d 0ebd f529 02bd f34e f9bb de26 a23c
00000160: 30a1 753a 6d3c 8dbc 1033 cb3b b255 743a
00000170: 51f4 5abc 9141 74bb b4c3 30bc c7ae 92bc
00000180: 24e7 d5bc b27a 393c 007c 963c da6a b9bb
00000190: 8e0f b8bb af98 5c3c ea94 b1bc 8c29 3b3c
000001a0: 4e6a 65bc 6d1e 93bb 837c f23c 6b98 3a3d
000001b0: 3285 173c c348 b9b9 9649 2a3a 0037 0ebd
000001c0: 6eea 283d 5966 283c c4cb 483c f357 0e3d
000001d0: 47ef 083d d8b6 823a d82f ee3b 45e6 20bb
000001e0: b791 133d 5a7e d6bc 13a1 c8bb 12f5 2e3c
000001f0: 7480 e03c fc19 6a3c bb4b e6bc f9cd 3d3c
00000200: c82c 6a3c 6d67 153d 0d68 8fbb 6138 2f3d
00000210: 6b9f bd3b 9a7f 0fbd 42c0 ba3b 4d68 11bd
00000220: af7a d23c d879 2ebc 0551 4a3a a4ed eabb
00000230: 5092 07bc 9fef a7bc 64a9 5c3c e2ca 083d
00000240: d14a ad3c f869 28bc 58b7 1a3d f5df b9bb
00000250: cb26 bfbc 7f3f 4cbc 11f2 3e3c 8983 b93c
00000260: 9989 abbc 4bc3 2f3b 1988 37bd d792 b83a
00000270: 25d8 b2bc 0c63 903b 81c1 37bb 838b 64bc
00000280: c5b0 48bd 9ca2 1d3d 309d 1f3c 088d 683c
00000290: 80e0 0f39 0a50 593c 092b 3b3c 0eda 17bd
000002a0: 9606 413b 1f5b 98ba 0669 28bc ab23 45bd
000002b0: f607 03bc 820c 20bc 7d37 27bd 9cd0 8bbc
000002c0: 79eb 783c 779c 4ebc 5703 97bc 5a01 35bc
000002d0: 472f 283c 70f7 943b f99c 5c3c 2680 7f3b
000002e0: 45a0 bc3c 148c 23bd e011 babc 602c c73c
000002f0: f5c2 583b d930 5b3b b6c3 733c 6096 6abb
00000300: 2e0d f83b db7d 75bc ee2f febc 9023 013c
00000310: f2c0 2f3c fd6e 863c 28e3 06bd 7b74 533c
00000320: 533b adbc 5c72 7fbc 019c 05bb ae8d 053c
00000330: c532 a13c 495c cd3a fb0e 90bb 7311 52ba
00000340: a29b 0b3c a1f2 4f3c a97e b93c 3bbf 9abb
00000350: 20ee e63b f6d6 e3bc 2b4a 06bc 72be b23c
00000360: da9c 06bd 780f d13c a90b 0dbc 0c80 31bb
00000370: d61e 4b3d 6934 a8bc 51c0 19bc 0c74 ffbc
00000380: 7a13 423a e0ad 803c 6ab8 ca3c 0472 993c
00000390: 7740 a63b 4a1a 8bbc 74b0 503c 896c c13c
000003a0: e560 29bc a9e2 b53c c515 9ebc b86f cebc
000003b0: 2d83 a8bc 93d9 0ebc a94a f53b a7b4 093b
000003c0: 0bb4 05bd dff9 edbc 6900 0a3d 5f7e 0c3c
000003d0: c58e 623d 664a 103c e4a4 7bbc 25a8 95bc
000003e0: 3a14 333c b1d2 bb3c 36c2 bebb e65d 87bb
000003f0: 5d99 b13c 85e2 ddbc cc75 5ebc 4371 2e3c
-0.015432325 -0.00058367476 -0.035492755 -0.023564804 -0.038495824 -0.0018093762 0.011646677 -0.015474324
-0.00029902215 -0.011707275 0.015193817 -0.0064778794 0.009048281 -0.02754818 -0.02444439 -0.03261461
-0.012019205 0.012045014 -0.011560647 -0.0040473486 0.021364152 0.021981735 0.010216997 0.014041215
-0.004706776 -0.012240941 -0.008873487 -0.010503472 -0.0007082558 0.015123307 0.009224942 0.02428467
-0.010197836 0.0076648714 -0.0105756195 0.009354513 0.026444081 0.04547947 -0.058732707 0.0036608605
-0.009049344 0.034031965 -0.015964726 0.022054417 -0.012324633 0.008775937 -0.036449376 0.033914145
0.010054417 -0.0027867914 -0.025163088 -0.039395984 -0.02962202 0.0027792605 0.010678908 -0.028033948
0.024592096 0.008211675 -0.02696046 -0.01517099 0.01634012 -0.0054360004 0.014281702 0.04062291
0.025775723 -0.02729708 -0.00573969 0.009973691 -0.04227171 0.01137428 -0.022160122 0.007151069
-0.014705851 -0.004524156 -0.0070398995 0.023954382 -0.025024565 0.00019316035 0.05453508 0.004155454
0.00952214 0.010167403 -0.009844771 0.003711669 -0.03471164 -0.031778295 -0.0076082884 0.019793924
0.0009370027 -0.017240727 0.0062011555 0.0009320631 -0.013363914 -0.0037270526 -0.010788847 -0.017905606
-0.026111193 0.011320757 0.018369675 -0.0056584897 -0.0056170886 0.013464137 -0.021677453 0.01142348
-0.014002396 -0.004489711 0.029600387 0.045555513 0.009248065 -0.0003534016 0.00064959505 -0.03472042
0.041239195 0.010278308 0.012255613 0.034751844 0.033431318 0.0009972705 0.007268887 -0.0024551314
0.036027636 -0.026183296 -0.006122717 0.0106785465 0.027405001 0.014288422 -0.028112283 0.011584752
0.014292903 0.036475588 -0.0043764175 0.042778376 0.0057868264 -0.0350338 0.0056991884 -0.03549986
0.025693266 -0.010649167 0.00077177613 -0.0071694423 -0.00827463 -0.020500002 0.01346812 0.03339661
0.02115384 -0.010279171 0.037772506 -0.0056724497 -0.023333928 -0.0124663105 0.011654393 0.022645729
-0.020939635 0.0026819285 -0.044807527 0.0014081848 -0.021831581 0.0044063386 -0.0028038921 -0.013949278
-0.048996706 0.038485155 0.009742066 0.014193781 0.00013721175 0.013263712 0.011423835 -0.037073188
0.0029453388 -0.0011623836 -0.010278946 -0.04812972 -0.0079975035 -0.009768607 -0.040824402 -0.017067246
0.01519286 -0.012610546 -0.01843421 -0.0110476855 0.010265178 0.0045460984 0.01346516 0.0038986295
0.023025641 -0.03992851 -0.022713602 0.024313152 0.0033075188 0.0033445864 0.014878204 -0.0035795197
0.0075699305 -0.01498362 -0.031028714 0.007882014 0.010727154 0.016410345 -0.032931477 0.012906189
-0.021146452 -0.01559123 -0.0020387175 0.008151455 0.01967753 0.0015667762 -0.004396317 -0.00080134644
0.0085209925 0.012692125 0.022643404 -0.0047225035 0.0070474297 -0.027812462 -0.008196394 0.021819327
-0.03286443 0.025520071 -0.008608737 -0.0027084379 0.049589954 -0.020532804 -0.009384231 -0.031183265
0.0007403415 0.01570791 0.024746139 0.018731125 0.005073603 -0.016980309 0.012737382 0.023611324
-0.010338043 0.022202807 -0.01929749 -0.025199756 -0.020570362 -0.008718866 0.007485707 0.0021012218
-0.032642405 -0.029049812 0.033691797 0.008575051 0.055311937 0.0088068005 -0.015359137 -0.018268654
0.010930115 0.022927614 -0.0058214916 -0.0041310666 0.021679575 -0.027085552 -0.01357789 0.010647121

module.base.1.layers.3.weight f4 [128, 256]
00000000: b741 be3b cfd4 513d 1ad6 393d b087 16bd
00000010: aa1f 2bbd 38d4 3bbd c3d4 9abc 9ebe d63c
00000020: 01f3 86bd f4ed e43b 20cd ccbc 6122 1a3b
00000030: 1c04 293b 3d86 81bd 12dd 5abc ef48 383d
00000040: 3dfe 5cbd 59e1 963c a9ac 75bc 602a 2ebd
00000050: e613 65bd 644c 8e3d 22e0 c33d 5aeb 873c
00000060: 129f afbc c46d 433d 87bd 183d 7aec 213d
00000070: 581a ff3c c1c3 d3bb 14df 49bd e53f 0e3c
00000080: ad5f 3ebc 18e2 83bd 43c0 e83c 6071 1a3c
00000090: 55a0 d2bc 50bd 043d 0e89 883d 1d5e 0f3c
000000a0: 5054 21bd f6bc 173c c1f2 583d 3168 9d3c
000000b0: 4ec8 303d f96d e8bc f582 aabc 5429 093d
000000c0: 5a5a 043d 50ad b43c 0659 78bd 964c 1f3d
000000d0: 8cbf 9ebc 35c5 493b b043 f7bc 319c 183c
000000e0: 6050 393d 8921 0bbd 4478 16bd 64e0 273c
000000f0: 2282 1fbb 20a7 b539 222e 37bb 5b91 c53c
00000100: dfe0 0c3c 5432 513b 327c 8abc aa68 4ebb
00000110: a1f2 053d e7c7 403d 26d7 123d 274a a73c
00000120: aa01 35bc 9117 17bd e689 2ebd 37c8 223b
00000130: c32f 3bbc 2dea 8f3d 48e0 253d 4fec 51bd
00000140: 168a bbbb 2263 9abd 22b4 9d3b 3fea 6dbd
00000150: e7fa 873c 0539 0cbd 7408 91bc 15eb b0bb
00000160: 024a 3fbd cd21 e73d 3b88 47bd 4c57 2a3c
00000170: d699 363d f045 5ebd 1fee 7fbc 87b1 183d
00000180: 3474 b8bc 86bd d7bc 7716 76bd f105 fbbc
00000190: ac49 8ebd a38c 6fbd 09ad 163d a70f 553d
000001a0: 83c0 3cbd 1fa2 e73c f077 e2bc 7401 a1bb
000001b0: 8b5b 233d d69f 673d 23da 45bd 5e66 373d
000001c0: fb15 b93c 3b8b ecba 8dc1 993c 1377 d73a
000001d0: 8c59 91bc 3410 67bd f0f6 bbbc fae2 9abd
000001e0: b3fd 07bb 2bbd 133d 90d0 95bd a74a 7ebc
000001f0: f188 1fbc f726 233d 7226 84bd b4ab 853d
00000200: d9dc 9d3c d5b1 fabc 1c44 b3b9 f49d d63c
00000210: a96e 7ebc 272a 113d afc9 12bd 5077 7a3a
00000220: 965f 65bd b138 ecbc a764 4e3d 7a1a 2abd
00000230: 70cd 1dbd d3d4 01bd 1ae4 04bb 8cf8 a33c
00000240: 9b46 30bd e32e 863d 79d3 05bd 7074 683d
00000250: 5161 5d3c f6a4 353d 5126 cebc efc0 10bd
00000260: 8b52 543d 2622 2dbc 4377 193c f384 a0bc
00000270: 3e51 06bd ca00 013d 660a 9fbc 685c 85bc
00000280: 6215 0abd b836 553d 788b 983d d74d 97bc
00000290: 6742 74bd acc0 383d 24b7 1fbd 7aef 1fbd
000002a0: c23c 47bd 3abe c33c 70ba c4bc dfab 413d
000002b0: 6ca3 ee3b 199c 923d 863d 933c 5db3 023c
000002c0: 5c94 82bb dcd9 0fbd a59c 983d 224e 20bd
000002d0: 72c1 c63c 3a15 09bd a23c 9e3c 9dcd 563d
000002e0: 4f26 27bd 7c77 8dbc 0120 af3c a821 243c
000002f0: ddf4 063d 5e55 903d e676 143c 2512 0bbd
00000300: a80e 833c 83da ef39 5112 0e3d b60e 423d
00000310: db08 81bd 199d a0bc 1f9f 803a 40c7 58bd
00000320: dce0 8cbd 6a73 cebc 9c3c 513d ceb8 1f3c
00000330: e4d3 2b3d d943 dfbb 1f1f 983c 9a16 39bb
00000340: 485c c83c 0c80 233c 5275 ed3c 87f8 62bd
00000350: 60cc 243d 6372 8b3d 079b 343d 7a0d 20bc
00000360: 94da fb3c eef7 0f3d 9753 c2bc 8e36 f43c
00000370: e52d 023d f2c0 b83d 9fe8 8b3d 7802 e2bc
00000380: 05ed 3fbd 51f6 1e3d 4b15 ef3c 0ed6 d43b
00000390: ccb1 e9ba e783 63bd 77f7 89bc f9b6 62bc
000003a0: dafa 11bd 7cca 16bc b000 c4bc 6d01 f4bb
000003b0: 79d3 543d 687c 983d 2561 503b 2020 093d
000003c0: 882b b3bd b3d4 d6bc daec 823d ae71 423d
000003d0: 3a95 66bd ec82 a93d 8458 b13d 8701 fdbc
000003e0: 7709 0dbd a195 4bbd 9e1b c33c 57b4 afbb
000003f0: 0d02 e13c 795d 083d f1bc 17bd dc86 2f3c
0.0058061737 0.05122834 0.0453702 -0.036750495 -0.041778244 -0.045856684 -0.01890028 0.02621394
-0.06589318 0.006986374 -0.025000155 0.0023519027 0.0025789803 -0.06324432 -0.013358371 0.04499143
-0.053953398 0.018418001 -0.014994779 -0.04252088 -0.05592718 0.06948164 0.09564234 0.016591717
-0.021438155 0.047712103 0.037290122 0.039532162 0.031140491 -0.0064625447 -0.04928501 0.008682226
-0.011619491 -0.06439608 0.02841199 0.009426445 -0.025711218 0.032407105 0.06666766 0.008750466
-0.039387047 0.00926136 0.052965883 0.019214721 0.043159775 -0.028372752 -0.020814398 0.03348668
0.03231273 0.022055298 -0.060631774 0.038891397 -0.019378446 0.003078771 -0.030183643 0.009314583
0.045242667 -0.03396753 -0.036735788 0.01024637 -0.002433904 0.00034647528 -0.0027951081 0.024117162
0.008598535 0.0031920867 -0.016904924 -0.003149549 0.032702092 0.04706564 0.035849713 0.0204211
-0.01104776 -0.03688771 -0.04261198 0.0024838576 -0.0114249615 0.07027087 0.040497094 -0.051250752
-0.0057232482 -0.07538439 0.0048127333 -0.058084723 0.016599132 -0.034234066 -0.017704226 -0.0053991177
-0.04670144 0.11285744 -0.048713904 0.01039679 0.044580303 -0.054265916 -0.015620737 0.03727868
-0.022516347 -0.026335489 -0.060080018 -0.030642482 -0.069476455 -0.05848373 0.036786113 0.05201688
-0.04608203 0.028275548 -0.027645081 -0.0049135033 0.039882224 0.056548916 -0.048303735 0.04477536
0.022593489 -0.0018046865 0.01876905 0.0016438685 -0.017742895 -0.056411937 -0.022944897 -0.075628236
-0.0020750582 0.036069077 -0.07315171 -0.015520728 -0.009737239 0.03983208 -0.06452645 0.065268904
0.019270347 -0.030602375 -0.00034192286 0.026198365 -0.015529313 0.03544059 -0.03583687 0.0009554522
-0.05599936 -0.028835626 0.05038896 -0.041529156 -0.038526 -0.031697106 -0.002027756 0.020015977
-0.043036085 0.06551912 -0.03267238 0.05675167 0.013511972 0.044346772 -0.025164755 -0.035340246
0.05183653 -0.010567224 0.009366813 -0.019594645 -0.032792322 0.031494893 -0.019414138 -0.016279414
-0.0337118 0.052054137 0.074484766 -0.018469734 -0.05963364 0.04510562 -0.038993016 -0.039046742
-0.048641928 0.023894418 -0.024014682 0.04728305 0.007282665 0.071586795 0.017973673 0.007977334
-0.003984971 -0.035119876 0.074517526 -0.039137013 0.024262164 -0.03346751 0.019316021 0.05244218
-0.04080802 -0.017268889 0.021377565 0.01001779 0.032948364 0.070475325 0.009061551 -0.03395285
0.0159982 0.00045748436 0.034685437 0.04737731 -0.06300517 -0.01960616 0.0009813047 -0.052924395
-0.06878826 -0.025201518 0.051083192 0.009748651 0.04195012 -0.006813508 0.018569527 -0.0028242231
0.024458066 0.009979259 0.028986607 -0.055412795 0.04023397 0.06808927 0.044093158 -0.009768838
0.030743875 0.035148554 -0.0237215 0.02981117 0.03178205 0.090211764 0.06831478 -0.027589068
-0.0468569 0.038809124 0.029184958 0.006495244 -0.0017829477 -0.055545714 -0.016841633 -0.013837569
-0.03563962 -0.0092035495 -0.02392611 -0.007446459 0.05195949 0.074456036 0.0031796184 0.033477902
-0.08748537 -0.02622447 0.06392832 0.047471695 -0.056294657 0.082769245 0.08659461 -0.030884517
-0.034432855 -0.049703244 0.02381688 -0.0053620744 0.027466798 0.033292267 -0.037045423 0.010713305

module.base.1.layers.3.bias f4 [128]
00000000: 66f8 06bd eff4 a9bb 6af9 40bd c130 f23c
00000010: beab 053c 1e8c 33bc c77f 12bd 976a 8fbc
00000020: fd97 613d 50de 77bd 43e3 a9bc c1f1 26bd
00000030: 854d 15bd 240c 39bd 581a 41bd 47ad d4bc
00000040: c96f 93bc 57ca 10bd 9896 06bd 762f a2bd
00000050: 8cef 903a 8084 e3bc be63 603c 604a 43bd
00000060: 3f01 533a 34fd b93c 7ff6 57bd b21e 573d
00000070: 8418 78bd 522f 28bd a700 943d 6cae 12bd
00000080: 9565 3bbd 9a44 29bd 462d 90bc 1842 0d3d
00000090: d14f 223d f8bb 043c 7f53 873d 7981 213c
000000a0: 8f44 bdbc 6d0a 06bb 250b a33b 2f58 983c
000000b0: 7605 07bc c862 913d 8442 323b e2ba 47bd
000000c0: 1c0e eb3c f3d6 8abd 7a35 9cbc 52c1 20bd
000000d0: 9a69 74bd b239 62bd 1b76 e43c ddb7 92bd
000000e0: e68a e03c 0f4e 98bd 1462 3dbd 86c8 43bd
000000f0: 1292 9e3d 756b 1d3c a7d4 283d a29e 2b3d
00000100: 52af 87bc 3a5b 2d3d 9e16 f73c 38cd 6a3d
00000110: 2133 a6bb ab07 23bb 105e 60bd 3ef6 983b
00000120: 70b6 b4bc b227 86bd 2be5 a3bc 0ac2 ee3b
00000130: e3e1 3b3d a3eb 883c 856d 07bd 2e55 55bd
00000140: 2788 333d 9321 39bd a470 e03a 2689 a6bb
00000150: 14a9 053d a2c6 643d ea81 54bb 2a72 8ebd
00000160: e008 6cbd a884 1fbd 0773 84bd c45d 33ba
00000170: 9337 0ebc 9e1b 6cbd 470a 3a3d a259 7fbd
00000180: 5855 89bd a57f a8bc fbf5 0bba 06d9 023d
00000190: 7e59 113d 302c 613d a658 f2bc a8d4 c2bc
000001a0: 76ad 31bd dc83 07bd cd70 6c3d cc18 5c3d
000001b0: 05f6 dc3c 023f 56bc 1cc0 1ebd e072 9c3c
000001c0: 82e2 50bd c8c8 423c 9605 45bd eff6 b6ba
000001d0: e32a d23c c55e 8a3c 2d69 193d 96d0 a63d
000001e0: fbcd 4dbc edbc 45bd ccdb 4abd 9ae8 e0bc
000001f0: 78d3 f9bc 31a2 1dbd cf53 62bd 5b88 c3ba
-0.032951735 -0.005186669 -0.04711286 0.029564263 0.008158622 -0.0109586995 -0.03576639 -0.01750688
0.055076588 -0.060514748 -0.02073825 -0.0407579 -0.03645088 -0.045177594 -0.047144264 -0.025961531
-0.01799764 -0.035349216 -0.03285846 -0.07919209 0.0011057719 -0.027773142 0.013695655 -0.04767835
0.0008049197 0.022703744 -0.05272531 0.052519508 -0.060570255 -0.041060753 0.07226687 -0.035810873
-0.045751173 -0.04132519 -0.017599713 0.03448686 0.0396269 0.008101456 0.066077225 0.009857529
-0.02310398 -0.0020452992 0.0049756938 0.018596737 -0.008241048 0.07098919 0.002720029 -0.04876221
0.028693251 -0.067792796 -0.019068468 -0.039246865 -0.059671022 -0.055230804 0.027888348 -0.071639754
0.027409982 -0.074367635 -0.046236113 -0.047798656 0.077427045 0.009608139 0.041218426 0.04189933
-0.016563091 0.04232333 0.030162152 0.057324618 -0.005072013 -0.0024876397 -0.054777205 0.004668026
-0.02205965 -0.0655054 -0.020006737 0.007286315 0.04586972 0.016713923 -0.03306343 -0.052083187
0.043831017 -0.045198034 0.0017123413 -0.0050822673 0.03263195 0.055853494 -0.0032426068 -0.06955369
-0.05762565 -0.03894487 -0.06467252 -0.000684228 -0.008680242 -0.057643525 0.045419957 -0.06234134
-0.06705731 -0.020568678 -0.0005339083 0.03194525 0.035485737 0.05497378 -0.029583286 -0.023783043
-0.043378316 -0.033084735 0.057724763 0.053734586 0.02697278 -0.013076546 -0.03875743 0.019097745
-0.050997265 0.01188869 -0.04810103 -0.001395909 0.025655216 0.016890893 0.03745382 0.08145253
-0.012561317 -0.048275877 -0.04952602 -0.027454663 -0.030496344 -0.038484756 -0.055255707 -0.0014917956

module.base.1.layers.5.weight f4 [128]
00000000: 069f 8c3f 3fa6 813f 7ecb 823f 12bb 863f
00000010: 6314 843f ef6a 833f 41b9 843f 2539 8f3f
00000020: fd1a 813f 536a 893f 77d3 7e3f 4013 8a3f
00000030: 8b10 883f e35b 823f 8d78 863f dc78 873f
00000040: e67a 863f 4561 823f 08b9 843f 5037 823f
00000050: e467 873f 7f80 813f 3cf2 883f 487f 873f
00000060: 1d19 843f d9aa 813f add0 843f db38 843f
00000070: f334 853f 740e 813f 60e7 843f ae11 8e3f
00000080: 7a8c 883f 53a8 833f 9fe8 913f 34c2 823f
00000090: 877b 853f 44ba 823f 2ebf 883f 1d31 8d3f
000000a0: 4da5 853f ac72 863f 5616 823f f418 853f
000000b0: 0856 873f c756 8f3f 47c2 833f bf64 823f
000000c0: 6e7c 853f b98f 813f ff1e 8b3f 9c15 813f
000000d0: d79e 823f b327 8d3f ca17 813f 3f2f 873f
000000e0: dfda 843f a7c9 8b3f 95df 853f 8964 823f
000000f0: cb61 883f c52a 8c3f 9ab4 863f 5ff0 813f
00000100: 4a6f 853f 99fd 7f3f 08ab 913f 3ceb 843f
00000110: a884 833f dfe0 873f 9298 833f 259f 7d3f
00000120: 73ad 893f 411b 883f 1509 8a3f d2bd 843f
00000130: 10b5 8c3f 39cf 8d3f 4df4 823f 7020 843f
00000140: bb39 863f 9ecc 813f 1fc3 813f bcb4 883f
00000150: 22df 823f 9bf0 863f 1d77 803f 76ab 823f
00000160: 599a 803f 8aa9 813f 8379 813f efed 7e3f
00000170: 15ea 833f 28b8 853f e436 873f 54c8 873f
00000180: 692b 873f b43e 813f 36c3 8a3f 539a 833f
00000190: 9d4c 8d3f cb5e 813f 9e48 8b3f 247e 873f
000001a0: 23b2 873f d8da 823f 3d16 833f a6eb 853f
000001b0: fb32 833f 83d9 813f b1e4 893f 546f 823f
000001c0: 3e3c 863f f16a 853f 072a 883f 36d3 813f
000001d0: 581d 833f 7d21 893f c6d2 853f 1a23 853f
000001e0: f412 853f 59d4 843f 6566 873f 3484 853f
000001f0: 4514 8c3f 4e5b 823f efd6 853f c393 843f
1.098603 1.0128859 1.0218351 1.0525839 1.0318722 1.0267009 1.0369035 1.1189314
1.0086361 1.0735573 0.9954142 1.0787125 1.0630049 1.0184292 1.0505539 1.0583758
1.0506256 1.0185934 1.0368967 1.017313 1.057858 1.0117339 1.0698924 1.0585718
1.0320164 1.0130264 1.0376183 1.0329851 1.0406784 1.0082536 1.038311 1.1099145
1.066787 1.0285743 1.1399115 1.0215516 1.0428323 1.0213094 1.0683343 1.1030613
1.0441071 1.0503745 1.0163066 1.039824 1.057313 1.1198357 1.0293664 1.0186995
1.0428598 1.0121986 1.0868834 1.008472 1.0204724 1.102774 1.0085385 1.0561293
1.0379294 1.0920914 1.0458857 1.0186931 1.0654844 1.0950552 1.0523865 1.015148
1.0424588 0.99996334 1.138032 1.0384288 1.0274858 1.06155 1.0280936 0.9907096
1.0756058 1.0633317 1.0784022 1.0370429 1.0992756 1.1078864 1.0230805 1.0322399
1.0486368 1.0140569 1.0137671 1.0680156 1.0224345 1.0542177 1.003635 1.0208576
1.0047103 1.0129864 1.0115207 0.9958181 1.0305811 1.0446825 1.0563626 1.060801
1.0560123 1.009726 1.0840824 1.0281471 1.1039006 1.0107054 1.0881536 1.058537
1.0601238 1.0223036 1.0241162 1.0462539 1.0249933 1.0144504 1.0772916 1.0190225
1.0487134 1.0423261 1.0637826 1.0142581 1.024333 1.0713345 1.0454948 1.0401337
1.0396409 1.0377303 1.0578123 1.043097 1.0943686 1.0184114 1.0456218 1.0357593

module.base.1.layers.5.bias f4 [128]
00000000: bddf 923d b9f0 103d 2bba fe3c 7907 8c3d
00000010: 51b9 cc3c 36c9 c1b9 6933 5bbd dac2 b2bd
00000020: e44f 5f3d 3ca5 3dbc 6681 d5bb d112 293c
00000030: 7e3b 07bc 221d 2b3d 5162 e3bb e371 72bc
00000040: e47a 72bc f679 0cbd f40a 1ebd 97a2 2bbd
00000050: d04a acbc aa44 83bc ab95 8bbc 6b70 96bc
00000060: 7e62 3f3c 6ff2 e13c a241 403d 7efb b83c
00000070: 9414 06bc e4a9 143d 60bf 303b 062d 553c
00000080: e5b7 733d ef8e aa3c 4ff0 643c 268f 09bd
00000090: cbf9 d53b 89e8 24bd 7b35 9d3d 34ba 31bd
000000a0: 1f25 883c d552 21bc 0399 1fbd 282a b2bc
000000b0: d509 213d 6c7d 9c3c cfee 823c 99d6 8b3c
000000c0: dc01 1dbc c00a f2bc 2293 3b3d 51d2 e8bc
000000d0: abcf 01bb 5510 99bd 0da9 823c 6f23 22bd
000000e0: 0e14 b13c e719 053c 6f75 6fbb 860e 963c
000000f0: 67ba a8bc 893b 263d 1ff2 f6bc b2f2 2bbc
00000100: 817a 46bc 008d b83c f228 2f3c 5ba7 e43a
00000110: f227 37bd 7fec 373c 1a83 dc3b 894f 0a3d
00000120: bfa9 113d 28f4 8abc cfc6 6b3b 5297 32bb
00000130: d80a 07bc 1e1b 85bc 76cb 65bc 1242 913c
00000140: a091 89bb 6232 d93c 28ed 273d edc7 feba
00000150: d6f3 0fbc 5d2b 6f3a bf98 e63c 6338 0abd
00000160: ad6c b7bc ae54 16bd c38d c13c b74c e2bc
00000170: 3ce3 8cbc 1001 80bb b3e6 1c3b 82f4 99bd
00000180: 649c af3c 5b45 f4bc dd13 c5bc 1815 1cbb
00000190: d69a cc3c 4c8f 903c 9eca e73c 9cef e9bc
000001a0: 2685 263d 3e00 99bb 1874 5fbc 484d b93b
000001b0: ec49 0cbd f5c6 e03c 7ad1 c63c aad0 11bd
000001c0: 2dda 25bd 5843 6f3c 2917 5dbd 56b2 edbc
000001d0: f331 be3c 6c50 883d c802 9fbc 3acd eb3c
000001e0: 3df4 f03a 8845 dcbc dd19 753c 5a5a dabb
000001f0: fd92 6ebd d620 823c 03c7 e83a abc0 ce3a
0.07171581 0.03538582 0.031094631 0.06837363 0.02499071 -0.00036961742 -0.053515825 -0.08728571
0.05451955 -0.0115750395 -0.0065156696 0.010319428 -0.00825393 0.04177583 -0.0069392105 -0.0147976605
-0.014799807 -0.034296 -0.038584664 -0.041903105 -0.021031767 -0.016023953 -0.01703914 -0.018364152
0.011681197 0.027581422 0.046937592 0.022580858 -0.008183617 0.036294833 0.0026969537 0.013011223
0.059501547 0.02082011 0.01397331 -0.033583783 0.006530022 -0.040260825 0.07676216 -0.043390468
0.016619263 -0.009846409 -0.038964283 -0.021748617 0.039316017 0.019102775 0.015983013 0.017070102
-0.009582963 -0.029546142 0.045794614 -0.0284206 -0.0019807618 -0.07473818 0.01594975 -0.039584573
0.021616008 0.008123851 -0.0036538502 0.018317472 -0.020596696 0.04058412 -0.03014475 -0.010494875
-0.012114168 0.022528172 0.0106909145 0.0017444895 -0.04471583 0.011225819 0.0067294957 0.033767257
0.035562273 -0.016962126 0.0035976653 -0.0027250838 -0.008242331 -0.016248282 -0.01402556 0.0177317
-0.004198268 0.026513282 0.040997654 -0.0019438245 -0.008786162 0.0009123588 0.028149007 -0.03374518
-0.022390688 -0.03670185 0.023627168 -0.027624471 -0.017198198 -0.0039063767 0.0023941218 -0.07517339
0.021436878 -0.029818228 -0.024057323 -0.0023816284 0.024976175 0.017646454 0.028294858 -0.028556637
0.040654324 -0.0046692183 -0.013638519 0.0056549646 -0.034250185 0.02743862 0.024269808 -0.03559939
-0.04049127 0.014603458 -0.053977165 -0.029015701 0.023217177 0.06655964 -0.019410506 0.028784383
0.0018383336 -0.026888624 0.01495978 -0.006663603 -0.058245648 0.015884798 0.0017759505 0.0015773972

module.base.1.layers.6.weight f4 [128, 128]
00000000: 7a76 b93d 4193 f7bb 1be2 adba 7b01 57bd
00000010: 2568 c43c 5512 cdbc d488 533d 800a a23c
00000020: 3eb6 80bd 4ecd 67bd cabd bc3d d716 903d
00000030: b724 8e3d 0b8b 473c 0f52 fc3c fd15 383d
00000040: 75cc 80bd 369d 53bc 7526 0cbc 7752 083d
00000050: 5052 8f3d 0761 0cbd 51fd 4d3d 05c9 d0bd
00000060: 91de 393d 0ab0 05bc b5d5 67bd fd7a 6e3b
00000070: 1ae9 89bd 313d a1bd ae84 593d a98a 943c
00000080: 7471 8b3d 3ee9 5cbc c666 cc3c f2d2 cb3c
00000090: bd86 41bd 3c4b bc3d 263a 873d 17be e93c
000000a0: 4665 5dbd e513 13bd 4bd3 b13c 4a03 ecbc
000000b0: aea4 29bd 9257 c13c 0caa 63bc de5f 2e3d
000000c0: f56b ee3c 6d33 87bd 5e61 1e3d 7c49 9cbb
000000d0: 05b3 1fbd c14f 933d 05c2 8dbb e3b1 743d
000000e0: 018c 223c ea15 493d 23d8 363d 0c55 223d
000000f0: 67da 113d 23a3 443d 22c4 78bc 10c0 bbbc
00000100: 2d70 6abd cf39 5fbd a5ae 0b3d 24c1 b03d
00000110: 67dd f93b 8486 b83c 11e5 8f3c 06a4 83bb
00000120: bb6d 743d 5f4b 803d 565d 96bc 7c53 b5bc
00000130: 90ec 753d e83a d0bd 08e7 8c3d ca86 1a3d
00000140: 0714 ad3d 8c67 943d 834c 83bd 7d4a bfbd
00000150: 650d 5d3d a3b2 fdbc 00fa 5e3d c327 dc3c
00000160: c781 293d 028a 67bd 5eee 7cbd eca3 3a3d
00000170: d2a8 d1bc 70ab 2fbd 3762 b83d 3a74 00bc
00000180: 0ada 30bd 022f 85ba a7dd 3a3d 3234 a23d
00000190: 505d afbd d7d3 1dbd 5459 5abd 6fdb 6ebd
000001a0: c536 883d 8643 353d 38d1 0cbd e83f 6f3c
000001b0: 7eee 5cbd 7991 883d b77d 9dbd 5120 933c
000001c0: 7719 40bd a5a0 9e3d 7541 cb3d 8457 573d
000001d0: 7a24 9abb ee6d 91bb 1601 f73c a9be c3bd
000001e0: 1bab 1bbd 8deb a33b b44d a73c f238 cc3b
000001f0: 96d7 803c 21ac a4bd 78f2 23bd d32b 87bc
00000200: a755 98bc fbf5 82bd 5ba3 c5bd a94b 59bc
00000210: 4ad8 f1bc 1297 1bbd 8030 313d f287 f63b
00000220: 5998 373d 2cc1 3e3d 0970 82bd c1b1 3d3c
00000230: 3db2 db3d 353c 803c 0c9c 55bd 9d64 8e3d
00000240: 9d0d 63bd d486 92bd 4029 a93d 521d 913c
00000250: 78a5 41bd 8b34 0fbc 87ba d13c d546 3f3d
00000260: c9fd babd 5cc6 0e3d 26db 4e3d ac6f 853d
00000270: 0db6 4b3d a8e8 96bd e2ab 14bd 744f 6abd
00000280: 1f5b 4ebc 40cf 43bd 995b 803d cb63 0b3d
00000290: 2831 4d3d 31ad 9b3d 8237 95bd 9f00 8c3d
000002a0: 16f0 a3bc 20ef b83b e980 20bd c001 533d
000002b0: c432 293d 0d2a 0cbd a32e 633d 22a7 b9bc
000002c0: b41c a1bc d6b5 6ebc 370f 753d c920 d03d
000002d0: 226c f4bc 68fa 37bd e9c0 433c 2c8b b2bd
000002e0: 1e3f c4bc d3e2 3fbd d293 68bd 2927 903c
000002f0: 2c13 58bd 37ad 273d 567c 423d 07d0 e5bc
00000300: 1606 603d 0d40 743d ea0d f53c 95dc 39bd
00000310: 645f c2bb 9276 8c3d efbc ccbc 1aa7 00bd
00000320: 59a7 b13d 3009 203d 40b5 143d 119e 03bd
00000330: 985e 43bd 949e 37bd d502 abbd b346 f23c
00000340: 77a9 163d 33a8 463d 5b0e 00bd ac1e d33a
00000350: 7df5 ccbd 6946 1ebd 5cda d13b d4af 123d
00000360: c721 6dbd 7964 54bd e370 05bc 263a 86bd
00000370: a8c9 723c c224 12bd b325 883d a8df 9f3d
00000380: 181c cc3c 0bb6 1e3d 0116 bc3d 54e2 e9b9
00000390: 016b 64bd 8185 22bc 9061 923d 6490 7fbd
000003a0: 189a c1bc b677 953c 0837 d1bc 9028 13bd
000003b0: 4a0d 0dbd f07b 8e3d ebac b53d 01e4 673d
000003c0: bf25 c2bd 3580 a1bd be19 f73b 5772 293c
000003d0: b179 c83d cf18 adbc 9649 963a e938 9dbd
000003e0: e681 6cbd 4c70 1bbd fa09 1d3d 2c88 9abd
000003f0: c758 dc3d a99e 263d b966 a6bc 8f0d 54bd
0.09055801 -0.007555396 -0.0013266237 -0.052491646 0.023975441 -0.025033155 0.05164416 0.019780397
-0.0628476 -0.05659228 0.09215887 0.07035606 0.069405966 0.0121791465 0.030800847 0.044942845
-0.06288997 -0.0129159 -0.008554091 0.03328177 0.06998122 -0.03427222 0.05029041 -0.101945914
0.04537827 -0.008159647 -0.05660029 0.0036389225 -0.06733914 -0.078729995 0.05310505 0.018132525
0.06808749 -0.013483344 0.02495135 0.02488086 -0.047247637 0.09194037 0.06602888 0.028533025
-0.05405166 -0.035907645 0.021707198 -0.028810162 -0.041416816 0.023601327 -0.013895523 0.042571895
0.029104212 -0.066016056 0.038667075 -0.004769502 -0.038989086 0.07192946 -0.0043261074 0.05973996
0.009921075 0.049093165 0.044639718 0.03963189 0.035608675 0.04800714 -0.01518348 -0.022918731
-0.057235885 -0.05449849 0.0341021 0.08630589 0.00762527 0.02252508 0.017565282 -0.004017356
0.05967496 0.06264376 -0.018355053 -0.022134535 0.060040057 -0.101674855 0.06880003 0.0377262
0.084510855 0.072463125 -0.06411078 -0.093403794 0.053967852 -0.03096897 0.054437637 0.026874429
0.04138353 -0.0565281 -0.061750762 0.045566484 -0.025593195 -0.042888105 0.09003108 -0.007840211
-0.04317669 -0.0010161104 0.04562154 0.07920112 -0.0856272 -0.038532104 -0.053307846 -0.058314737
0.066510715 0.04425385 -0.034379214 0.014602639 -0.05393838 0.06668372 -0.07689994 0.017959746
-0.046899285 0.07745484 0.09924594 0.052573696 -0.0047040554 -0.0044381535 0.030151885 -0.0955785
-0.038004976 0.005002445 0.020422794 0.0062323743 0.0157278 -0.080406435 -0.040026158 -0.01650039
-0.01859553 -0.06394573 -0.09650298 -0.013262668 -0.02952208 -0.03798587 0.043259144 0.00752353
0.044823024 0.04657094 -0.06369025 0.011578024 0.10727356 0.015653709 -0.05215077 0.06952784
-0.055432905 -0.07154623 0.08259821 0.017714176 -0.047276944 -0.008740555 0.025601638 0.04669841
-0.09130437 0.03485714 0.050501965 0.0651544 0.049734164 -0.073685944 -0.036296733 -0.05720468
-0.012594967 -0.04780507 0.06267471 0.034030717 0.050095707 0.07601393 -0.07285978 0.06836056
-0.020011943 0.0056437403 -0.03918544 0.05151534 0.04130818 -0.03421979 0.055464398 -0.022662703
-0.019667007 -0.01456972 0.059828963 0.10162503 -0.029836718 -0.04491654 0.011947849 -0.08717951
-0.023955878 -0.046847176 -0.056781597 0.017596798 -0.05275266 0.040936675 0.047481857 -0.028053297
0.054693304 0.059631396 0.029913861 -0.04537638 -0.0059317816 0.06858553 -0.024992434 -0.03140936
0.08674497 0.039071262 0.036305666 -0.032133166 -0.047697634 -0.044828966 -0.083501495 0.029574728
0.036782708 0.04850025 -0.03126369 0.0016107163 -0.10007761 -0.038641367 0.0064042043 0.035812214
-0.05789354 -0.05185363 -0.00814459 -0.0655406 0.014818586 -0.035679586 0.066478156 0.07806331
0.02491574 0.03874783 0.091838844 -0.0004460985 -0.05576611 -0.009919525 0.07147515 -0.06239356
-0.023633048 0.01824556 -0.025538936 -0.035927355 -0.0344365 0.06957233 0.08870872 0.056613926
-0.09479856 -0.07885782 0.0075409105 0.010342202 0.09788836 -0.021129994 0.0011466022 -0.076768704
-0.05774107 -0.03794889 0.038339593 -0.07545504 0.107591204 0.040678654 -0.020312654 -0.051770743
