checkpoints/hier/checkpoint_serve.pt (torch, 500047 bytes, 32 tensors)

module.base.0.weight f4 [37]
000000 b7 d9 6a 3f 8e 02 81 3f cb ce 82 3f 46 de 8a 3f
       0.91738456 1.0078905 1.0219358 1.0849082
000010 2a 6c 81 3f 9e 75 6a 3f 87 a4 5a 3f 18 ff 91 3f
       1.0111134 0.9158572 0.854073 1.1405973
000020 05 08 80 3f 16 3b 89 3f f0 77 c6 3e bd 45 22 3f
       1.0002447 1.0721157 0.3876338 0.6338766
000030 e6 b1 09 3f be b2 b5 3f a5 f5 96 3f 04 9a a1 3f
       0.53787076 1.4195173 1.1793715 1.2625127
000040 2b ac 8d 3f aa 74 9c 3f 3f 6b d2 3f b4 2b cb 3e
       1.1068166 1.2223103 1.6438979 0.3968178
000050 cf 68 ee 3e df 40 c9 3e c6 7c 02 3f ac 0c 55 3f
       0.46564338 0.39307305 0.5097164 0.8322246
000060 fb c3 7f 3f 16 2c 71 3f c4 92 a9 3f 21 26 a6 3f
       0.9990842 0.94207895 1.3247914 1.2980386
000070 aa 5c 9f 3f fb b7 7c 3f 82 7e 96 3f 0d ae 42 3f
       1.2450154 0.9871823 1.1757357 0.7604683
000080 59 11 e6 3f 4e 38 b5 3f 29 58 40 3f 51 19 3f 3f
       1.7974044 1.4157808 0.7513452 0.74648005
000090 58 11 69 3f
       0.9104209

module.base.0.bias f4 [37]
000000 24 55 3b be 03 5d 1e 3e d7 1b 86 be 9c 34 2c bd
       -0.18294197 0.15465169 -0.26193115 -0.04204236
000010 ab ce 10 3e 21 cd 5f 3e 91 27 8b 3e 97 96 94 3d
       0.14141338 0.21855594 0.27178624 0.07255285
000020 75 a8 03 3e 2a 9e bd 3d 73 d6 fe 3d 1a c9 bb 3e
       0.1285723 0.09258683 0.12443247 0.36676866
000030 48 e3 40 3e e5 54 d9 3b 8c 8a ab 3e e3 e9 ab 3d
       0.18836701 0.0066324347 0.3350414 0.0839422
000040 2a 95 67 3e 1c 6c 46 3e 68 5a 3f bd 43 0d 8f bc
       0.22615495 0.19377178 -0.046717077 -0.017462378
000050 f0 14 d8 3b e3 12 da bc 02 c6 6c 3c a9 74 22 be
       0.006594293 -0.026620334 0.014451506 -0.15864815
000060 a1 17 63 3e 00 3b 3e be c1 d1 9b 3d 57 41 e1 3d
       0.22176982 -0.18577194 0.07608367 0.10998791
000070 80 5b 65 bd 91 49 11 3e ac 60 5f 3e f6 ec a1 3e
       -0.055995464 0.1418822 0.21814221 0.316261
000080 53 1e af bc 84 c5 72 3d 4d ff c2 be da a4 1b 3e
       -0.021376764 0.059270397 -0.38085404 0.15199605
000090 51 7d 56 be
       -0.20946242

module.base.1.layers.0.weight f4 [256, 37]
000000 0a dc 86 bd 59 a5 35 3d 02 eb 91 3e e9 14 75 3e
       -0.06584938 0.04434714 0.2849961 0.23933758
000010 13 c4 4b be d3 8b 85 3d 39 0c 4c be 63 f9 4c 3e
       -0.19899015 0.0652081 -0.19926538 0.20017008
000020 ca c9 11 3d ba f3 87 be 7c 60 2d be 08 79 52 3d
       0.03559283 -0.26553136 -0.16931337 0.051384956
000030 2c 40 81 3e ab 6c a3 3d c2 b2 24 be f2 20 93 be
       0.25244272 0.07979711 -0.16083816 -0.28736073
000040 86 ca 26 3e a4 bf 8e 3e 4f 17 a1 bd d9 5d 94 be
       0.16288194 0.27880585 -0.07865774 -0.2897785
000050 d1 50 71 be 88 2a 9b be e4 9d 04 3e 70 3b 7a bd
       -0.23565985 -0.30305886 0.12950855 -0.06109184
000060 44 a0 a4 be a0 fe a9 bd 4d bd 22 bb 5a 7d a3 be
       -0.32153523 -0.08300519 -0.002483207 -0.31931573
000070 b1 09 bb be d1 1f 3c 3d 6a 47 b9 3d a7 6f 27 3b
       -0.3653083 0.04592878 0.09046824 0.0025548728
000080 f9 c5 b0 be ab 8f 1d 3e 77 59 07 3e ac fd 95 bd
       -0.3452604 0.15386836 0.13217722 -0.07323775
000090 97 f7 a4 bc 9b e5 2e be 00 7f 47 be 51 e5 fb bd
       -0.020137591 -0.17079775 -0.1948204 -0.12299598
0000a0 f8 0c 16 bf 0a 6b 83 be b5 0d 9f bd 0d 6e fd 3e
       -0.5861354 -0.25667602 -0.07766286 0.49498025
0000b0 c1 e0 e8 bd 28 58 44 3d c5 a3 86 3e d5 e8 04 be
       -0.113709934 0.047935635 0.2629682 -0.12979443
0000c0 ae 7f 9e bd b7 65 88 3e c8 96 07 be 09 81 14 3f
       -0.07739197 0.26640102 -0.13241112 0.5800939
0000d0 61 41 b5 bd 31 d7 6d bd 7a b6 86 3d 89 6e 00 bf
       -0.08850361 -0.05806655 0.065777734 -0.50168663
0000e0 6c e8 3d be f2 90 8d 3c 32 bf c0 bc 5c 49 3b 3e
       -0.18545693 0.01728103 -0.023528669 0.18289703
0000f0 38 d8 98 bd 3d 0d 83 3e 4c b7 38 3e cb 48 41 be
       -0.074631155 0.25596038 0.18038672 -0.18875425
000100 a3 e8 48 3e 98 2d 92 3e 66 1b c3 3d 91 52 28 bd
       0.19619994 0.2855041 0.0952671 -0.041094366
000110 cc ba da bd 94 82 a8 be 93 96 5a bb 45 92 5a bd
       -0.1068016 -0.32912123 -0.003335391 -0.05336215
000120 24 de 36 bd 2f fc 45 3e 63 ca 63 bd 33 6a 89 be
       -0.044645444 0.19334482 -0.055612933 -0.26838836
000130 bc 0b 8c 3d c4 86 a3 bd 3e 82 18 3d 5a 02 00 be
       0.06838176 -0.07984689 0.037233584 -0.12500897
000140 cf 72 38 be 56 63 11 bd 5c ba 22 bd 67 db dd be
       -0.18012546 -0.035495125 -0.039728507 -0.43331453
000150 55 d8 9d be 96 c6 31 3c 61 c4 e4 3d 05 11 c9 bd
       -0.3082911 0.010850569 0.11170269 -0.09817699
000160 a7 87 87 be f8 92 fd 3d 12 7b 31 be fc a6 fc 3c
       -0.26470682 0.12381548 -0.17332104 0.030841343
000170 e0 da 94 be 89 2d d1 bd 79 b6 00 be 98 ef 8d 3d
       -0.29073238 -0.10213763 -0.12569608 0.069304645
000180 03 f2 fe bd e8 70 50 3d 84 b4 ce bc 69 1d db bd
       -0.12448504 0.050888926 -0.025232561 -0.10698969
000190 43 ec 0e 3f 1c af c5 3e aa c8 f8 3d 59 e4 69 3d
       0.55829257 0.3861016 0.12147649 0.057102535
0001a0 c9 7f 47 3e da 61 44 3c 03 c3 09 be c1 2e e9 3d
       0.1948234 0.01198622 -0.13453297 0.11385871
0001b0 6b 55 0d 3e 3f b9 b5 bd f3 ac 28 be 51 1c 76 3b
       0.13802116 -0.088732235 -0.16472225 0.00375535
0001c0 64 42 42 be fe a4 9f 3e e2 02 9e bc c5 9e 05 be
       -0.18970639 0.31180567 -0.019288484 -0.13048847
0001d0 f6 91 59 be f4 ab 89 bd 18 cf 89 3c 2f 14 5c be
       -0.21247086 -0.067222506 0.016822383 -0.21492074
0001e0 0f 73 3d be 95 19 7f 3d b4 23 eb bd f8 fe 15 bd
       -0.18500923 0.062280256 -0.11481419 -0.03662011
0001f0 85 bc 2a 3e a0 67 2b bd 81 60 09 3d 0c 3f 2e 3e
       0.16673477 -0.04184687 0.0335393 0.17016238
000200 61 93 0a 3e ea f3 3c 3e 76 a4 ba bc bc 08 c6 bc
       0.13532783 0.18452421 -0.0227835 -0.024174087
000210 8c 13 c1 3d a0 d9 21 3e 77 38 58 be 4d 5b 66 3e
       0.094275564 0.15805674 -0.2111529 0.22495766
000220 e1 d4 b9 3e 51 74 cc bd ea ba e7 bb b6 55 09 3d
       0.36295226 -0.09983123 -0.0070718424 0.033529006
000230 1d 73 41 3e e3 18 e5 3d de bf dc 3c ef e1 0d 3f
       0.18891568 0.111863874 0.026946958 0.5542287
000240 55 86 d4 be c1 b9 6e be 79 5a 3b 3e ba 8f b9 3e
       -0.41508737 -0.23313047 0.18296231 0.36242467
000250 c7 33 cf 3c 58 25 61 3e b1 62 a1 be 8e 2d 23 bd
       0.025293244 0.21986902 -0.31520608 -0.039838366
000260 44 96 a2 be d8 db 6e bd 25 d6 24 3e 76 88 0d 3e
       -0.3175527 -0.058315128 0.16097315 0.13821587
000270 4b ef 4a 3b 8b ad cd 3c d5 4c 02 be 98 2e 67 3d
       0.0030965384 0.025107166 -0.12724622 0.05644092
000280 fe 47 ce bd c0 44 a4 3e 70 6d a2 bd b6 88 64 be
       -0.10072325 0.32083702 -0.0793103 -0.22317776
000290 17 61 44 3e ce c8 60 3e f4 8f ee 3d 70 64 e1 bd
       0.19177662 0.21951601 0.11648551 -0.11005485
0002a0 e8 95 67 be 6a 4a 6d 3d a7 a5 d2 be 35 11 bf 3b
       -0.22615778 0.057932295 -0.41142008 0.0058309087
0002b0 dc 8e d3 3d 90 c0 00 3d 31 4c 50 3e 6d d8 c1 bd
       0.10329983 0.031433642 0.20341565 -0.09465108
0002c0 af 37 32 bd cc c7 db bd d3 89 4d be aa da 90 3c
       -0.043510135 -0.107314676 -0.20072107 0.017682392
0002d0 4a 21 ab 3d e1 66 d4 3d fa 14 29 3d 61 1e 11 bd
       0.08355959 0.10371185 0.04127977 -0.035429362
0002e0 7c 44 30 be e2 b2 f0 3d 64 c9 21 3e db 70 af 3d
       -0.17213625 0.11752869 0.1579948 0.08566447
0002f0 b1 17 89 be 17 b5 92 3e a6 33 1d 3d 67 d2 65 3e
       -0.26775888 0.28653786 0.038379334 0.22443543
000300 2f e2 f6 3b d2 ff 8c be 23 fc 86 bd 38 db 81 3c
       0.0075342874 -0.27538925 -0.0659106 0.015851602
000310 82 3c 13 be 84 b9 eb 3d 71 ef 11 bf 48 1c 0f bd
       -0.1437855 0.11509994 -0.57005984 -0.03493908
000320 8b b0 41 3e d9 33 58 3e c4 ee 3b be 62 34 73 3e
       0.18915002 0.21113528 -0.183528 0.23750451
000330 99 99 e7 3c 2c fc 2e 3e 7b d3 a4 3e f0 ab 08 3e
       0.028271483 0.17088383 0.32192597 0.13346839
000340 4c 59 b2 3d b6 83 c4 3d 76 56 52 3e bb c1 f8 3c
       0.08708438 0.09595434 0.20540795 0.030365815
000350 6d 68 58 be a5 a9 2e bd e2 17 70 3e 56 5e 9e 3e
       -0.21133585 -0.042642254 0.2344661 0.30931348
000360 41 76 3a bd 8a 9a 5f bf c5 81 e3 3e 19 28 b9 bd
       -0.045522932 -0.8734518 0.44434944 -0.09040851
000370 97 4e 1c 3c 75 11 41 3e 08 0f 7e 3c e0 da 81 bd
       0.009540222 0.18854316 0.015506513 -0.06340575
000380 6e de 58 bc 67 e6 48 3d fa f4 5a 3d 13 f3 80 3e
       -0.013236625 0.049047854 0.053456284 0.2518545
000390 e5 68 72 be 37 eb 09 bd 1b 5f c2 3d 7e c4 2e bd
       -0.23672827 -0.033671584 0.09490796 -0.04266786
0003a0 71 3a e0 bd 49 52 63 bd 27 da b6 bd a2 cb 8d 3c
       -0.10948647 -0.055498395 -0.08928328 0.017309014
0003b0 46 41 ca bd 3a 09 e7 be 74 ec 7d 3e b6 79 bc bd
       -0.09875731 -0.45124227 0.24797231 -0.09202902
0003c0 4e fd 3e 3e 13 d3 0a bd db 38 91 bd 35 8e 31 bd
       0.18651316 -0.033892702 -0.070909224 -0.04334851
0003d0 4d 6b b1 bd 1f 63 5d 3d b6 aa 15 be d6 fc 94 be
       -0.08663044 0.054049607 -0.14615902 -0.2909915
0003e0 ff 0d 03 3d 3e 0a f3 bd 19 20 a8 be 77 43 ae 3a
       0.03199577 -0.11867188 -0.3283699 0.0013295253
0003f0 9a cd bb 3d 5b 57 e2 3c ab 6c c6 be f0 20 db 3e
       0.09170075 0.027629545 -0.38754782 0.42798567

module.base.1.layers.0.bias f4 [256]
000000 ea fe 11 be fb 52 13 be 62 b2 d3 3c de 9e 88 3c
       -0.14257398 -0.14387123 0.025841895 0.016677316
000010 37 32 63 3d 60 93 92 bd 97 d7 54 be 6e a3 1a be
       0.05546781 -0.07157016 -0.20785366 -0.15101406
000020 23 3a 85 3c bf 8c 4f be 43 32 89 3d d3 d3 0f be
       0.016263073 -0.20268534 0.0669904 -0.14045648
000030 77 30 fd bd b2 97 4e be 12 f0 0b bd 83 79 29 bd
       -0.123627596 -0.20175055 -0.034164496 -0.04137565
000040 ed 45 8b bd 13 a2 ce bd ad ff 6d 3d fe 26 e0 3d
       -0.06800447 -0.10089507 0.05810516 0.10944937
000050 aa 2f bb bd 21 61 a9 3d 95 75 28 3e 51 30 ff bd
       -0.091399506 0.08270479 0.16451104 -0.124603875
000060 05 9c 3d bd 61 5e f6 bc 76 f9 77 bb a0 37 0a be
       -0.04629137 -0.0300743 -0.00378379 -0.13497782
000070 3b 81 ba bd 4a 78 4d be 5e 19 02 3e 46 de 4e be
       -0.0910668 -0.20065418 0.1270499 -0.20201978
000080 0e af d8 bc b3 99 df bd 32 56 ff bd 69 fc dd 3d
       -0.02645066 -0.10917988 -0.12467612 0.10839159
000090 6a c0 7b be 36 0c d2 bc 0a d5 36 3e 82 a1 0a 3e
       -0.24585119 -0.025640588 0.17854705 0.13538173
0000a0 d3 19 37 3c c5 e6 ca bc e9 f1 b0 bd 68 c1 51 be
       0.011175591 -0.024768243 -0.08639891 -0.20483935
0000b0 46 b3 4a bd 2b e5 05 3d f5 2e 07 3e 84 3c fa 3d
       -0.049487375 0.032689255 0.13201506 0.12218574
0000c0 0d b4 06 3d 30 d2 12 3e 1d af ab 3d 96 5f c6 bd
       0.032886554 0.14337993 0.083830096 -0.096862
0000d0 82 e3 a3 3d c8 5c 05 3d b7 5b 13 be 87 33 06 bd
       0.08002378 0.032559186 -0.14390455 -0.032763984
0000e0 ce 63 49 3c d3 0b eb bd b2 47 3e bd 3e e9 b0 3d
       0.012291862 -0.11476865 -0.046455093 0.086382374
0000f0 18 d2 d8 bd 10 5e 39 be 5b 16 25 3c bd 50 9a bd
       -0.10586947 -0.18102288 0.010076131 -0.07534931
000100 36 d0 29 3e d0 25 2b 3e da 01 15 3e 52 6a c0 3c
       0.16583332 0.16713643 0.14551488 0.023488197
000110 f3 3b 60 bd d2 2f 86 3d c1 bb 4c 3e 58 f8 db bd
       -0.054744672 0.0655209 0.19993497 -0.10740727
000120 78 8b 4f 3e d8 e5 44 bd fb 1e 97 3a 9a 94 d4 bd
       0.20268047 -0.04807076 0.0011529619 -0.10379906
000130 c8 4c bd bd 3f 95 2a bd 99 1a a6 3d c0 38 30 3e
       -0.092431605 -0.04164624 0.08110542 0.17209148
000140 d9 fc 98 bd 86 38 1d 3d 6f b9 b4 3d 2c 90 a3 3d
       -0.07470102 0.038383983 0.08824431 0.07986483
000150 54 b8 29 3e 84 ba ee 3b 3a d1 9b bd 3e 7c 94 bc
       0.16574222 0.007285418 -0.07608266 -0.01812565
000160 69 bb b4 bd dd 8f f7 bd 55 ff da bd 2e ed 74 3e
       -0.08824808 -0.120879866 -0.10693232 0.23918602
000170 78 6d e0 3d 2a 3c 80 bd 3b 2b 0c be 46 fc 15 be
       0.109583795 -0.062614754 -0.13688366 -0.14647016
000180 fd 58 8d bc a8 1d 59 bb b1 a8 c1 3d e1 91 0d 3e
       -0.017254347 -0.0033129249 0.094560035 0.1382518
000190 9c c0 55 be 61 4f 63 bd ff fe ac bd c0 17 23 3e
       -0.20874256 -0.055495623 -0.08447074 0.15927029
0001a0 4c 6f f0 bc 35 0c df bc 20 64 d1 bd 97 ba 9b 3d
       -0.029349945 -0.0272275 -0.102241755 0.076039486
0001b0 a8 37 45 3e d4 b8 3c 3e 4a 1b 86 3d 6b 67 88 be
       0.19259512 0.18429881 0.06548174 -0.26641402
0001c0 b2 4b 22 3e 2c b8 b7 3d f9 87 16 be 63 19 5a 3e
       0.15849188 0.08970675 -0.14700307 0.21298747
0001d0 dc f3 d8 3d 1c 9c 23 be 1a 33 a6 3d c2 c5 b3 bd
       0.105933875 -0.1597752 0.081152156 -0.08777954
0001e0 f4 b6 7d 3d e2 77 a6 3d 3d 25 37 3e 92 4b 81 3d
       0.061942056 0.081283346 0.17885299 0.06313242
0001f0 3c d2 ea 3d 5e ab 2a 3e c0 ac 1c 3d 98 98 90 be
       0.1146588 0.16666934 0.038250685 -0.2824142
000200 2c 9f ea bd fa 3b ee 3b 89 14 14 3e 47 a9 04 be
       -0.11456141 0.0072703334 0.14460959 -0.12955199
000210 71 9b 59 be 55 a3 18 be 82 a4 8a bd b2 80 5a be
       -0.21250702 -0.14906056 -0.067696586 -0.21338156
000220 77 89 25 3e 7c 8f e1 bb 7e 97 12 be 44 14 df bc
       0.1616572 -0.0068835597 -0.14315602 -0.027231343
000230 3e 6d 07 be d2 db 9d bd 83 92 be bc 7b 3f ed bc
       -0.13225266 -0.07707943 -0.023263222 -0.028960934
000240 3d 6f 6f 3c 58 c7 b2 bc f7 df 39 bd 87 a4 2f 3e
       0.014613924 -0.02182357 -0.045379605 0.17152606
000250 40 44 84 bd 0a b9 0c 3e 21 34 b3 bd 6f ec 05 3e
       -0.0645833 0.13742462 -0.08750177 0.13078474
000260 29 17 cb bc 87 22 af 3b 03 d6 0d bd 01 2e 45 3d
       -0.024791317 0.005344692 -0.034627926 0.048139576
000270 77 58 b0 bd 38 41 79 3e 6f a9 3e 3e 9c 96 4d bd
       -0.08610623 0.24341285 0.18619321 -0.05019246
000280 f0 1c 7b 3c 8e 24 9a 3b 19 b0 bf 3c ec 36 99 3c
       0.015326723 0.0047040647 0.0233994 0.018702947
000290 ca 62 a0 bc ab 0c 94 be 23 bd e5 3d ac 97 99 bd
       -0.019578356 -0.28915915 0.112177156 -0.07499632
0002a0 ed 13 d3 bd e6 13 fa bd ec ad 04 bd d7 09 d4 3d
       -0.10306535 -0.122108266 -0.032392427 0.10353439
0002b0 64 b0 39 3e a7 f5 42 be 44 3b c7 bd 68 eb 19 be
       0.18133694 -0.19039021 -0.09728101 -0.15031207
0002c0 df 20 9e bd 37 a0 7d bd a8 7c 41 be e4 99 b0 3d
       -0.077211134 -0.06192037 -0.18895209 0.08623102
0002d0 a5 7b 7a be e1 30 a9 bd 60 e8 08 be e9 aa 08 3e
       -0.24461229 -0.08261276 -0.13369894 0.13346447
0002e0 8a 8c 57 3c cb d6 d6 bd c1 bb ef bd 73 b4 91 3d
       0.013156066 -0.10490187 -0.11705733 0.07114496
0002f0 04 43 06 be 94 dd eb 3d 35 83 75 3d 28 69 1e be
       -0.13111502 0.11516872 0.059939582 -0.15469801
000300 d6 6a de 3d e2 02 22 be 46 8e ff 3b fe 91 19 be
       0.10860221 -0.15821412 0.0077989427 -0.14997098
000310 5f 30 12 3e d8 08 ff 3d c1 17 95 bd cd e4 0a be
       0.14276265 0.12452859 -0.07279921 -0.13563843
000320 d4 bd 5a bd 43 41 08 be 7c b4 39 be 3a 3e 91 bd
       -0.05340369 -0.13306145 -0.18135256 -0.07091947
000330 74 e9 35 be f5 6f da bd c2 dc 8e bd 42 80 5d 3d
       -0.17764837 -0.10665885 -0.069757 0.054077394
000340 f6 5e 5d be 86 38 7d 3d 51 2e 6c be ce a1 30 3d
       -0.21618256 0.061821483 -0.23064543 0.04312306
000350 68 46 8e be 0b 56 b8 3d a0 1c 40 3d 91 ee 02 3e
       -0.2778809 0.090007864 0.0469023 0.12786318
000360 9a 40 46 be 76 78 fb bd 9a b1 09 3e cc de 08 3a
       -0.19360581 -0.122788355 0.13446656 0.00052211876
000370 51 01 5e be 15 8b 51 be f2 ce 9b bd fd 4e a0 bc
       -0.2168019 -0.20463212 -0.07607831 -0.019568915
000380 eb d4 68 be e8 34 34 3d 60 46 f4 bc 61 cc 38 3d
       -0.22737472 0.043995768 -0.029818714 0.045116786
000390 be 52 e8 bd 9a b9 88 be 09 37 29 3e 3b 07 80 bd
       -0.11343907 -0.26704103 0.165249 -0.06251379
0003a0 21 30 b3 bd 04 f8 36 be 4c e7 e8 3d 0d b2 bf 3d
       -0.08749414 -0.17868048 0.113722414 0.09360132
0003b0 fd da d3 bd 4a 36 39 be 68 4b 4c be a5 c4 4e be
       -0.10344503 -0.18087116 -0.1995064 -0.20192201
0003c0 2b 02 08 3e 75 26 81 bd 5a ce 3c be dc 95 4c 3d
       0.13282077 -0.06306163 -0.18438092 0.049947605
0003d0 b1 4d 26 be 79 f0 56 bd 44 36 5a 3d 60 53 6c be
       -0.16240574 -0.052475426 0.053274408 -0.2307868
0003e0 74 54 b3 3d 29 a3 8c bd 02 72 5d 3d 59 56 03 3e
       0.087563425 -0.06867058 0.054063804 0.12825908
0003f0 55 d6 e4 3b a7 48 de 3c 5d 30 9d bc aa 58 15 3e
       0.006983558 0.027134253 -0.0191881 0.14584604

module.base.1.layers.2.weight f4 [256]
000000 7b 2b a6 3f de 2d 6f 3f f8 30 58 3f 6a bb 8f 3f
       1.2982019 0.9342936 0.8444972 1.1229069
000010 f8 59 e8 3e 50 b7 ab 3f 23 06 88 3f f3 0d 0b 3f
       0.4538114 1.3415318 1.0626873 0.5431816
000020 39 24 c2 3f 58 dd af 3f 31 ab 8e 3f d5 24 a1 3f
       1.5167304 1.3739424 1.1145993 1.2589365
000030 98 e5 92 3f 51 39 bb 3f 18 23 67 3f a4 9b 94 3f
       1.1476316 1.4626867 0.90287924 1.1609998
000040 6a d3 71 3f 68 4c 86 3f 0d 3b 65 3f 8f 18 69 3f
       0.9446322 1.0492067 0.8954323 0.910531
000050 79 91 81 3f 5b 29 df 3e 84 62 78 3f 40 81 92 3f
       1.012252 0.4358624 0.9702532 1.1445694
000060 89 65 66 3f 37 2d 9c 3f cd 19 34 3f a3 f7 90 3f
       0.8999868 1.2201298 0.7035187 1.1325573
000070 b0 a4 8e 3f d0 f4 e4 3f f1 3c cb 3f 1b 2c a5 3f
       1.1144009 1.7887211 1.5877973 1.2904085
000080 42 09 24 3f c9 c9 85 3f 30 73 86 3f 60 c9 a2 3f
       0.64076626 1.0452205 1.0503902 1.2717705
000090 e4 e8 1b 3f ee c0 b2 3f d1 18 1e 3f 0b a0 9d 3f
       0.6090224 1.3965127 0.61756617 1.2314466
0000a0 75 3f 68 3f bd c1 0b 3f af fe c5 3f f0 55 6d 3f
       0.9072183 0.54592496 1.5468348 0.92709255
0000b0 28 b4 b6 3f 3a fa e2 3e 49 98 85 3f 07 89 52 3f
       1.4273729 0.44331533 1.0437099 0.8224034
0000c0 12 b0 b9 3f 55 67 82 3f 7a 3f 96 3f a3 e8 d8 3f
       1.4506857 1.0187784 1.1738122 1.6945995
0000d0 6d 64 55 3f f0 f6 58 3f 0c 95 91 3f 5b b5 68 3f
       0.8335636 0.84751797 1.137361 0.90901726
0000e0 f3 69 ad 3f d9 42 8e 3f c9 13 95 3f f9 0e 74 3f
       1.3547958 1.111415 1.1646663 0.95335346
0000f0 22 93 e1 3e fd 29 aa 3f d4 72 86 3f 60 02 8d 3f
       0.44057566 1.3294064 1.0503793 1.101635
000100 cb 08 41 3f 5c f5 74 3f 20 a1 80 3f 1f 95 af 3f
       0.7540404 0.9568689 1.0049171 1.3717383
000110 18 cf 83 3f b8 94 74 3f 42 75 90 3f f8 d7 8a 3f
       1.0297575 0.95539427 1.1285784 1.0847158
000120 97 94 b0 3f 68 db 96 3f aa 42 84 3f 54 f9 8a 3f
       1.3795346 1.1785707 1.0332844 1.0857339
000130 3d a4 b4 3f a2 a6 ca 3e b4 c2 36 3f 08 80 83 3f
       1.4112622 0.39580256 0.71390843 1.0273447
000140 8a 5e 9e 3f fd 87 4c 3f 1d 78 83 3f 0f 97 8a 3f
       1.2372601 0.79895 1.0271031 1.082735
000150 a6 ac 57 3f 2d 3f 77 3f c1 49 73 3f fe d0 38 3f
       0.84247816 0.96580774 0.95034415 0.72193897
000160 f5 15 9c 3f 1c bd 25 3f 10 20 86 3f 30 d3 7f 3f
       1.2194201 0.64741683 1.0478535 0.9993162
000170 61 00 d4 3e ce d8 91 3f 2f d0 b3 3f 7e db 31 3f
       0.4140654 1.1394289 1.4047908 0.69475543
000180 a0 00 5b 3f ac 63 b0 3f 96 3d 82 3f 01 15 9e 3f
       0.8554783 1.3780417 1.0175045 1.235016
000190 71 6c 33 3f 55 2e a1 3f 51 b8 b9 3f 83 60 5e 3f
       0.70087343 1.2592264 1.4509374 0.86866015
0001a0 bb b6 65 3f a2 02 41 3f 08 0b 44 3f 1b c6 26 3f
       0.8973195 0.7539464 0.7657933 0.65146035
0001b0 3e 17 27 3f 0f 73 9c 3f e2 0f 79 3f 12 fa 39 3f
       0.6526984 1.2222613 0.9728986 0.726472
0001c0 a0 cf 27 3f c8 05 00 3f dd 54 84 3f 2e 93 7c 3f
       0.65551186 0.5000882 1.0338398 0.9866208
0001d0 eb 97 8a 3f 07 c5 0a 3f ce 4b 74 3f 25 e8 7b 3f
       1.0827612 0.5420689 0.9542817 0.984011
0001e0 3f 43 83 3f 7d 28 ba 3f 1b 4b 84 3f 67 f0 d0 3f
       1.0254897 1.4543606 1.033542 1.6323365
0001f0 66 b9 a4 3f b2 a3 73 3f c7 fe 53 3f 1b 6d b5 3f
       1.2869079 0.95171654 0.82810634 1.4173921
000200 69 d5 51 3f b7 aa 50 3f 83 10 41 3f 61 ae 6e 3f
       0.81966263 0.8151049 0.7541582 0.9323483
000210 f3 47 95 3f 92 26 9d 3f 9a b0 7a 3f 40 7a 69 3f
       1.1662582 1.2277396 0.9792572 0.91202164
000220 b1 19 5a 3f 66 b9 8f 3f 44 4c 6e 3f 2b c8 04 3f
       0.8519545 1.1228454 0.9308512 0.5186793
000230 5f d7 91 3f d6 f9 9c 3f 3b ea 65 3f 21 bd 55 3f
       1.1393851 1.2263744 0.8981053 0.8349171
000240 28 15 b3 3f 61 40 59 3f 60 a2 5d 3f 02 c5 a6 3f
       1.3990831 0.8486386 0.8657589 1.3028872
000250 ae d0 87 3f db ea 68 3f f4 04 76 3f ae 22 75 3f
       1.0610559 0.9098336 0.9610131 0.9575604
000260 63 7c 74 3f 4a 90 8d 3f 4f 33 9e 3f d1 77 a2 3f
       0.955023 1.1059659 1.2359408 1.2692815
000270 55 b8 80 3f 71 81 75 3f 40 d1 81 3f 1d d6 95 3f
       1.0056254 0.95900637 1.0141983 1.1705967
000280 89 e4 73 3f 0f b9 81 3f 3e f7 62 3f 35 8c 8e 3f
       0.9527059 1.01346 0.8865851 1.1136538
000290 5c e7 9e 3f 10 96 9b 3f 49 c7 b8 3f 2c 46 2d 3f
       1.2414355 1.215517 1.4435817 0.676852
0002a0 09 32 63 3f 28 72 a9 3f b1 87 4b 3f 92 92 87 3f
       0.8874822 1.3237963 0.79503924 1.0591605
0002b0 1a 6b 5a 3f 47 f3 43 3f d4 95 8e 3f ca 91 21 3f
       0.85319674 0.76543087 1.1139474 0.6311308
0002c0 da c4 63 3f 59 a0 a9 3f 7f 29 84 3f c5 cf 77 3f
       0.88972247 1.3252059 1.0325164 0.96801406
0002d0 21 f0 a2 3f 97 fc 90 3f 31 23 75 3f ed d2 ac 3f
       1.2729532 1.1327084 0.9575682 1.350187
0002e0 70 b2 44 3f 77 04 86 3f 8f c7 ae 3f 33 26 b8 3f
       0.76834774 1.0470113 1.365465 1.4386657
0002f0 1c 79 b6 3f 94 8e 8b 3f 49 8e 3d 3f 71 60 97 3f
       1.425571 1.0902886 0.74045235 1.1826307
000300 e3 63 2b 3f 1f d6 0f 3f 4f 09 8a 3f b6 f9 ae 3f
       0.6694929 0.561861 1.0784091 1.3669956
000310 4e 51 76 3f 11 76 38 3f 0f e3 87 3f f5 58 5e 3f
       0.9621781 0.72055155 1.0616168 0.8685449
000320 5a 74 8d 3f c2 48 7f 3f a4 be 2d 3f 30 f0 10 3f
       1.1051133 0.99720395 0.6786902 0.566165
000330 eb b6 93 3f fa 1b 92 3f 96 06 c0 3f 5b a8 b1 3f
       1.1540197 1.1414788 1.500201 1.3879503
000340 3a 15 92 3f ca 09 29 3f f0 ce 57 3f cb 44 49 3f
       1.1412728 0.6603056 0.84300137 0.78620595
000350 8d 44 92 3f 37 c0 9f 3f c8 af 66 3f f1 28 5c 3f
       1.142717 1.2480534 0.9011197 0.8599997
000360 3a d8 9b 3f 45 b5 53 3f 05 0c 84 3f b9 85 99 3f
       1.2175362 0.8269847 1.0316168 1.1993934
000370 c0 74 98 3f 95 b2 94 3f 3e 21 a4 3f 20 dd 53 3f
       1.1910629 1.1616999 1.2822645 0.82759285
000380 5e 01 b9 3f 17 da 6f 3f 50 38 5e 3f 69 2d 83 3f
       1.4453542 0.93692154 0.86804676 1.0248233
000390 19 89 60 3f 2c 30 66 3f 61 61 8e 3f 66 4d 8b 3f
       0.87709194 0.89917254 1.1123468 1.0882995
0003a0 1e 47 a5 3f 81 48 34 3f 89 80 3b 3f 90 0e 68 3f
       1.2912328 0.7042313 0.73243004 0.9064722
0003b0 84 f6 79 3f 6e 02 64 3f be 42 ab 3f 69 4e a2 3f
       0.9764178 0.8906621 1.3379743 1.2680179
0003c0 e0 05 4e 3f 1a 66 64 3f 7f 66 97 3f 98 0a a5 3f
       0.80477715 0.89218295 1.1828154 1.2893858
0003d0 7b 82 73 3f 6c 08 d3 3f 49 89 79 3f 45 40 a1 3f
       0.9512097 1.6486945 0.97475106 1.2597739
0003e0 65 e9 4f 3f 96 a4 0b 3f f2 16 8c 3f 47 3d a8 3f
       0.81215507 0.54548013 1.0944502 1.31437
0003f0 d4 08 a7 3f a1 db 7a 3f 68 bb a9 3f a4 5c 5b 3f
       1.3049569 0.9799138 1.3260317 0.85688233

module.base.1.layers.2.bias f4 [256]
000000 e0 71 79 bd bd fd b5 bd db da 88 3c a6 e8 d0 3d
       -0.060899615 -0.08886287 0.01670592 0.10200624
000010 3f f8 c8 bd 96 c0 03 bd 30 30 c1 bd c1 e2 11 bd
       -0.09812974 -0.032166086 -0.09433019 -0.03561664
000020 44 8f d3 3d 19 5c 7c 3d 6d be 48 bc 0d 91 47 bd
       0.1033006 0.06161127 -0.012252432 -0.048722316
000030 8c 82 64 3a 8a 0c bc bd 84 bf 55 bd a6 76 35 3b
       0.0008716963 -0.09182079 -0.052184597 0.0027689128
000040 34 97 d9 bc 7b db 3c bd b0 55 e1 3d a6 c5 5d 3d
       -0.026561357 -0.04610775 0.11002672 0.05414357
000050 bd 2e 0a bd ba a5 e5 bc 80 89 01 3d a7 ce 30 be
       -0.03373598 -0.028033126 0.03162527 -0.17266332
000060 0c 56 f0 bd 29 d3 38 bd b2 47 4d bd b4 fe 40 bb
       -0.11735162 -0.045123253 -0.050117202 -0.002944869
000070 a5 a4 b6 bc 54 dd 07 bd a2 c3 6a bd 5c a3 63 be
       -0.022295306 -0.03317006 -0.057315476 -0.22230285
000080 9e 7b d4 3b 07 57 21 3e d7 5e a1 3d 8e f7 17 bd
       0.006484463 0.15755855 0.078794174 -0.03710132
000090 f1 f7 a3 bd f7 cf df bc e2 63 9f 3d a7 bd 9e 3d
       -0.080062754 -0.027320845 0.07782723 0.07751017
0000a0 34 7e 77 bd 55 4a cd bc 21 17 79 3c 5c 4f cd bc
       -0.06042309 -0.025059858 0.015203268 -0.025062256
0000b0 8a 44 09 3c 77 37 47 3b fc 72 6a 3d 52 fe 24 3d
       0.008378157 0.003039805 0.057238564 0.0402816
0000c0 38 be 8e 3d aa 4a 24 3e 42 22 83 bd 6d d9 bc bc
       0.06969875 0.16044107 -0.064030185 -0.023052895
0000d0 36 bb a0 3d 7f f0 b6 bd e0 ee 90 bd 75 35 a5 bc
       0.07848208 -0.0893259 -0.07076812 -0.020167092
0000e0 be 4a 68 bd 54 99 1c bd 38 d0 d9 bb 0d b9 8a bd
       -0.056711905 -0.038232163 -0.006647136 -0.06773577
0000f0 70 b2 ec 3c c3 80 b6 bd a4 23 dc 3b 79 b3 95 bb
       0.02889368 -0.08911278 0.006718116 -0.004568514
000100 d3 8f 78 3b ac 60 2a 3e d5 74 c2 3d 43 af c2 bd
       0.0037927523 0.1663844 0.0949494 -0.09506085
000110 95 cc 8f bd 34 0d 9c 3d 3c 8d 1d 3d 55 b9 05 3d
       -0.07021443 0.07619706 0.03846477 0.03264745
000120 f8 5c d7 3d db 2b 17 3d e1 2c 9e bb 62 9e 3a 3d
       0.10515779 0.03690706 -0.0048271273 0.045561202
000130 23 59 de bd 93 10 e0 bd 1e 17 91 bb 3b ae ee 3d
       -0.10856845 -0.10940661 -0.0044278046 0.116543256
000140 3d 52 0b be b5 fb 07 3e 77 a9 f2 3b 28 9f 9c bd
       -0.1360559 0.13279612 0.0074054557 -0.07647544
000150 86 6e b5 3c 97 8c 0b be 47 e2 17 bc a8 08 96 3d
       0.022147428 -0.1362785 -0.009270257 0.0732587
000160 89 7a 9d bc c5 74 67 bd 70 d8 75 bc 48 25 07 3e
       -0.019223468 -0.056507844 -0.015005216 0.13197815
000170 20 56 24 bc 75 60 78 bc de da c5 bd 72 d5 9e 3d
       -0.010030299 -0.015159716 -0.09660886 0.07755555
000180 87 2d 4f 3c f4 13 0a be 9d db 2e bd e3 c1 17 3c
       0.012645132 -0.13484174 -0.04268991 0.009262535
000190 c8 ee 15 3e 9e 6c bb 3d 9d 67 f6 bd d1 d7 0b 3d
       0.14641869 0.091515765 -0.120314814 0.034141365
0001a0 03 00 b9 3c 1f b0 a6 bc b9 f8 98 bd 6d 12 9c 3e
       0.022583013 -0.020347653 -0.07469315 0.30482808
0001b0 ff 6b f2 3d 8f 5a a4 3d 21 df 4e bc 67 a6 54 be
       0.11837005 0.08025085 -0.01262644 -0.20766602
0001c0 a1 ee 30 3c 89 31 92 bc ba 1b 89 3d df ea e6 3d
       0.010799081 -0.017845886 0.066947415 0.11275267
0001d0 85 b9 9e bc 85 65 e3 bd 3c bb 35 3d 46 ec d1 3d
       -0.019375572 -0.11103348 0.044368014 0.10250144
0001e0 1c bb 3f 3d 5c 0d e3 3c 6d ee a1 3d c2 98 a5 bd
       0.0468093 0.027716331 0.07906804 -0.08085777
0001f0 6c e4 c9 3c 90 64 6a bd cb 5d 5c bd 59 5c 81 bd
       0.024645053 -0.05722481 -0.053800385 -0.06316442
000200 a8 da ae bd 4e e2 33 3d 7b 83 a4 bc 98 59 23 be
       -0.08537799 0.043916993 -0.020082226 -0.15952146
000210 30 63 21 be 4f 65 4f bd bd 8b 84 3d 2a eb 3e bc
       -0.15760493 -0.050633725 0.064719655 -0.011652747
000220 85 28 63 bc 5d 74 37 3e 7d 1f 91 bd 30 04 22 3e
       -0.013864641 0.17915483 -0.07086084 0.1582191
000230 d6 17 11 3c 92 2e 5f bb f3 18 89 bd 20 da ad bc
       0.008855781 -0.0034054858 -0.06694212 -0.021222174
000240 94 03 4d bd 93 76 f2 3c 27 70 5d 3d d9 b5 8a bd
       -0.05005224 0.029597556 0.054062035 -0.06772966
000250 2b e8 c2 bd b7 6a d7 bc ff 35 24 3d 47 b9 b8 3d
       -0.09516939 -0.026296003 0.040090557 0.09019714
000260 9b 60 24 3e c7 ab ad bd a9 b8 8c bd 66 db 05 3d
       0.16052477 -0.084800296 -0.06871159 0.032679938
000270 3f 9b a5 bb ab 12 89 3d a6 fb 86 3d 4e da 7b bd
       -0.005053907 0.06693014 0.06590967 -0.06148749
000280 a3 46 6d bc 20 99 49 3d 18 4e 83 bd 35 ce df bd
       -0.014482173 0.049218297 -0.064113796 -0.10928003
000290 1a e0 06 3d 65 21 f0 bd ef fe 9e bd 64 e5 42 bd
       0.032928564 -0.117251195 -0.077634685 -0.047582045
0002a0 81 b6 9c 3c e8 08 c2 3d 76 31 2c 3c e7 97 03 3d
       0.019129993 0.09474355 0.010509839 0.032127287
0002b0 46 f8 3c 3d 56 23 94 bd a7 b4 d2 bd 92 dd 9b bc
       0.04613521 -0.07233302 -0.10288363 -0.019026551
0002c0 65 ad a6 3d 24 2c 18 bd fc e0 03 be 46 ce 9c 3c
       0.08138541 -0.03715147 -0.12878793 0.019141328
0002d0 e0 77 84 bd 7d 32 a8 bd 00 aa 6c 3d 4d 35 ff 3d
       -0.06468177 -0.08212755 0.057779312 0.12461338
0002e0 7a 71 a7 bd 8d 04 9c bd e2 95 b3 bc 76 4f c1 3c
       -0.08175941 -0.076180555 -0.021922056 0.02359746
0002f0 a9 d2 b2 bc 28 ac 5f 3d d5 59 37 3c 97 54 f6 bd
       -0.021828966 0.05460754 0.011190851 -0.12027853
000300 46 a2 55 3d 09 4f 9a bd 7f 8d 80 3d 9b e8 cf bd
       0.05215671 -0.07534606 0.06276988 -0.10151788
000310 56 d4 97 3d ec 40 66 3d b5 37 f5 3c 98 1d 77 3d
       0.07413547 0.056214258 0.02993379 0.060330957
000320 3a 18 47 3d 2c 3a f2 bd f6 1a a2 3c 21 6c 2e 3d
       0.04860709 -0.11827502 0.019788247 0.04258359
000330 66 1a d2 3d 62 3b ca 3c bf 12 a0 bd 32 5f 68 bd
       0.10258941 0.024686519 -0.078160755 -0.05673141
000340 6e 54 da bc db df e7 3c 64 88 dd bd df ac b8 bc
       -0.026651587 0.028304985 -0.1081703 -0.022543369
000350 bb 67 f0 bd 8b 0c 25 bc 65 dc bb 3d c8 8f fc 3d
       -0.11738535 -0.010073791 0.09172896 0.123321116
000360 fe 7e e2 3c 92 db e7 3c 14 3c af 3d 9e dd 2c 3c
       0.027648445 0.028302941 0.08556381 0.0105508845
000370 af 4e ba bd 45 74 4e bd 83 eb 36 bd 66 c0 ad 3b
       -0.09097039 -0.050403852 -0.044658195 0.0053024767
000380 47 85 50 be a9 90 da bc b4 54 9d 3c 92 71 71 3c
       -0.20363341 -0.026680307 0.019205429 0.01473655
000390 47 34 c8 3c 29 af 4f 3c 4f 24 b7 3d c0 c4 d2 3c
       0.02443899 0.012676039 0.08942472 0.025728583
0003a0 08 ed 89 bc 67 2b e0 bd f1 17 f5 3d 4e 30 19 bc
       -0.016836658 -0.10945778 0.11967457 -0.009349896
0003b0 47 e9 07 be b6 f7 1a 3d b5 1a 49 bd d9 5a b5 bc
       -0.13272582 0.03783389 -0.049097735 -0.022138046
0003c0 c4 2d 01 3d 22 be 16 bd 42 0b 99 bd 0b 6f 2b bd
       0.031537786 -0.03680242 -0.074728504 -0.041853946
0003d0 46 21 dd bd c8 2a fd 3c da c8 b1 bd 43 8f c1 bd
       -0.10797362 0.030904189 -0.086808875 -0.09451153
0003e0 5c 7b a4 3d 51 9a e1 bd 5d 9d 8e bd f2 03 14 3e
       0.080313414 -0.11015762 -0.069636084 0.1445463
0003f0 d9 39 8d 3d d0 e3 8c 3d 74 27 6c 3c 24 73 5a bd
       0.06895799 0.06879389 0.014413703 -0.053332463

module.base.1.layers.3.weight f4 [128, 256]
000000 bc 67 ac bc a5 09 83 3d 41 23 95 be 59 8d 9d bd
       -0.021045558 0.06398324 -0.2912846 -0.076929756
000010 64 7b 8e 3d 8f c4 38 bd 5f 51 e5 3d 2c aa 36 3b
       0.06957129 -0.045109328 0.11197161 0.0027872426
000020 bf 81 a1 bd 1d 74 20 3e 18 db 8f bf 9a 06 45 be
       -0.07886075 0.15669294 -1.1238737 -0.192408
000030 ba ca 03 3e 5b 31 b4 3c d5 ea 39 bf e2 3d 13 be
       0.12870303 0.02199619 -0.7262395 -0.14379075
000040 c0 ee 51 be 1a d4 86 bd 90 00 07 bf 7c 9f 29 be
       -0.20501232 -0.06583424 -0.52735233 -0.16564745
000050 81 a7 04 3e 5e 9a 60 bd 41 71 9c 3d 37 5b 94 3d
       0.12954523 -0.054834716 0.07638789 0.0724396
000060 0e 85 ac 3d 39 69 02 3d 07 a0 55 be a7 7a 10 3f
       0.08423816 0.03183863 -0.20861827 0.5643715
000070 28 e2 cd 3c 2d 40 38 3d 83 69 3a 3c 32 f1 50 3e
       0.025132254 0.044983078 0.011377695 0.20404509
000080 90 80 60 be c1 f6 51 bd 7a f2 ac 3d 64 c4 3f bd
       -0.21924043 -0.051260713 0.08444686 -0.046818152
000090 e0 be 19 3e c0 8e 09 be d9 5b fc be 3b 88 dd bd
       0.1501422 -0.13433361 -0.49288824 -0.108169995
0000a0 a4 f7 ce bb f1 b1 68 3e 25 18 e2 bd ba 67 18 3e
       -0.006316142 0.2272413 -0.110397615 0.14883319
0000b0 61 46 81 3c 4f 8a 02 bd 4e 3a 0a be 85 f2 ed bc
       0.01578063 -0.031870183 -0.13498804 -0.029046306
0000c0 96 c8 23 bf eb f5 5a bf 18 65 95 3d b7 d1 a6 bc
       -0.63977945 -0.8553149 0.07294673 -0.020363672
0000d0 01 3b 40 be e3 1c d8 3b 13 b1 b0 bc d7 45 ab 3d
       -0.18772508 0.0065952404 -0.02156881 0.0836293
0000e0 be 48 cc bd ed 22 e1 bd 5b ed 41 3d df e2 24 3e
       -0.09974812 -0.1099299 0.0473455 0.1610217
0000f0 fa b5 3f 3d 83 a3 de 3d 7b 6e fd 3d 4e 31 92 3d
       0.046804406 0.10871031 0.12374588 0.071383104
000100 e8 3f 1b 3e 7f c2 8d 3d 6c 52 99 be c3 a1 02 3e
       0.15161097 0.06921863 -0.29945695 0.1275702
000110 db c4 a9 3d 96 f7 dc bd 18 97 4a bd a7 ac 0e bd
       0.082895 -0.10789411 -0.0494605 -0.034832623
000120 9e 41 6f 3d 6f 47 e5 3d 75 90 d3 bd 49 f6 99 3d
       0.058412187 0.111952655 -0.10330287 0.07517678
000130 5f 04 55 3d e8 4e b2 3c a0 c9 e9 bd b6 25 ac bd
       0.05200612 0.021766141 -0.1141541 -0.0840563
000140 ca 44 b2 3e 58 5f d4 bd 24 13 15 3f 4f 72 8e 3d
       0.34818107 -0.10369748 0.5823233 0.069553964
000150 79 85 27 be 6c 96 54 3e 8b e7 ed bd 98 48 74 bd
       -0.1635951 0.20760506 -0.11616429 -0.059639543
000160 13 78 fb bc c3 a5 4f bd c9 47 1b 3f 07 ee 8c bd
       -0.030696904 -0.050695192 0.6065641 -0.068813376
000170 8f ce a5 bd dc 9f b6 3d 99 ab 2a 3f 91 0d c2 3e
       -0.080960386 0.089172095 0.6666809 0.37900975
000180 cf 58 8f bc 83 44 21 3e f2 17 b1 3e a9 74 82 3d
       -0.017498402 0.15748791 0.3458858 0.063699074
000190 5a f9 39 bf 09 19 09 bf ee 17 a9 3d b9 de d4 3d
       -0.72646105 -0.53553826 0.08256517 0.103940435
0001a0 17 20 8b 3d b7 28 60 3e 08 b7 32 be f7 ee a5 be
       0.0679323 0.21890531 -0.17452633 -0.32408878
0001b0 1c 45 9c be ff 13 c1 be fb ff 17 bd a7 e4 9e 3e
       -0.30521476 -0.37710568 -0.037109356 0.31033823
0001c0 59 3d 12 be f8 99 80 bb 16 e5 04 bd e4 02 98 3d
       -0.14281215 -0.0039246045 -0.032445036 0.07422426
0001d0 10 7f d2 bd 68 d0 f3 38 d9 7f da 3d 9b 37 0e bf
       -0.102781415 0.000116259616 0.10668916 -0.555536
0001e0 d0 9c 81 bf b0 83 02 be 86 73 04 be da 14 8f bd
       -1.012598 -0.12745547 -0.12934694 -0.06986399
0001f0 06 34 08 3e 6e 69 02 3e 71 05 58 3d 73 07 ee 3c
       0.13301095 0.1273553 0.052739564 0.029056286
000200 11 e3 ef 3e 33 93 d8 bc 8c 3e 99 3e dd 58 21 3e
       0.46852925 -0.026437378 0.29930532 0.15756555
000210 b1 b3 b9 3e a2 b8 a5 bd 60 f3 25 be 14 eb 3e 3e
       0.36269906 -0.080918565 -0.16206121 0.18644363
000220 96 74 41 3d 71 c0 cd be 48 66 e0 bb 37 25 2d 3d
       0.047230326 -0.40185884 -0.0068481304 0.04227182
000230 83 db 11 3c 63 c6 51 be 04 9f 86 bd 50 a6 37 3c
       0.008902433 -0.20485835 -0.065732986 0.011209086
000240 9f 57 69 3e c7 e9 99 be ed 13 ee 3d f5 f0 3d 3c
       0.22787331 -0.3006117 0.11624894 0.011593093
000250 a4 e7 39 3e b3 8f 9a bd ad 6f e2 3c 18 1c 2c be
       0.1815477 -0.0754694 0.027641142 -0.16807592
000260 40 a6 d3 bd 07 14 a4 bd d2 b1 de bd c5 43 99 bd
       -0.10334444 -0.080116324 -0.1087376 -0.07483629
000270 d1 f2 6a 3d 71 ac 1d be 19 a1 ae bc 48 81 cf 3d
       0.057360474 -0.15397812 -0.021317052 0.1013208
000280 6c b3 e9 be 95 2a 32 bc 34 31 90 bc 0d 72 c3 bd
       -0.456447 -0.01087441 -0.017601587 -0.09543238
000290 e3 ed 82 bd 32 3c 9e 3e 4a 8c 17 3e b7 95 19 3e
       -0.063930295 0.309053 0.1479961 0.14998518
0002a0 ff d6 d8 bd 63 6f 8d 3c d2 a9 97 bc 06 98 80 bb
       -0.10587882 0.017265027 -0.018513594 -0.0039243726
0002b0 be a5 2c be 85 a4 46 3d 4f c0 66 3c 55 66 29 3e
       -0.168601 0.04849674 0.014083936 0.16542943
0002c0 e9 63 33 be e5 fb b7 bd 07 89 e6 bb 2c 90 25 3e
       -0.17518581 -0.08983592 -0.007035378 0.16168278
0002d0 cb 7e 52 3e e5 f3 f1 3e cb 6e ce bd 4b 38 93 bf
       0.2055618 0.4725639 -0.10079726 -1.1501554
0002e0 35 15 b4 3e 0b 11 01 be fb 70 bd bd 47 af cd 3c
       0.3517243 -0.12604158 -0.09250065 0.025107993
0002f0 b1 74 d9 bc 08 4f 2a be eb e9 ba bd 69 16 0d 3d
       -0.0265449 -0.1663171 -0.091266476 0.0344452
000300 00 36 c0 bc 80 1c ad ba 54 74 0e 3e e3 8f 01 3e
       -0.02346325 -0.0013207346 0.13911563 0.12652545
000310 51 90 05 3c 66 24 36 3c 74 6a 2b 3e 5a 31 85 be
       0.0081520835 0.0111170765 0.16739827 -0.26014215
000320 d6 95 f4 3e 55 b4 df bc c7 8b 49 be 08 da 2c bd
       0.47770566 -0.027307669 -0.19682227 -0.04220012
000330 e5 39 44 be 36 3d a2 bd b3 ee 90 be a1 c5 35 3e
       -0.1916271 -0.07921831 -0.28307113 0.1775117
000340 ad 6f 25 3e 69 d8 2a bd b7 bd 09 3e 60 2b 81 be
       0.16155882 -0.04171029 0.13451277 -0.25228405
000350 7f af 16 3e 79 47 85 be a4 c3 ff bd ff 61 68 3d
       0.14715384 -0.26031092 -0.12488487 0.05673408
000360 c1 4e 9b 3e cb 8e ca 3d 71 84 29 3d 08 33 4c 3c
       0.30333522 0.09890517 0.04138607 0.012463339
000370 4b 4f 03 3f 4f 28 80 bc 70 bf 8c 3f f4 3d 0f bd
       0.51292866 -0.01564422 1.0995922 -0.034971192
000380 bd 29 0b 3e c6 07 5a 3d a7 cb a6 3d ec 26 ef bd
       0.1359014 0.05323007 0.08144312 -0.11677346
000390 02 4a 9e 3d be 18 9d bd cd f0 22 bf 2b d1 a0 3e
       0.077289596 -0.07670735 -0.6364868 0.31409582
0003a0 01 36 df 3d af 7a c6 bc ba da 76 3d 0c 74 46 3e
       0.10898972 -0.024228422 0.060267188 0.19380206
0003b0 e8 0e da 3d 7a a4 41 3e e7 1a 03 3e b0 76 42 be
       0.106473744 0.18910399 0.12803231 -0.18990588
0003c0 8f 3d 0c bd 87 be 1f 3e 0e 3d 34 3e b1 15 01 3e
       -0.034238394 0.15600024 0.17601416 0.12605931
0003d0 87 e5 33 be 9e 83 90 bd 7a d9 9a 3e 72 c3 d7 3e
       -0.17568026 -0.07056354 0.30244046 0.421413
0003e0 a2 cb 12 3e 21 2b a6 3e 3b f0 49 3c 91 d4 87 3d
       0.14335492 0.3245478 0.012325342 0.06632341
0003f0 83 cf f4 3c 42 b1 0d 3b da ce 06 be c0 be 56 bd
       0.029884106 0.0021620546 -0.13164845 -0.052428007

module.base.1.layers.3.bias f4 [128]
000000 58 ab 32 be 1c 11 48 bd 81 e6 70 3d ba 35 1f be
       -0.17448175 -0.04884444 0.058813576 -0.15547839
000010 6b 9c 8a bd 4b 39 db bb c9 53 d6 bc ee 3f 30 be
       -0.067681156 -0.0066901795 -0.026162999 -0.17211887
000020 2c a7 6e be 02 54 f9 bd 56 8e 11 3c 9b 84 bd bc
       -0.23305959 -0.12174226 0.008884033 -0.02313452
000030 a4 d9 0b be 83 25 1c be 05 33 3d be 53 50 12 be
       -0.13657242 -0.15248685 -0.18476494 -0.14288454
000040 04 40 79 bd ab 64 c2 3c 15 cb a3 bb b2 07 8f bd
       -0.060852066 0.023729643 -0.0049985745 -0.0698389
000050 2d 64 bb bc 29 5b ef 3a cb 4c 23 3d ab b5 86 be
       -0.022874916 0.0018261421 0.039868157 -0.26310477
000060 ff bf 97 3b 64 95 11 3b a6 78 79 b9 ae 07 d5 bd
       0.004631042 0.0022214288 -0.00023791436 -0.104018554
000070 05 d9 f2 bd 0e f8 a0 bd 12 d5 b9 ba ac fd 05 be
       -0.118577994 -0.07859813 -0.001417788 -0.1308505
000080 d2 2d 79 bd 5e c6 9e be ac 4f 91 bd 19 63 1b be
       -0.060834713 -0.31010717 -0.07095274 -0.15174522
000090 9e 6b 5b bf 4c d3 9e bd 51 2b af be 40 b9 6a bd
       -0.85711086 -0.077551454 -0.34212735 -0.057305574
0000a0 80 89 b7 bd 28 35 51 3d 45 ca c4 3c 10 df 29 be
       -0.08961773 0.051076084 0.02402223 -0.16588998
0000b0 ef c9 00 be d3 d4 26 bc 8e 67 4a 3b b4 85 e8 bd
       -0.12577032 -0.010182577 0.0030884477 -0.11353627
0000c0 5d ff 38 be c3 ca 90 bd f7 5f da bc ef d9 14 bc
       -0.18066163 -0.07069924 -0.026657088 -0.009085163
0000d0 e7 97 f3 3c c1 d4 16 be 0a 3b 3a be 74 a4 6b bd
       0.029735519 -0.14729597 -0.18186584 -0.05752988
0000e0 c0 47 97 bd c8 84 a8 bd 4f 53 03 bc 4f 5c 05 be
       -0.07386732 -0.08228451 -0.008015468 -0.13023494
0000f0 67 d1 70 bd 78 8a a5 bd 61 1c 3c be ed a9 3f bd
       -0.05879345 -0.080830514 -0.183702 -0.046792913
000100 d3 31 bc bd f9 8c 86 bd db 1d 55 be 90 05 b3 3c
       -0.09189191 -0.06569857 -0.2081217 0.021853238
000110 1a 52 24 bd 33 ab 59 bd 1d 8e db bd 82 d5 98 bd
       -0.04011736 -0.053141784 -0.10720465 -0.074625984
000120 b4 af 32 be a7 17 a4 bd ce c7 8a 3d 9e 9e a0 bd
       -0.17449838 -0.08012324 0.06776391 -0.07842754
000130 ff d8 3d be 07 4b 16 be 1a 79 f8 bd 06 de 25 3e
       -0.18539809 -0.14677058 -0.12132473 0.16197976
000140 d5 d3 c9 bd bc 3f ab bd 29 84 66 3c c7 16 36 3d
       -0.09854857 -0.08361766 0.014069595 0.044455316
000150 ff 51 95 3c cb 52 18 3d 9e 3e 8b bc 86 77 47 bc
       0.018227575 0.037188333 -0.016997632 -0.012174493
000160 62 62 06 3c 76 2f 01 be c3 e4 8e be df fc 16 be
       0.008202167 -0.12615761 -0.27908906 -0.147449
000170 5a ad c0 3c 1d 11 4b bd 7c 99 a6 bd e4 64 ea bd
       0.02352016 -0.049576867 -0.081347436 -0.114450246
000180 04 3a ba 3c ef d1 0f bb 85 7f 80 3a 6c 11 b0 bc
       0.022732742 -0.0021945199 0.0009803629 -0.021492682
000190 16 f4 f6 bd ee 78 05 bd 49 28 31 be f6 21 90 bd
       -0.120582744 -0.03258603 -0.17300524 -0.070377275
0001a0 13 99 36 bd 4c c4 1b 3c 95 76 d3 be f4 dd e1 bc
       -0.044579577 0.00950725 -0.41301408 -0.027571656
0001b0 ff d9 e3 3c d6 9c 10 be 05 1d 25 bd d4 d7 2a be
       0.02781391 -0.14122328 -0.04031088 -0.16683894
0001c0 a7 b2 91 bd 54 d3 61 bd 1c 52 47 bd 28 74 68 be
       -0.07114153 -0.05513318 -0.04866229 -0.2270056
0001d0 b0 1c fc bd 5a 2e 19 bc 44 55 25 3d 3d fb 0b be
       -0.12310159 -0.00934943 0.04036452 -0.13670059
0001e0 71 e4 d3 be a8 d2 1f 3b c7 ba 82 3c 6b 9f 89 bd
       -0.41385224 0.0024387036 0.015958203 -0.0671986
0001f0 36 4e 10 be ee f0 cd bd ce ab 89 3d 4c a0 6f bd
       -0.14092335 -0.10055719 0.06722222 -0.05850248

module.base.1.layers.5.weight f4 [128]
000000 bf 9d d1 3f db 5f a1 3f 1b a2 f7 3f 1d c9 ad 3f
       1.6376265 1.2607378 1.9346346 1.3577
000010 14 82 96 3f f6 3e c7 3f 7a 20 ad 3f 83 92 7c 3f
       1.1758447 1.5566089 1.3525536 0.9866106
000020 c1 a7 9e 3f a0 32 9b 3f 05 98 d3 3f e1 cc 8f 3f
       1.2394944 1.2124825 1.6530768 1.1234399
000030 b6 dd 7e 3f f6 04 5f 3f f7 94 c1 3f 7d a1 9e 3f
       0.99557054 0.87116945 1.5123585 1.2393032
000040 cc d0 ee 3f 07 74 ba 3f 5e 0e 84 3f b1 0f fd 3f
       1.865747 1.4566659 1.0316885 1.9770414
000050 b9 4d 85 3f fe 61 82 3f 83 66 c5 3f 85 68 e9 3f
       1.0414344 1.0186155 1.5421909 1.8235022
000060 64 07 8e 3f 1b 1b 97 3f db e6 88 3f 49 53 6f 3f
       1.1096005 1.1805147 1.0695451 0.9348646
000070 cb 76 a4 3f 00 f9 73 3f 68 85 9f 3f 1e a1 93 3f
       1.2848753 0.9530182 1.2462587 1.1533544
000080 1d cc 98 3f 6a 0c ad 3f 6c 8f 99 3f f8 db 89 3f
       1.193729 1.3519413 1.1996894 1.0770254
000090 f4 e7 00 40 92 da aa 3f a6 69 39 40 1e 29 97 3f
       2.0141573 1.3347952 2.8970733 1.1809423
0000a0 4a 2b bd 3f ef 6d b0 3f c5 c9 b5 3f 0c ce 8b 3f
       1.4778836 1.3783549 1.42022 1.0922256
0000b0 02 e8 a6 3f ac bb bc 3f 54 9c 9d 3f 16 a9 99 3f
       1.3039553 1.4744773 1.2313333 1.2004726
0000c0 c4 b2 99 3f eb 4f ce 3f 89 38 bc 3f 2b b6 93 3f
       1.200768 1.6118139 1.4704753 1.1539968
0000d0 3c 40 8b 3f c3 8f af 3f 67 32 8e 3f 7d 99 ee 3f
       1.0878978 1.3715748 1.1109132 1.8640591
0000e0 91 c9 64 3f 4b ec 94 3f 88 78 96 3f 5c fe 62 3f
       0.89370066 1.1634611 1.1755533 0.8866937
0000f0 11 5c b3 3f 25 0d 8b 3f 3d ec a9 3f 44 4e e1 3f
       1.4012471 1.0863386 1.3275219 1.760201
000100 84 88 99 3f 4c 64 d3 3f 42 26 b1 3f 6e 2f 83 3f
       1.1994786 1.6514983 1.38398 1.0248849
000110 12 c2 d2 3f 18 55 a5 3f 50 ea be 3f ed d3 a4 3f
       1.6465476 1.2916594 1.4915257 1.2877175
000120 24 99 fa 3f 27 67 92 3f 2a aa 97 3f 6e af f1 3f
       1.9577985 1.143773 1.1848805 1.8881662
000130 9c 99 72 3f 10 30 f5 3f 3a 03 d7 3f ac 77 be 3f
       0.9476564 1.9155293 1.679786 1.4880271
000140 f0 fc ca 3f 44 b0 ce 3f 06 f7 bd 3f 6d 93 a2 3f
       1.585844 1.6147542 1.484101 1.2701241
000150 73 33 98 3f e7 8c 9a 3f 86 48 9e 3f 0c d2 8b 3f
       1.1890701 1.207425 1.2365882 1.0923476
000160 6a f6 a7 3f 0d 94 ba 3f d5 7c 96 3f 34 ba 9d 3f
       1.3122075 1.4576432 1.1756846 1.232245
000170 ea 23 9b 3f da 32 70 3f 5a 72 ac 3f da 2b 91 3f
       1.2120335 0.93827593 1.3472397 1.1341507
000180 11 18 b2 3f dd 90 bc 3f d2 2d c6 3f 74 13 cb 3f
       1.3913594 1.4731709 1.5482733 1.5865312
000190 26 c9 6c 3f e1 00 f4 3f c6 7e 2f 40 0f 28 76 3f
       0.9249443 1.9062768 2.7421126 0.96154875
0001a0 78 7e b6 3f 91 b6 9a 3f 2c 5f db 3f 91 bb 9a 3f
       1.4257345 1.2086965 1.7138419 1.2088491
0001b0 34 57 82 3f 30 ff 66 3f 4b 9b a9 3f a3 57 88 3f
       1.0182862 0.90233135 1.3250517 1.0651745
0001c0 d5 14 a9 3f f9 c3 eb 3f f6 71 60 3f b6 b6 01 40
       1.3209482 1.8419181 0.8767389 2.0267768
0001d0 6e f8 b2 3f 63 4f 72 3f f3 5f b2 3f 41 63 a2 3f
       1.3982065 0.94652385 1.3935531 1.268654
0001e0 4c 8e 03 40 ed ab 9a 3f f7 10 7c 3f 4e 15 96 3f
       2.05556 1.2083718 0.98463386 1.1725252
0001f0 e7 fa 98 3f d9 8b 88 3f 1f c8 ad 3f 7e 81 93 3f
       1.1951569 1.0667678 1.3576697 1.1523893

module.base.1.layers.5.bias f4 [128]
000000 be 93 5a be f9 9b 72 3e d4 26 c8 be 1b 05 81 bc
       -0.21345422 0.23692311 -0.39092124 -0.015749505
000010 0e 78 6c bd a0 2b 50 be c7 95 58 bd 21 e6 98 bd
       -0.05773168 -0.20329142 -0.052877214 -0.074657686
000020 85 3e 8e bd 97 d6 d1 bd 4f e0 0a 3e 5b 05 df bc
       -0.069455184 -0.10246008 0.1356213 -0.027224233
000030 63 14 44 bd ad 10 5e 3e 56 4f 8c be a3 77 e7 3e
       -0.047871005 0.21686049 -0.2740428 0.45208463
000040 68 49 92 be e4 d9 8a 3e 13 13 1e 3e 5d 79 25 bf
       -0.2857163 0.27119362 0.15436964 -0.6463831
000050 f7 f2 8b 3e 8f 0c e6 3d 9e e9 d0 3e 78 a7 aa be
       0.27333805 0.11232864 0.40803236 -0.33330894
000060 8f e2 a9 bc 5e 0b 1b 3e 49 85 63 be a5 2f 95 bd
       -0.020737914 0.15141055 -0.22218813 -0.07284478
000070 6b 04 7d be 8d 5d 6b be 4c 3c 86 3e 27 f0 14 3e
       -0.24708717 -0.22984906 0.26217878 0.14544736
000080 b5 c3 c3 3e 2c 16 91 be 16 1a 4a 3e d0 3a a5 3e
       0.3823525 -0.28337228 0.19736513 0.32271433
000090 81 a9 81 be ac 35 9a 3d 5e 92 d9 be 4a e8 98 3e
       -0.25324634 0.07529768 -0.42494482 0.29864722
0000a0 a2 8c 79 be 84 21 8b be 92 a6 12 3e 32 6f cb bc
       -0.24370053 -0.27174008 0.14321354 -0.024833295
0000b0 aa c3 06 be 81 d8 8f 3d f3 11 79 3e 4d f4 ef 3c
       -0.13160577 0.07023717 0.24323253 0.029291296
0000c0 9b f9 4f 3f bc 3c 9d be 57 89 b8 3d ed 82 49 3d
       0.8124024 -0.307104 0.090105705 0.049197126
0000d0 a2 9d 2e 3d 06 bd 23 3e b1 f6 cb be 74 12 bd be
       0.0426308 0.15990075 -0.39836648 -0.3692814
0000e0 75 b0 d6 3d 16 7b cc bd 70 23 4a bd 83 8d 73 3c
       0.10482875 -0.09984414 -0.049350202 0.014865282
0000f0 0b 7d df 3e d5 0b 34 bd 33 6e 2f be 10 db 93 be
       0.43650088 -0.043956596 -0.17131881 -0.2887807
000100 ec e9 93 bb e0 db 22 be ca a4 ab be 92 db 6c 3e
       -0.0045139696 -0.15904188 -0.33524162 0.23130634
000110 ee 63 02 bf 6e 7d 27 3d f7 9e 4d be 24 6b 84 3e
       -0.5093373 0.040891103 -0.20080172 0.25862992
000120 d2 f8 c5 be 2d 5c ec bd e5 1c a4 bb 5d ab 19 be
       -0.38666397 -0.11541019 -0.0050083273 -0.15006776
000130 ff 66 53 3e da f7 8c 3e 97 ff 96 be f6 6f e4 3e
       0.20644759 0.27532846 -0.29491875 0.4461667
000140 18 19 11 3e d3 51 93 be 98 eb 50 3c f0 65 ea be
       0.14169729 -0.28773364 0.012751482 -0.45780897
000150 91 d9 07 3e 85 b4 a3 3e 87 68 00 3d ec 5b 98 bc
       0.13266589 0.31973663 0.031349685 -0.01859852
000160 d3 0f e2 bd 52 19 1c 3d 85 10 11 bf ae f6 4a 3d
       -0.110381745 0.038110085 -0.5666583 0.04955166
000170 7d d7 5d 3e 75 bf 9f bc 77 90 7c be 34 1b 24 3d
       0.21664234 -0.019500474 -0.24664484 0.040065005
000180 c7 09 02 3f a6 d5 bf 3e 4f b4 ff 3d 0a 1b e7 bd
       0.5079617 0.37467688 0.12485563 -0.11284454
000190 d1 d6 bd 3d ad 50 dc be a0 8f 1c 3d d1 eb 49 3d
       0.092694886 -0.430303 0.03822291 0.049297158
0001a0 e0 5f b7 bc 52 fa d3 bc f0 c3 d1 bd 15 f6 b1 3e
       -0.022384584 -0.025876198 -0.1024245 0.34758058
0001b0 3f f9 ba 3d 75 e6 7d bd 9d b9 26 bd 26 40 e6 bb
       0.09129571 -0.06198736 -0.04070436 -0.00702669
0001c0 b1 d9 27 3d 04 1d a6 bd 8a 21 31 3e 61 b2 0f 3f
       0.04097909 -0.08111003 0.1729795 0.5613156
0001d0 68 bb ad 3e 2e d7 c9 bc 62 13 46 3e b5 b4 d0 be
       0.33932042 -0.024638738 0.19343331 -0.4076287
0001e0 05 d1 b5 be 85 f7 3d 3f 5a a5 c3 3e f9 23 08 3e
       -0.35511032 0.7420581 0.3821209 0.13294972
0001f0 76 ad 03 3e 89 fd a9 3e 93 be c9 bd 49 03 b8 3e
       0.12859139 0.33201244 -0.09850802 0.35940006
