checkpoints/hier/checkpoint_serve_hover.pt (torch, 477821 bytes, 32 tensors)

module.base.0.weight f4 [26]
00000000: 82ed cd3f dcc1 a73f 29f9 bf3f 7886 933e
00000010: 8182 723f d5f8 193f b1ca 663f 3038 b13f
00000020: 6c55 963f af17 423f 4eba 093f 7aa4 d53e
00000030: 5f9b 8f3f 6e09 a23e 866d 943f 7bdb 503f
00000040: 9ee7 5e3f 885b 9a3f 591d 2e3f 9084 f13e
00000050: aaba 143f f466 0b3f fe7b 113f 761b 8c3f
00000060: d77d b03f 78d3 553f
1.6088107 1.3106036 1.4997913 0.2881353 0.94730383 0.6014531 0.9015303 1.3845272
1.1744819 0.7581739 0.53799903 0.41727048 1.121929 0.3164782 1.1595924 0.815849
0.8707217 1.2059183 0.6801353 0.4717145 0.58097327 0.5445397 0.5682982 1.094588
1.3788403 0.835258

module.base.0.bias f4 [26]
00000000: 43fc 4e3f f291 dc3e f2d8 c13e 20d2 40bf
00000010: 332f c53e 3e32 e73e b065 d83e 84e9 e83d
00000020: 6208 d93e c3da e13e 1fef 013f e0c0 1ebd
00000030: 69c9 f23e aedf 4abf f0e0 013f 5981 4c3e
00000040: 6b4f 313f 20a4 fb3e dcb1 12bf e2f9 95be
00000050: c6ef 86be f128 8ebe 501a c5be 5227 f23e
00000060: fd0c b43e 9807 123f
0.8085367 0.43080097 0.3786083 -0.75320625 0.38512573 0.4515552 0.4226508 0.113726646
0.42389208 0.44112214 0.50755495 -0.03875816 0.4741929 -0.7924756 0.5073385 0.19971217
0.6926181 0.49148655 -0.5730264 -0.29292208 -0.26354808 -0.2776561 -0.38496637 0.47295624
0.3516616 0.5704284

module.base.1.layers.0.weight f4 [256, 26]
00000000: 62ca 68bf 4240 043f 7310 cf3e e300 1dbe
00000010: 2103 78be 4e3d d03c 4a5a 8bbd 1855 9b3e
00000020: d378 00bf 6963 5fbd 0cbd 7ebe 66dd 3cbe
00000030: 6add a9be ce4a e53e e71e 4a3d fe73 523f
00000040: 87e4 05bf 1c93 943e 5025 983d 7367 e23e
00000050: 3930 b13e 3f1a 8d3e 2b75 cd3e 5eac 5ebd
00000060: cdc7 123e b6c0 22bf 9f06 223f ba21 81be
00000070: 65c9 a1be d537 a5bd 08e1 3b3d 7821 8bbe
00000080: bd0d 3b3d 4c3a 5f3e 1a3a 533e f988 87bd
00000090: 7748 543e 58a2 b83e 41e4 043d 9a75 43be
000000a0: 81cf 1b3f de97 a23d 1e8e 69be 6e12 463c
000000b0: 63e9 273e 9e2e e23d a202 4a3d 665f 4bbe
000000c0: fc09 523d d168 0f3f 75b9 04bf 60da 13be
000000d0: bce6 0a3f aead 443e b96b 7b3d 1f5e a23e
000000e0: 5fbc 8fbe 51d7 22be 4138 10bf 8016 d33e
000000f0: e461 05be 47d7 903e 6ff3 e9bd 256b d23e
00000100: ef59 653e 8b37 b73d fdcc d7be 7f15 60be
00000110: 44d8 fb3c b941 923d bc5a ad3d 6485 4b3e
00000120: 9cec 64be 5ebc c43e 8698 a93e 930f d6be
00000130: 0055 813d 4c4e 95be d4ed fe3d 1b84 e1bd
00000140: 6eb3 63be 87ee 8dbd fe81 8e3f b428 bfbd
00000150: df9a 973c 139d 113e 20c3 a0bf afd5 993e
00000160: 5c3f 603e dc99 cd3c 3a25 843e 3052 a2be
00000170: 637d 053f 74a6 bdbd fb4e 873e c3c8 68bf
00000180: 37d8 5cbf 043f 3f3d 0e38 023e 220d a53e
00000190: 2aed ed3d c188 8c3f 8e6a 873f 851c 1f3f
000001a0: b982 8abd 1304 99bd b338 763e cc84 92bb
000001b0: 3c81 aa3d 1196 5a3d c1b3 4e3c b855 ee3d
000001c0: f8da 6bbd 73d3 bcbd 0aa9 cfbd 1543 03bf
000001d0: 42ec 28bd 9fed fe3d 2d03 45bd a0cb bcbe
000001e0: a869 283f 7d34 51bd 190d b23e a2ca 5a3d
000001f0: a51f a23e dd23 74be e042 ff3c 04d6 3bbf
00000200: 77e2 bdbd 3c77 503e b643 3f3e 0baf 0c3d
00000210: 82d3 06bf fa73 913e 8d75 40be 27eb ce3d
00000220: 3dd2 ae3d 187c 2c3f 7531 17be 6cb0 28be
00000230: 0d9a 7dbe 72c1 b6be 0b9b 353d 1b68 e2bd
00000240: 0e53 883b 85fb 263e 6c2c 98be 33f8 14be
00000250: 66ee e13a a8ce 7a3b 9c7d 823d 58e6 993e
00000260: 0205 d23e 7f0e 8d3d fb83 c7bc bcac 74be
00000270: 526f 9e3f 5aa8 8dbe cc35 853e fff8 3e3d
00000280: ab55 03bf d1e3 fcbe 9c10 44bf a279 9e3e
00000290: 9219 fd3d 5656 42bc bfe2 17be 6c42 c43e
000002a0: 01b4 20bf 8ab3 2cbd bcac 28bf b5f9 04bd
000002b0: 6534 29bf 292a 72be 288a 923d 2acd fa3e
000002c0: 5f5c 583e 5a94 143f 7d29 673e 95c7 b5be
000002d0: bd1a 1bbe 54d8 e8be 0069 0d3d 6227 ac3f
000002e0: ba3b 1a3f caeb a43c e877 473f 6dd9 86be
000002f0: ea06 10be dd08 933c a72b 04c0 998d ad3e
00000300: e1ef 433f c412 343e 8e35 78bf 6dcd 2bbf
00000310: 75e4 1f3f 07bd c2bd 7d00 b23e 4efa c1be
00000320: 6b74 a8bf 6dc4 6e3e 772d 7bbe b2a4 a23e
00000330: 24e9 5e3e 3fcf 833f e1de 8b3f 0f98 293f
00000340: 32d4 293f c504 df3c f01a a2be 9eb9 823e
00000350: 5806 94be 1c7a 363e d194 1ebf b854 a2be
00000360: 6662 a73d 23b2 cebd cf55 0e3e 66e9 6dbe
00000370: d6c7 973c 820f 29bc 7128 01be 942b 29be
00000380: 14f2 49be d10b 973d dab9 333e 6dbc 043e
00000390: e277 f23d 74c4 df3e 8f2b c53e 7c60 49be
000003a0: 880a 02bf 7926 b2bd fa02 5f3f 5fef a1be
000003b0: 9b5e f4be 907e e23d d00e 30be 03f3 a53e
000003c0: 5441 16bf fd38 e8bd 490e afbe a521 6cbb
000003d0: 8cd3 46be 982a a8be 3f41 853e fba7 023d
000003e0: 364d dfbe ea29 34be 2847 473f 6c93 a9be
000003f0: f88f 2a3e fddf 053f c5ea 0d3f 9746 8a3e
-0.9093381 0.5166055 0.40442237 -0.1533237 -0.24219944 0.025419857 -0.06804331 0.3033836
-0.50184363 -0.054538164 -0.24876803 -0.18443832 -0.33176738 0.44783634 0.049345877 0.8220824
-0.5230183 0.29018486 0.07428992 0.4421955 0.34607103 0.27559087 0.40128455 -0.0543636
0.1433403 -0.63575304 0.63291353 -0.25221044 -0.31598964 -0.0806729 0.045868903 -0.27173972
0.0456674 0.21799582 0.20627633 -0.06617922 0.20730768 0.36061358 0.032444242 -0.1908783
0.608635 0.079391226 -0.2280812 0.012089355 0.16397624 0.11044048 0.049318917 -0.1986061
0.051279053 0.5601931 -0.51845485 -0.14438772 0.5425832 0.19206879 0.06138203 0.31712434
-0.28073403 -0.15902449 -0.56335837 0.41228104 -0.13025624 0.28289244 -0.114233844 0.4109737
0.22397588 0.08946141 -0.4214858 -0.218832 0.030742772 0.07141442 0.08464572 0.19875103
-0.22355884 0.38424963 0.3312418 -0.41808757 0.063150406 -0.29161298 0.12447706 -0.11011525
-0.22236416 -0.06930261 1.113342 -0.093339354 0.018506465 0.14220075 -1.2559547 0.3004584
0.2189917 0.02509778 0.25809652 -0.3170333 0.5214445 -0.09260264 0.26427445 -0.9093134
-0.8626742 0.046690956 0.12716696 0.32236582 0.11617501 1.0979234 1.0579393 0.6215289
-0.067632146 -0.0747148 0.24045067 -0.004471397 0.08325431 0.05336577 0.012616099 0.11637443
-0.05758187 -0.09220018 -0.101396635 -0.51274234 -0.041240938 0.124476664 -0.04809873 -0.36874104
0.6578622 -0.051075447 0.34775618 0.053415902 0.31664768 -0.23841806 0.031159818 -0.73373437
-0.0927171 0.20357984 0.18678173 0.03434662 -0.52666485 0.28408796 -0.18794842 0.101034455
0.085361935 0.6737685 -0.1476496 -0.1647355 -0.24765797 -0.35694462 0.044337314 -0.11055013
0.0041602915 0.16306885 -0.2972139 -0.14547805 0.0017237186 0.003827015 0.06371614 0.3005855
0.41019446 0.068875305 -0.024354925 -0.23894018 1.2377722 -0.27667505 0.26017606 0.04662418
-0.51302594 -0.4939256 -0.76587844 0.30952173 0.12358393 -0.011861404 -0.1483259 0.38331926
-0.62774664 -0.04216341 -0.6588857 -0.0324647 -0.6609557 -0.23648895 0.071552575 0.48984653
0.21128987 0.58038867 0.2257442 -0.35503832 -0.15146919 -0.45477545 0.034523964 1.3449519
0.60247386 0.020131964 0.7791734 -0.26337758 -0.14065138 0.017948562 -2.0651643 0.33897093
0.765379 0.17585284 -0.9695672 -0.6711033 0.6245797 -0.0950871 0.34765998 -0.3788628
-1.3160528 0.23317118 -0.24529062 0.31766278 0.21768624 1.0297621 1.0927392 0.6624765
0.6633941 0.027223954 -0.31661177 0.2553224 -0.2891109 0.17820019 -0.61945826 -0.3170526
0.08173065 -0.10092571 0.13899921 -0.23233566 0.018527906 -0.010318639 -0.12613083 -0.1652053
-0.19721252 0.07375301 0.17551365 0.12962504 0.11839272 0.4370457 0.38509795 -0.19665712
-0.5079732 -0.08698744 0.87113917 -0.31627938 -0.47728428 0.11059296 -0.1719315 0.32411966
-0.5869343 -0.11338995 -0.34190586 -0.0036030796 -0.19416636 -0.32844996 0.2602634 0.03189848
-0.43613595 -0.17594114 0.7784295 -0.33120286 0.16656482 0.52294904 0.55436355 0.2700698

module.base.1.layers.0.bias f4 [256]
00000000: 5b58 443e 2054 db3d ec8e 643e 2f95 12bf
00000010: dd48 e1bd 3b0b 893e b4e3 1d3e b556 7dbf
00000020: 8b2f 9c3d 4f04 8b3e ae71 bbb7 f3f4 823d
00000030: fe60 1c3c 46b3 3dbe 8491 fa3d 9b81 08be
00000040: 4ccb 71bd d7c7 de3d c8dc 5fbe a0f6 2dbc
00000050: ae8a 293c 895a 19bf 7aa4 b9be 10de 25be
00000060: 1d4b 0abe 06b2 1cbe 65bc 813c cafa 95bd
00000070: 0ea3 5e3d 3bdc 6d3d 4f1c 213f a9fc 813e
00000080: eb76 383b 66ad 25be d6d5 283e 727f 5cbd
00000090: 35d7 783e c5a2 cfbc 17bf 663e bb74 493e
000000a0: 1eff 85bd 5310 17bb 47e4 813e 6792 6abe
000000b0: 2e9a 053e 38b9 c8be a37e 5e3e 21fa 9dbd
000000c0: 1060 053e 74dd 18bd 5b6e 183e d04f 9abf
000000d0: e596 8dbe fc3a 483e 189e 21bc 2978 1ebc
000000e0: 56bd 3d3e c578 483e 729f 12be 5049 66be
000000f0: 2594 513e 528d 363e 947a e7be caa1 e13d
00000100: b6b1 1b3e b4a9 783d cff0 fb3d ab2d 2fbe
00000110: 68f7 93bd 0986 06bc a470 17be aba2 18be
00000120: 7a7d 803d b2ca 37bd 6995 503c bf34 243e
00000130: 3298 ddbd 821d 073e 9fda 183e 8ea8 d8bd
00000140: f4ce 8dbc 1973 333a b2bd aa3e 4236 7ebe
00000150: d256 f93c 7167 473e 7c02 113e c71c 983e
00000160: 3d54 1c3e a1ad 19bf be84 8cbe 9a47 05be
00000170: 8d14 09bb aef3 febb 75dc 9bbe 1988 97bd
00000180: 00b8 873d 28b9 81be e3b8 62be 11cc 26bf
00000190: ece1 b23d 935f d53c c747 d43d f2fb 333e
000001a0: d5b2 c33d 958f 8fbb 8464 973d 3825 a63e
000001b0: 3fd6 e13d 1931 253e 0ff0 acbe 1200 5cbd
000001c0: 92d5 e0bd 5367 e63d cb77 9f3e bf8c c2be
000001d0: 8f76 c63e 0dda 343e b059 05bd 03da fe3a
000001e0: 7818 0abd b79c 983e 58bf c23c f076 343e
000001f0: a267 53be e2f2 5ebe 4cc4 513e 5292 77be
00000200: 30c3 bdbd 726c 8fbe fbde 983d 927e 073e
00000210: 8bd1 25be 70b7 2a3e 13b7 223e 1dc7 cf3d
00000220: 19f4 c3be 14d2 803e db62 1abd 573f 3c3e
00000230: b1eb 11be 91e1 a13d 9b6a 81be 2d6a 18be
00000240: 87ca 3bbe b39c 59bd 8993 5fbf 41f4 013e
00000250: 92ec d1be 6f37 abbc 73d1 4c3e 986e 62be
00000260: a3df 8d3d 0687 76bc f98b 023e 404a 65bb
00000270: 696c 88bd bb03 3ebd 5a4a ac3d b27e 223e
00000280: 7142 3cbc d2fb 09bf 996c ab3e 4ab2 efbe
00000290: e8eb b7be e8ae e53c 5f1f 6abc ccd3 c73d
000002a0: 38ac 9a3d da48 f13c 5583 a3bd fcc2 45bd
000002b0: 89c7 9e3d cc2a 313e bcc4 bcbd 287b 943c
000002c0: 2541 ff3e 93ff 5f3e 758a 313e b6f3 4c3d
000002d0: 9880 8ebe ba0b 613e b476 7abc d170 dbbe
000002e0: da86 9eba 097e 4abd 2c84 f83d a5a7 ea3c
000002f0: 2d07 803c fba9 733d 846f 1fbe 22ea bcbd
00000300: 86e5 adbd d10e 90be c344 a63e 89d2 87bd
00000310: 308e 3c3e 92a9 80bd f64c 45bf eab6 08be
00000320: 08ff 733e 95c7 9a3e e789 6abc cd73 943d
00000330: a729 433d 1f26 b13d 09cd 87bc 9ce4 ca3d
00000340: 1900 743d d1e0 6dbd d1ef 0d3e ddd5 fdbb
00000350: 60ad ad3d ba85 19bd 958d 7d3d a7a4 8739
00000360: 0c3e a83d c223 973d 7667 e9bd 875d 14be
00000370: 237b 02be e3a3 4bbe 0b00 55be b075 9fbd
00000380: ff40 813e 7cfc a0bd 10d3 54bd dacf a6bc
00000390: 07f5 9e3d 580e eb3e 592a d7bc 7726 e43d
000003a0: ae54 c4be c95b d3ba f069 b53d 3898 e7bd
000003b0: b1ec f33d e33c b73d 8d14 bbbd 02e8 23be
000003c0: 6079 903b afa1 223d 47cb 323e e1e6 cc3c
000003d0: 5096 f23c 600f b83e d9b5 ccbc ce32 0a3e
000003e0: 6531 9abd 9f37 e03d 0526 063e 272d 0f3f
000003f0: df99 dabd 3a6d 85bf 60e1 ecbd bc70 a7bb
0.1917433 0.10709405 0.22320145 -0.57258886 -0.11000226 0.2676638 0.15418893 -0.9896043
0.076262556 0.27151725 -2.2345073e-05 0.063943766 0.009544609 -0.18525419 0.12234786 -0.1333069
-0.05903177 0.1087796 -0.21861565 -0.010617882 0.010348005 -0.5990377 -0.36258298 -0.16197991
-0.13505216 -0.15302286 0.015836904 -0.07323225 0.05435472 0.058071356 0.6293382 0.25388077
0.0028147053 -0.16179428 0.16487822 -0.05383248 0.24300845 -0.02534617 0.22533832 0.19673435
-0.065428 -0.0023050501 0.25369474 -0.2290741 0.13047096 -0.3920381 0.21727996 -0.07713724
0.13024926 -0.03732057 0.14885847 -1.2055607 -0.27654186 0.19553751 -0.009864353 -0.009672203
0.18529257 0.1957732 -0.14318636 -0.22488904 0.20466669 0.17827347 -0.45210707 0.11017187
0.1520451 0.060708717 0.1230179 -0.17107265 -0.07224923 -0.008210667 -0.14789063 -0.14905803
0.06273933 -0.04487104 0.012730935 0.16035746 -0.108200446 0.1319485 0.14927147 -0.10579024
-0.017310597 0.0006845459 0.3334785 -0.24825385 0.030436907 0.19473054 0.14161104 0.29709455
0.1526651 -0.6003056 -0.27445024 -0.13015595 -0.002091679 -0.0077805137 -0.30441633 -0.073990054
0.06626892 -0.25336576 -0.22140841 -0.6515513 0.087344974 0.02604655 0.10365253 0.17576578
0.09555594 -0.00438113 0.07392219 0.3245027 0.11027192 0.1613201 -0.337769 -0.053711005
-0.10978235 0.11250176 0.31146082 -0.37998006 0.38762328 0.17661305 -0.032556236 0.0019443635
-0.03371474 0.29807064 0.02377288 0.17623496 -0.20645002 -0.2177234 0.20485038 -0.2417691
-0.09265745 -0.28012425 0.07464405 0.13231876 -0.16193216 0.16671538 0.1589015 0.101454
-0.3827217 0.25160277 -0.037691932 0.18383537 -0.14250065 0.079043515 -0.25276646 -0.14884253
-0.18338977 -0.053127956 -0.87334496 0.12690832 -0.410008 -0.020900456 0.20001774 -0.221125
0.06927421 -0.0150468405 0.12748708 -0.0034986883 -0.066613026 -0.046390276 0.08412619 0.15868643
-0.01149045 -0.5389987 0.3348129 -0.4681571 -0.3592217 0.028037503 -0.014289706 0.09757194
0.07552379 0.029453684 -0.07984034 -0.048281655 0.07752902 0.17301482 -0.092172116 0.018125132
0.4985439 0.21874838 0.17337973 0.05003711 -0.27832484 0.2197713 -0.01528709 -0.4285951
-0.0012094632 -0.049436603 0.12134585 0.028644392 0.015628422 0.059488278 -0.15569884 -0.09224345
-0.08491044 -0.28136304 0.32474336 -0.06631953 0.18413615 -0.06282343 -0.7707056 -0.13351026
0.23827755 0.30230394 -0.014315105 0.0724865 0.047647145 0.08649849 -0.01657726 0.09906885
0.059570406 -0.05807573 0.13861014 -0.0077464418 0.08480334 -0.037481047 0.0619026 0.00025871882
0.082149595 0.07379867 -0.11396687 -0.14488803 -0.12742285 -0.19886737 -0.20800798 -0.07786119
0.252449 -0.078606576 -0.051959097 -0.020362783 0.07761579 0.4590938 -0.02626531 0.11140149
-0.38345855 -0.0016125377 0.088580966 -0.1130833 0.1191038 0.0894716 -0.09134779 -0.16006473
0.0044090003 0.039704975 0.17460357 0.025012435 0.02961269 0.3594923 -0.024989055 0.13495943
-0.075289525 0.10948109 0.13100441 0.5592827 -0.1067388 -1.0423958 -0.11566424 -0.0051098745

module.base.1.layers.2.weight f4 [256]
00000000: 42c2 2c3f dcc7 5e3f a657 823f ca23 a73f
00000010: 3929 943f 1e47 903f 43cf 9c3f 1bc6 c33f
00000020: bbc2 533f e0d5 9d3f e9c8 a13f ed99 e53e
00000030: f1fd 773f 6d4c 923f 344f 9d3f 0cb6 8c3f
00000040: 4ab5 923f 9943 b23f 905a 8d3f 84d4 583f
00000050: f2b4 093f f869 d83f 3046 8a3f 29e4 f43e
00000060: 9ecd 643f e2ee a13f 22ba 833f c61e 593f
00000070: c758 9f3f 36db 4d3f b03a ae3f 503f 713f
00000080: c018 1b3f 0b0e bf3f 4b81 6f3f 47db c53f
00000090: 9625 2c3f 8664 813f d647 3a3f a674 a33f
000000a0: f42d 943f d4b1 5a3f 806b 8f3f e1ef 783f
000000b0: 9e57 2b3f 1206 be3f 1da4 693f dbdb 213f
000000c0: bb8f 323f e1fc a83f 57a8 653f 8689 d23f
000000d0: ec95 993f db0c 993f 6110 2b3f ee9a 603f
000000e0: 3b84 533f 4c6d af3f ca47 993f 2a1a 8d3f
000000f0: f871 d03e 3c41 7e3f 21dd 913f 9d9c 8f3f
00000100: e9cb 903f 3029 ad3f 7d76 573f e263 673f
00000110: 80cb 9c3f cb2c 863f 5934 893f 0da2 ce3f
00000120: 4241 703f 45e1 423f 994d 743f 3699 6a3f
00000130: f78f 863f 608b 4a3f cd46 7e3f d907 373f
00000140: 7327 d23e 357a ad3f b493 773f 2455 0f3f
00000150: 60cf 923f 1841 703f 47bb 723f 8d1f 523f
00000160: d062 563f f288 ce3f 715b 653f 736a aa3f
00000170: 3c30 563f f389 d43f ba53 a83f 4a6f 393f
00000180: 1175 3e3f 2b3c d13f d7e4 683f bf84 883f
00000190: 4852 6b3f 3799 753f 1b70 b73f 98a5 483f
000001a0: e560 7a3f 7cd6 053f 7068 8b3f a048 a63f
000001b0: f550 533f ec6c aa3f 02ec d63e c733 843f
000001c0: ed37 013f 2f1a 833f 52f5 323f 5363 453f
000001d0: ad3d 893f 6fb7 943f b137 be3f cff2 703f
000001e0: 737e 713f 7b51 843f f53a 7d3f a24c 843f
000001f0: 29d8 b33f fbd9 5a3f 3535 4d3f 0693 153f
00000200: a776 933f a49f c73f dded 813f 54a3 a93f
00000210: f27b 8a3f 0df5 6d3f 77cd 923f 249b 3c3f
00000220: ebbd a83f dc5c b73f 0d83 de3e 83bf 893f
00000230: b074 563f f72b 523f 03ff ba3f 9e8d c33f
00000240: 0a7b 9e3f 53bc ae3f 0112 c33f d2f7 733f
00000250: cce3 8c3f dc11 7e3f cbbe b13f 51e1 a33f
00000260: edd6 543f e22e 7e3f bccc 903f 9d9c a73f
00000270: b702 653f adbd 863f d8e6 373f 95a5 6d3f
00000280: 4883 b03f ed5e e23f 2f0c 9b3f 32cd a43f
00000290: e004 b43f 30d8 e83e 57f0 473f 06b0 703f
000002a0: 6459 993f 6d5b 053f 7e7a 853f fed4 333f
000002b0: 7339 ae3f ef47 6b3f 7bb2 b63f 07ff 7c3f
000002c0: be67 c53f c26f 643f 788c 813f 672c 613f
000002d0: 6225 893f 2a73 943f 9490 563f 7580 8e3f
000002e0: 411d 463f 69e8 a03f c2bb 1c3f a79f a83f
000002f0: 4266 1a40 b04e cc3f 86e3 933f 41a7 a23f
00000300: ca47 a93f f502 483f a2da a83f ed82 583e
00000310: 3196 8e3f b3bf be3e 0831 ae3f 0278 9e3f
00000320: f1aa 813f 465b 493f 6195 1e3f c7ae 583f
00000330: 50d3 973f 0c2e 733f 0c76 183f 1182 c63f
00000340: 37d7 833f 3886 5a3f b615 863f c305 8e3f
00000350: 09c5 a93f edd0 503f d902 7f3f 3ee8 863f
00000360: 3c25 4e3f bcba 933f d3b4 b43f 9cf1 5f3f
00000370: 4776 c23f dd31 993f 4a57 2d3f 0113 533f
00000380: 2293 9f3f e2db 703f a9d2 5a3f 9acd 5d3f
00000390: 2cc3 593f 43f7 563f c382 603f 48ab 0040
000003a0: 1ab4 d73f 4190 4f3f b6e7 743f 0583 1a3f
000003b0: 84e7 963f e725 8b3f dbb0 573f 44b9 793f
000003c0: 8ca3 b43f 844b 5c3f d281 523f 36b3 d23e
000003d0: 4625 873f 4984 e23e be09 193f 8e82 743f
000003e0: f00a 8d3f f0fc a23f f4da 5e3f 66ec 743f
000003f0: 077d 673f 4b57 d43f 3441 0d3f 28a5 383f
0.67483914 0.8702371 1.0182998 1.3057797 1.157508 1.1271703 1.2250751 1.5294832
0.8271901 1.2330894 1.2639438 0.44844 0.9687186 1.1429573 1.2289796 1.0993056
1.1461575 1.3926879 1.1043262 0.84699273 0.53791726 1.6907339 1.080267 0.47830322
0.89376247 1.2651026 1.0291178 0.8481258 1.2448968 0.80412614 1.361166 0.9423723
0.6058464 1.492616 0.9355666 1.5457543 0.6724485 1.0108802 0.7276586 1.2769973
1.1576524 0.85427594 1.1204681 0.97241026 0.6693057 1.4845603 0.9126604 0.632261
0.69750565 1.3202173 0.8970999 1.6448219 1.1998878 1.1957048 0.6682187 0.87736404
0.8262364 1.370523 1.1975033 1.102361 0.4071195 0.9931829 1.1395608 1.121967
1.1312228 1.3528194 0.84165174 0.90386784 1.2249603 1.048242 1.07191 1.6143204
0.93849576 0.76124984 0.95430905 0.9164003 1.0512685 0.7911892 0.99326783 0.7149635
0.41045722 1.355292 0.9670975 0.5598929 1.1469536 0.93849325 0.9481701 0.8207939
0.83744526 1.6135542 0.89592654 1.3313736 0.8366735 1.6604599 1.3150551 0.7243544
0.7439738 1.6346487 0.9097418 1.0665511 0.91922426 0.9593691 1.4331087 0.78377676
0.978041 0.522804 1.0891247 1.2990913 0.82545406 1.331449 0.41976935 1.0328301
0.5047596 1.0242366 0.6990558 0.7710468 1.0721947 1.161848 1.4860746 0.94120497
0.9433357 1.0337366 0.98918086 1.0335886 1.4050342 0.8548886 0.8015931 0.58427465
1.1520585 1.5595593 1.0150715 1.3252969 1.0819075 0.9295204 1.1468953 0.73674226
1.3182958 1.4325213 0.4345936 1.076157 0.837718 0.82098335 1.4609073 1.5277593
1.2381299 1.3651222 1.5239869 0.9530002 1.1007018 0.99246 1.388635 1.2803136
0.8314045 0.9929029 1.131248 1.309467 0.8945727 1.0526634 0.71836615 0.92830783
1.3790064 1.7685219 1.2113093 1.2875121 1.4063988 0.45477438 0.78101104 0.9401859
1.1980405 0.5209263 1.0428007 0.70246875 1.3611282 0.91906637 1.4273218 0.9882664
1.5422285 0.8923303 1.0120993 0.8795838 1.0714533 1.1597645 0.8381436 1.1132952
0.7738839 1.2570926 0.61223996 1.3173722 2.4124913 1.5961514 1.155381 1.2707292
1.3225033 0.7812951 1.3191721 0.21143694 1.1139585 0.3725563 1.3608713 1.2380373
1.0130292 0.786549 0.61946684 0.8464169 1.1861362 0.94992137 0.59555125 1.5508443
1.0300053 0.8536105 1.0475376 1.1095508 1.3263255 0.81568795 0.9961372 1.0539625
0.80525565 1.1541362 1.4117683 0.8747804 1.5192345 1.1968342 0.6771132 0.8245087
1.2466776 0.94085515 0.8547769 0.8664185 0.85063434 0.8397104 0.87699527 2.0104542
1.6851838 0.8107949 0.9566606 0.6035617 1.1789403 1.0870942 0.84254235 0.9754832
1.411241 0.8605273 0.8222934 0.41152352 1.055825 0.4424155 0.5978049 0.9551171
1.1018963 1.273344 0.87052846 0.95673215 0.9042515 1.658914 0.5517762 0.7212701

module.base.1.layers.2.bias f4 [256]
00000000: aba8 b63b 0ad3 adbd 3422 43ba 36a9 4e3d
00000010: d28f edbe 175c 5fbd 8ea8 073e e0bc b7bb
00000020: f1cf e73e 4d84 163f 212f 58be 05b2 c7bc
00000030: 1f07 8dbe 431d b63c a392 053d 1da5 a4bd
00000040: 4c8f cbbe 9ec8 c83e 3085 a8be 7db0 b3bc
00000050: 2e60 8bbc 529d db3d 8017 a9bd ecff 74be
00000060: 414e 09bd 49ea 89be 5728 b4bc 5289 a2be
00000070: 7e9f 31be 45a7 8abe 0381 7f3e 8fcd 663e
00000080: cdab 11be 9106 423e f239 c63e 4247 1fbd
00000090: cfc2 8e3c 707a 5a3e 586e f03d 89c8 bc3d
000000a0: 9a42 89be 8857 70bc cdf8 c23d 6b1e 86be
000000b0: 288a 3b3e f196 173e e015 82bd fc16 74be
000000c0: d31e 3bbd e509 d6be 3e05 08bd 45df f2bc
000000d0: 4f33 76be 30b8 f2bc b0c4 c53c f6e1 e9be
000000e0: 122e 75bd 52c4 0c3e c78c 1dbd 7a6c 853d
000000f0: 5db1 d4be a12a c0be e8b8 bfbe 9cfa bfbe
00000100: 51a7 a4be 272d 193c cce6 e13e 6bc4 75bd
00000110: 8919 5fbe 4d93 67bd 63c7 2cbe fe9e bf3e
00000120: 73bb bbbd fe97 37bd a676 2fbe db84 f43d
00000130: f4dd 86bc 294b 1cbe 41c3 39be 6d4b 54be
00000140: 3af5 80bd 4da4 6bbe 86c4 913e 8c54 66be
00000150: b80e 79be fe4e 8c3e 53e2 ca3d de56 473e
00000160: 94e9 d53c 5330 e1be d085 b5be 9ad5 48be
00000170: 0eb0 fcbc 313a 00be a9d6 91be e783 3c3e
00000180: b050 013e c1ea 0abf d851 5bbe 0bf0 c83e
00000190: b038 21be f65c e53d 963a 583d 9448 eb3e
000001a0: c3be 82be ae22 a3be cd50 14be 06b6 d13d
000001b0: f1cc e63e 9e7e 55be ced4 d2be 2c0d e8bd
000001c0: 6d38 05bf 1472 f63e 9755 5dbd 0c2c bdbe
000001d0: 907d bb3d 0e71 933e b00c 543e 00de c1bc
000001e0: cf65 39be a6ea 8e3e 1f59 78be 92a5 dd3d
000001f0: 9a40 d4be 5ec5 72bd 4d7c e1bd ea25 69be
00000200: f995 77bd a102 48be 11d3 103e a3ab abbd
00000210: d162 04be 0993 4b3e d636 d43c d92a c73c
00000220: cf1b efbe fe76 953c bdce acbd 407c 4abd
00000230: 3019 56be 3cc8 90be 4078 1bbf 8d49 b9bd
00000240: 8afd cdbe 562f 4ebe 105d a5bc 1eba de3d
00000250: 5437 7bbe 4558 99be 863f 8f3d d0ef 003e
00000260: fe0c 9cbe ed8f 66be ebb6 be3d 0b8b a4be
00000270: 09c5 d2bd 492f 0dbe fe52 16be 71f8 bdbc
00000280: 6e83 273e af2e 26bc 4be2 bd3e 5e9b bdbe
00000290: 77b0 963e 4b0f 80be c3f6 2fbd d885 7dbd
000002a0: 8817 cd3d ea9a 91be f3e6 b2be 31f7 50be
000002b0: 7710 4cbe 13cf c63e 3712 9fbe 6f04 593e
000002c0: 3ef9 be3e 673f 93bc 8462 163e 5642 033c
000002d0: 8a32 f4be 0fd4 113d e00a 9b3e c3c4 bcbe
000002e0: 2571 873e 082e 42be 9c57 c2bd 99af a6be
000002f0: 3e79 c93e 39b5 1d3e 7a39 b5be 69eb 9ebd
00000300: 3f24 983e 236b a3be a3cb c03d 1b5c 75be
00000310: 9e10 1e3e fdb4 443d aac9 9b3c 538e 893e
00000320: f0ae 58be c97c eb3d fa0a 893d e1fc 50be
00000330: c081 94be 7bc3 89be e9f2 8abe 80da 0bbf
00000340: 9a4d 993e 5b7c ddbe c1d1 dfbd b3de 71be
00000350: b142 073f 1cf6 18be fc40 54be 9bf1 773e
00000360: be64 733d ca82 213d edb5 5abe e53a 11be
00000370: c3b7 54be 9c26 49be e9b4 7cbe 7709 85bd
00000380: 2184 f83c f50d f93c df28 08be 97b9 55be
00000390: 3193 343e 4e9a d93c 5fcf 02bf 950e 093f
000003a0: 4aec 85be 7cb4 81bd 6159 6dbe 24ca b9bd
000003b0: e7f4 09be 43b8 28bd 9844 acbe f5ed a13c
000003c0: 151c 6c3e 0fa5 88be 5a44 8c3d c530 2abe
000003d0: a320 5c3e 04b3 b03e 575b 9abe 40e0 183e
000003e0: ca0c 25be 28be 8cbd 433c 7bbe 945a ab3e
000003f0: 0def 54be 8d39 9dbd d600 bbbd 20a5 c3bd
0.005574306 -0.08487518 -0.00074437563 0.05045434 -0.4639879 -0.054531183 0.13247892 -0.0056072325
0.45275834 0.58795625 -0.21111728 -0.024376879 -0.27544495 0.02223075 0.032610547 -0.08039305
-0.39757764 0.3921556 -0.32914114 -0.021934742 -0.017013635 0.10723366 -0.082564354 -0.23925751
-0.033521894 -0.26936558 -0.021991892 -0.31745392 -0.17345998 -0.27080742 0.24951558 0.22539352
-0.14225693 0.18947817 0.38716084 -0.038886316 0.017426876 0.21335769 0.117397964 0.092179365
-0.26808625 -0.014669307 0.09520111 -0.26195082 0.18314421 0.14803673 -0.063518286 -0.23836893
-0.045683693 -0.41804424 -0.033208124 -0.029647479 -0.2404301 -0.029628843 0.02414164 -0.45680207
-0.05985839 0.13746765 -0.038464334 0.06514831 -0.41541567 -0.37532523 -0.3744576 -0.37495887
-0.32158902 0.009349144 0.44121397 -0.060001772 -0.21787085 -0.05653696 -0.16872935 0.3742599
-0.091666125 -0.044822685 -0.17135105 0.11939403 -0.016463257 -0.15263046 -0.1814089 -0.20731898
-0.06296773 -0.23011895 0.28470248 -0.2249319 -0.24322021 0.27404016 0.09906449 0.19466731
0.026112355 -0.4398218 -0.35453653 -0.19612733 -0.030845668 -0.12522198 -0.28484085 0.18409692
0.12628436 -0.54264456 -0.2141794 0.39245638 -0.15744281 0.111993715 0.052790247 0.4595381
-0.25536165 -0.31862396 -0.14483948 0.10239796 0.45078233 -0.20849082 -0.41177982 -0.11330637
-0.52039224 0.4813391 -0.054036703 -0.36947668 0.091548085 0.2879719 0.20707965 -0.023665428
-0.18105243 0.27913398 -0.24252747 0.10822596 -0.41455537 -0.059270255 -0.110100366 -0.2276837
-0.06044576 -0.19532253 0.14143015 -0.083823465 -0.1292832 0.19880308 0.025905054 0.024312424
-0.46700904 0.018245216 -0.0843787 -0.0494349 -0.20908046 -0.28277767 -0.6073036 -0.09047232
-0.40232497 -0.20135245 -0.020185977 0.10875343 -0.24532825 -0.29950157 0.06994538 0.12591481
-0.30478662 -0.22515841 0.093122326 -0.3213733 -0.10291488 -0.13787569 -0.14680097 -0.023189755
0.1635873 -0.010142966 0.3708671 -0.37032598 0.29431507 -0.25011668 -0.04295994 -0.06189522
0.10014254 -0.28438503 -0.34941825 -0.20406796 -0.19928156 0.3882986 -0.31068584 0.21193098
0.37299532 -0.017974569 0.14686018 0.008011421 -0.47694808 0.035602625 0.30281734 -0.36868867
0.2645351 -0.18962872 -0.094893664 -0.32555845 0.39350313 0.15401162 -0.35395414 -0.07759745
0.29715154 -0.31917676 0.094138406 -0.23960917 0.15436026 0.048024166 0.01901706 0.26866397
-0.21160483 0.1149841 0.06691547 -0.20408966 -0.2900524 -0.26906952 -0.2713845 -0.5463028
0.29942018 -0.43258938 -0.10928679 -0.2362011 0.5283614 -0.14937633 -0.20727915 0.24213259
0.059422247 0.03943137 -0.21358462 -0.14182623 -0.20773225 -0.19643635 -0.24678387 -0.06495946
0.030336441 0.030402163 -0.13296841 -0.20871578 0.17634274 0.026562836 -0.51097673 0.53537875
-0.26156837 -0.06333253 -0.23178627 -0.090717584 -0.13472329 -0.04119135 -0.33646083 0.019766787
0.23057587 -0.2668843 0.068489745 -0.16620167 0.21496825 0.34511578 -0.30147812 0.14929295
-0.1611816 -0.06872207 -0.24534707 0.33467543 -0.20794316 -0.076769926 -0.09131019 -0.095529795

module.base.1.layers.3.weight f4 [128, 256]
00000000: dc59 a8be 25fb 0a3e 8315 9e3e dd73 8abe
00000010: e0fe 4a3e 83d3 213f cf70 03be 4211 a0be
00000020: 2e3d 043e eafb 673e 6828 263f 44de 3e3e
00000030: 886b c1be 83dd 1fbd 3ca2 14be 99b7 963c
00000040: 1155 38bb a17d 253e 4834 0e3e 45b2 8bbd
00000050: b6bd 583b 707c 1abf 1c05 44bd 185b bfbe
00000060: d669 40bd 0922 eabd bab6 9a3d c3f0 86bc
00000070: 8416 c33e d11b 073e d523 ac3e 6b88 82bd
00000080: 50dd 66bd 7c73 05be 7452 903e 4020 ad3d
00000090: fdff af3e 5be4 32be 7ad4 653d 954b 7bbc
000000a0: 0f1b 45be ab41 b93d d627 c13d 018f 9b3d
000000b0: 6d1e 8e3e 3be7 14bf 8229 143f 882d 883d
000000c0: f9f5 843d 9d13 adbe 1c84 ba3d b379 afbe
000000d0: dda2 c63d e337 06be 9ed4 f43e 15cf 11be
000000e0: 91f0 fabd d88f f63e efa6 f73c 42f8 b03e
000000f0: dfbb 54be 150e 1c3e e2bb 3bbc 1db1 dc3d
00000100: 1628 153e 0afa b3be b13b 3b3e 2729 f0bd
00000110: a709 fcbd 069d bb3d 4d66 c9bd 268b 19bf
00000120: 394e 40be 6715 15bd 2413 d5bd bba1 b13d
00000130: 3589 35be f5bc f63d d304 84be 50e5 39be
00000140: 3a7d c8bb 3f7e 19be ad48 bd3e 1a9c e3bd
00000150: 47fe 1b3d 5f0e 58bb dd34 acbe 5862 9a3d
00000160: b7ba 8fbe cbc4 29be 802d 8bbe a563 13be
00000170: 97f8 243a 9b35 503d a6d6 3e3e 23e7 30be
00000180: 7ff8 0bbe 8f16 f2bd 2078 dc3c ac38 acbe
00000190: a52d 20be cf88 973d 3912 7b3e 0735 643d
000001a0: 755e 57be c7b2 d7be 31f6 773e 3ffc 8ebe
000001b0: a4ed 7dbe d97b e1be f114 c33d b77b 4dbe
000001c0: d533 133e ed27 b23d 70ae 4d3d d8fa 9b3d
000001d0: fbe9 a8be 05d9 223e b024 b1be b805 57be
000001e0: 405f 133d c52f f4bd 5a8a 46bd c268 9abd
000001f0: f541 533e ea80 c53d 612c 6abd 8f8f fd3d
00000200: 8964 4dbe 8814 94be 43b4 813e 9cdb 333d
00000210: e336 9dbe ee99 2b3d 858e cd3e 6c14 613e
00000220: 9ec3 713e 5c47 c73e 095e f3bd 9bb5 7c3d
00000230: a953 77be 925d abbe f854 973d 8005 25be
00000240: 51b0 78be 23ba bbbd 12c7 adbe 73e0 dbbd
00000250: 268e 21be 8d4a b4be 3f8c d03d 8f62 97be
00000260: 3951 88be 10b1 273e 1430 aa3e fa51 723e
00000270: 9951 ab3c 0c4e 23bc 966c 883e 875a a93e
00000280: 5654 ba3e 2fac 1cbf ac7a 0d3d 97df f33c
00000290: cacd 1dbe 4a16 d4bc fe54 b4be 3e06 e6bc
000002a0: 8f79 d23d 6f2e 97be 1ceb a8bd c359 1dbd
000002b0: 55b1 133e 96a1 653d ceb1 93be 73a4 b0bd
000002c0: 7687 da3e 8d2e 703d 3cb9 e53d b5c8 8fbe
000002d0: 76c0 1abd 94e4 253e 9157 a8bc 4ff0 09be
000002e0: d638 3dbe 0ae0 63be 6487 8b3d 4e22 c03e
000002f0: 7cd6 10bf 0775 adbe dd17 653e 5d82 44bb
00000300: 33cc 28be 2df9 d73c 9caf 983e 7bdf d7be
00000310: 9936 8c3a b654 9d3d c682 afbe 525d 92be
00000320: c516 a33e c053 3e3e c04f a83e 486f 78bd
00000330: 3f1a 2c3e 5883 9e3d 4219 41be d1aa f2be
00000340: 0c2e f7bc 3899 7c3e 19f0 973e 4b68 7cbe
00000350: 75da 2abe 0046 523d 27f0 02be 8f78 15be
00000360: bb9b 773c 7933 413e 16c5 be3d 8ce7 86be
00000370: 4eda b6bd e29a c5bd 215e 203e 80c5 cbbe
00000380: 1488 25be f768 2b3e 9d1c 46be 40b7 553e
00000390: 4047 0b3e 8362 e53e 39bd 00bf e671 a6be
000003a0: 25bc 34be f6ee bf3d 6007 8fbe f988 ea3d
000003b0: 84d4 cf3e abc6 343b 33e9 9abe 8aa7 e13c
000003c0: 71e1 e9bd 9531 ffbd 635b d6be dce5 efbd
000003d0: f5ab 16be c193 73bd bb93 ba3e 7be6 4e3e
000003e0: a234 3e3e 40f2 3bbd 9627 373d 495d 833e
000003f0: 4a44 50be c593 9ebe 8f5d da3d 865b 49bd
-0.32881057 0.13572367 0.30875787 -0.27041522 0.1982379 0.63213366 -0.12836002 -0.31263167
0.12913963 0.22654691 0.64905405 0.18639475 -0.37777352 -0.03902961 -0.14515013 0.018398093
-0.0028126875 0.16161205 0.13887131 -0.068211116 0.003307206 -0.60346127 -0.047856435 -0.37374187
-0.046975933 -0.11432273 0.075543836 -0.016472226 0.38103116 0.13194205 0.33621088 -0.06373676
-0.056363404 -0.13032335 0.28187907 0.08453417 0.3437499 -0.17469923 0.056110837 -0.015337844
-0.19248603 0.09045728 0.09431426 0.07595635 0.27757588 -0.5816533 0.57875836 0.066493094
0.06492228 -0.33804026 0.09107229 -0.34272537 0.096990325 -0.13107257 0.47818464 -0.14239152
-0.12252916 0.4815662 0.030230967 0.34564406 -0.20774792 0.15239747 -0.011458369 0.10775969
0.14566073 -0.35151702 0.18284489 -0.11726599 -0.123065285 0.09160809 -0.098339655 -0.5997795
-0.1877984 -0.036397364 -0.104040414 0.08673426 -0.17728122 0.120477594 -0.2578493 -0.18153882
-0.006118444 -0.14989565 0.3696951 -0.111137584 0.038084295 -0.003296755 -0.3363408 0.07538289
-0.2807214 -0.16578977 -0.2718315 -0.1439348 0.0006293146 0.050832372 0.1863657 -0.17275672
-0.13669012 -0.11820709 0.026912749 -0.33636987 -0.15642412 0.07399141 0.2451867 0.055714633
-0.21032126 -0.42128584 0.24215008 -0.27926823 -0.24797684 -0.440398 0.09525479 -0.20066725
0.14375241 0.086990215 0.050215185 0.07616204 -0.32991013 0.15903099 -0.34598303 -0.20998275
0.03597951 -0.11923174 -0.048471786 -0.07539512 0.2063063 0.09643729 -0.05717123 0.12380897
-0.20057882 -0.28921914 0.2533284 0.043910608 -0.30705938 0.041894846 0.40147796 0.21980447
0.23609778 0.3892163 -0.1188317 0.06169663 -0.24153008 -0.33469826 0.073892534 -0.1611538
-0.2428601 -0.09166362 -0.3394094 -0.1073617 -0.15776882 -0.35213128 0.10183 -0.29567382
-0.26624468 0.16376138 0.33239806 0.23664084 0.020912932 -0.009967338 0.26645344 0.3307688
0.36392468 -0.6120023 0.034540817 0.029769702 -0.15410534 -0.025889535 -0.35221094 -0.028079148
0.10277092 -0.29527614 -0.082479686 -0.03841568 0.14423116 0.056062303 -0.28846592 -0.08625116
0.42681473 0.058638144 0.11216971 -0.28082815 -0.0377812 0.16200477 -0.020549567 -0.13470577
-0.18478712 -0.22253433 0.06812933 0.37526172 -0.5657728 -0.33878347 0.22372384 -0.002998493
-0.16484146 0.026363933 0.2982148 -0.4216269 0.0010697424 0.07682173 -0.3427946 -0.28586823
0.3185331 0.18586636 0.32873344 -0.060653 0.16806887 0.077398956 -0.18857291 -0.47395948
-0.030173324 0.24667823 0.29675367 -0.2464916 -0.16684897 0.05133629 -0.12786923 -0.1459677
0.015112813 0.18867292 0.09314935 -0.2634853 -0.08928357 -0.09648682 0.15660907 -0.39799118
-0.16165191 0.1673926 -0.19346853 0.20870686 0.13601398 0.4480172 -0.5028873 -0.32508773
-0.17649896 0.0937175 -0.27935314 0.11451907 0.40591824 0.0027584236 -0.30256042 0.02754571
-0.11419953 -0.12460629 -0.41866598 -0.11713764 -0.14714034 -0.05946708 0.36440834 0.20205109
0.18574765 -0.045885324 0.044715486 0.25657108 -0.2033855 -0.30972114 0.10662376 -0.04915955

module.base.1.layers.3.bias f4 [128]
00000000: 2fae 443e da8e cc3e a5fd 473e 190b 0f3e
00000010: b2f1 043e 2e7c 533e 1e3e cc3e 8fb4 fcbd
00000020: b91e db3e b00d e23d dd38 f2be e206 fd3e
00000030: 409c 743e b775 343d d79d 103e f89d 4c3e
00000040: c3d0 683e d913 c93e 1937 8a3d 6481 893d
00000050: 1976 813e 62f0 533e 8154 4f3e eda8 55bf
00000060: d14d 9d3e 1726 2a3f a460 21be ec00 c83e
00000070: 5754 b33c e179 6f3d dee8 0e3f fe3c cb3e
00000080: 6836 413f 1d9e ae3e 7943 2b3f 9056 923e
00000090: 1e80 233f 1644 4e3e d57d c63e 4386 2abc
000000a0: 7530 d13d 7b45 973e 5042 a23e 0106 9b3e
000000b0: 6556 673e bfd1 dd3c 53b3 413e 8468 30bf
000000c0: 898f b83d 29d5 3b3e 44c7 eb3e 4c2c 4f3e
000000d0: 793c 4b3e b3c7 223e 4a15 d03d 7790 2dbd
000000e0: 73ef c23e aed9 8f3e e917 7c3e 6baa b43e
000000f0: 62c5 c73e 9b8c 993e 98c8 b13d 8c76 503e
00000100: b929 7b3e 2c23 a6bd f665 05be 9a63 b43e
00000110: 4ccc a63e e3e4 283e e79e 153f 2709 c03d
00000120: 2bd6 1e3f 149e 953e cb07 6c3e 439e ac3e
00000130: c7b8 5a3e eea9 873d 64dd dd3e f24e c23e
00000140: 028c 49be 9232 413f 22b1 313f e883 f33e
00000150: b64f a43e 6ce3 c83e 8e1f dd3e 9812 94bf
00000160: 731d 1f3e f856 af3e fa94 953e 015a 62bc
00000170: fcdc 813e 66ba be3e 9c91 9f3e 7fb0 dd3e
00000180: 6058 053e 151b 9e3e 8b99 a13d b985 183f
00000190: 1ac2 bb3e afaa 943e 8523 d0bd ca3a 713e
000001a0: d000 723e f22b dc3d 43bb d53e b3df a4bc
000001b0: b1a5 cf3e 09ff 49bf a50a 6a3e f210 343e
000001c0: ef8c 6d3e 83eb a4bf bd09 273f a70c 1e3f
000001d0: c662 953e 5791 8b3e 5c7d c53e 7774 d63d
000001e0: a9cd 1a3e 6321 563f 017b 983e 1b4f 053f
000001f0: 5ec7 b53e bd73 e73e e7ba 8f3d d0ec 5d3e
0.19207071 0.39952737 0.19530351 0.13969077 0.12982824 0.2065284 0.39891142 -0.12339126
0.42796877 0.11037767 -0.47309008 0.49419314 0.2388773 0.044057574 0.14122711 0.19982135
0.22735886 0.39272955 0.0674879 0.067141324 0.25285414 0.20697168 0.2024708 -0.83460885
0.30723432 0.6646437 -0.15759522 0.39063203 0.021890802 0.058465842 0.5582408 0.3969497
0.7547364 0.34105006 0.6689983 0.28581667 0.63867366 0.2014316 0.38767877 -0.010407987
0.102143206 0.29545197 0.31691217 0.30278018 0.2259155 0.027077554 0.18916063 -0.6890948
0.09011752 0.18343033 0.46050465 0.20231742 0.19847287 0.15896492 0.101603106 -0.0423741
0.3807331 0.28095764 0.24618496 0.3528627 0.3901778 0.29990086 0.08680838 0.20357722
0.24527635 -0.08112177 -0.13027176 0.3523224 0.3257774 0.16493563 0.5844559 0.09376746
0.62045544 0.29222167 0.23049848 0.33714494 0.2135955 0.066242084 0.4333297 0.37950855
-0.19682315 0.7546779 0.6941091 0.47561574 0.32092065 0.3923601 0.43188137 -1.1568174
0.15538578 0.3424604 0.29215223 -0.013815404 0.2536391 0.37251586 0.3116578 0.43298718
0.13021994 0.30880037 0.07890614 0.59579045 0.36671525 0.2903647 -0.10163025 0.23557582
0.23633122 0.107505694 0.41744432 -0.0201262 0.405561 -0.7890478 0.22855623 0.17584589
0.23198293 -1.2884372 0.65249234 0.61738056 0.2917692 0.27259323 0.38572204 0.10471433
0.15117516 0.83644694 0.29781345 0.5207383 0.35503668 0.4520549 0.07018071 0.21672368

module.base.1.layers.5.weight f4 [128]
00000000: c772 e23d cd26 583d 2847 d13e b3a6 163f
00000010: c5bd 5e3e 7123 883f d040 da3e 86b2 db3e
00000020: dcbc 373f 2506 873e 81d7 283f cc2e 8b3f
00000030: 1c48 cf3c cc45 533e e1e3 1a3f 5991 fa3e
00000040: 9430 e93d d778 ef3e 858d 143f dd49 e83c
00000050: fc09 563f 3a0e 9c3e 2d26 023f 05aa 2a40
00000060: 5313 833f 0b90 3140 44a6 e23f c16f 673f
00000070: 7864 5f3f fa68 863f 5409 9d3f 7e2f 1d3f
00000080: a4c9 8a3f 603c 473f 1944 e13f 2f90 bf3e
00000090: 5acc 7040 5029 0340 df5e dc3e 65ce a73f
000000a0: 535d 3d3e fa4a da3e e04b 303f 29b8 1b3e
000000b0: 77fd b23f b2cf a53e 9e27 dd3f f484 4040
000000c0: d508 213f 134d bb3b 4ae5 22bc d618 0e3f
000000d0: 87a8 a8bc 4dfa 8c3c 6e3b 3040 8879 c23e
000000e0: 314d 973f 04b2 3cbc 9456 f53d 6ab9 213d
000000f0: 78c8 683f 1d91 413f 8b28 343f b52a 6d3e
00000100: c566 873f 5eac 8c3e ed5c 2a40 4fe2 663f
00000110: 7247 303d 8869 493f fa91 4b3f 91c5 c63e
00000120: e284 613f 21f4 a5bc 8915 813e 0154 e83e
00000130: bb72 4a3e 6099 913e ff05 893f 7c19 813e
00000140: ca7e 783e a426 6340 af1b 093e 9707 de3e
00000150: 15e4 173e 22e9 893e 6ac9 ea3e 0a67 1240
00000160: 82e1 4b3f b398 08bd 7d7a 183e 0edc 2d3f
00000170: 603f 15bd df12 613e e686 663f 617d df3e
00000180: 27ac 383e bb50 71bd 6a52 b93f 987a 6e3f
00000190: af55 be3d 98d1 c23e 433f 1840 4895 863e
000001a0: d425 013f dbf4 b33e c7d7 3d3c af57 853e
000001b0: dccf 4f3f c88f ff3f f31c 4b3e db18 d23e
000001c0: 285a 28bd 61cc 2640 dfd3 6740 2447 5c3f
000001d0: c708 693f 28bb c0ba f77e 6140 f09e 103d
000001e0: 39a0 0e3f 090a 2440 6fe6 d4bd 60bf d8ba
000001f0: 6821 af3e c87f 0d3f 37a7 133e 6e30 0540
0.11057048 0.05277138 0.408746 0.5884811 0.21752079 1.0635816 0.42627573 0.4290964
0.7177255 0.26371875 0.6595383 1.0873656 0.02530294 0.20632094 0.60503966 0.48939016
0.11386219 0.4677188 0.5802844 0.028355533 0.83608985 0.30479604 0.508395 2.6666272
1.0240272 2.7744167 1.770699 0.904049 0.8726268 1.0500786 1.2268472 0.6140059
1.0842786 0.778265 1.7598907 0.3741469 3.7624726 2.0493965 0.4304113 1.3109862
0.18492632 0.42635328 0.68865776 0.1520697 1.3983601 0.3238502 1.7277715 3.0081148
0.629041 0.005715975 -0.009942362 0.55506647 -0.020588173 0.017209196 2.7536273 0.37983346
1.1820432 -0.011517052 0.11979404 0.039483465 0.9093089 0.7561205 0.70374364 0.23160823
1.0578238 0.27475256 2.6619217 0.9018907 0.043036886 0.7867665 0.7951962 0.38822606
0.8809339 -0.020258011 0.25211743 0.4537659 0.19770329 0.28437328 1.0704955 0.25214756
0.24267116 3.5492334 0.13389467 0.43365166 0.148331 0.2693568 0.45856792 2.287539
0.7964097 -0.03334875 0.14890476 0.679139 -0.036437392 0.21979855 0.9004959 0.43650344
0.18034421 -0.05891488 1.4478276 0.93155813 0.092936866 0.38050532 2.3788612 0.26285768
0.50448346 0.35147747 0.01158709 0.2604346 0.81176543 1.9965754 0.19835262 0.41034588
-0.041101605 2.6062243 3.6223066 0.8604605 0.9102902 -0.0014704214 3.5233743 0.035307825
0.5571323 2.5631125 -0.10395514 -0.0016536526 0.34205174 0.55273104 0.14419256 2.081081

module.base.1.layers.5.bias f4 [128]
00000000: f890 833c 8476 bcbc 64b5 843e 0590 0ebd
00000010: 2439 163e b3f2 a8be 3103 88be fc6e e7bd
00000020: 5e61 5fbe 1874 b23d 593d 6c3e b9a4 33be
00000030: f9fc e53c 9ccb 9d3d d8a0 4bbe 3de4 0dbe
00000040: e1a8 033d 80c7 9abd 9534 a53e da96 ecbc
00000050: b0f9 b1be 446c 223e 185b f3bd d318 c9bf
00000060: 5dfb febe 1ee2 d3bf d461 4cbf eaaf 62bd
00000070: 2393 b3be 3357 16be d1bb 603e 0601 95bd
00000080: 74d5 22be 38b3 0bbe 8afb 933d 5d39 68bd
00000090: 2e4d 32c0 0763 93bf c453 243f 6fa8 e2be
000000a0: 3dd7 043e 45b4 6a3e d7d2 03be c3c2 73be
000000b0: 7455 00bf ba55 503e c054 41bf f691 ebbf
000000c0: dd5a 6fbe c03d c33a 732a 69bd 6e08 0b3e
000000d0: a369 513b 729b acbc cc9f c6bf 055e d93d
000000e0: 3e73 babe 9ef8 093d a0d7 53bd 4aef 6ebd
000000f0: b915 aebe 9490 98bd c6b4 b83e 5493 dc3d
00000100: cd35 19be 1c25 543e 6d54 c7bf 912d 0cbe
00000110: 6e7a 4abd 54fc a5be 0b90 6dbe 4790 3c3e
00000120: 81c2 7ebe 6f23 0c3c 6114 33be a625 acbe
00000130: 834b 56bc e0db ae3e 9cb6 87be 6459 ee3d
00000140: e914 103e 1b4c 2fc0 d975 5abe eb27 083e
00000150: ce1d 56be e7eb 36be 4bb2 803e 67b8 aebf
00000160: 896d 13be 45a5 a9bc e70a 55bd fe70 94be
00000170: c762 c2bc 17de d8bd 8397 d6be c27f 31bd
00000180: 19b5 df3d 011c 88bd 8cfa 4ebe 848f f4bd
00000190: 0013 72be d42d 913e 05f5 54bf 055d c43e
000001a0: 3f80 3abd 0772 e9bd f3b1 a5bc 1815 ca3d
000001b0: 7375 bdbb 1d29 84bf cad4 513d 8b07 1b3e
000001c0: 89f5 05bd 55c3 b5bf 2f6a 12c0 bb02 063d
000001d0: afc0 88be 8a16 1e3c 251a 18c0 dd9c 6dbc
000001e0: 8bab 47be 6302 b6bf 9fd7 bc3c 7de7 4cbc
000001f0: 9602 183e c1fb b0bc dcba 533d ad99 8bbf
0.016060337 -0.023005731 0.2591964 -0.034805316 0.14670235 -0.32997665 -0.26564935 -0.113004655
-0.21814486 0.087135494 0.23070277 -0.17543305 0.028074728 0.07704851 -0.19885576 -0.13856597
0.032143477 -0.07557583 0.3226668 -0.028880525 -0.3476081 0.15861613 -0.11882609 -1.5710701
-0.4980115 -1.655338 -0.79836774 -0.055343546 -0.35073194 -0.14681701 0.21946646 -0.07275586
-0.15901738 -0.13642585 0.07225712 -0.05669533 -2.7859607 -1.1514596 0.64190316 -0.4426913
0.12972732 0.2292033 -0.12873398 -0.23804764 -0.5013039 0.20345202 -0.75519943 -1.8403919
-0.23374505 0.0014895722 -0.05692525 0.13577434 0.0031953834 -0.021070216 -1.5517516 0.10613636
-0.36416048 0.033684365 -0.051719308 -0.058333673 -0.34000948 -0.07449451 0.3607542 0.10770288
-0.1496193 0.20717281 -1.557264 -0.13689257 -0.049433164 -0.32419074 -0.2319948 0.18414412
-0.24878885 0.00855337 -0.17488243 -0.33622473 -0.013079527 0.34152126 -0.26506507 0.11638144
0.14070477 -2.73902 -0.21334018 0.13296477 -0.20909807 -0.17863427 0.25136027 -1.3650025
-0.14397253 -0.02070869 -0.05201235 -0.28992456 -0.023728741 -0.10589235 -0.4191247 -0.04333473
0.109232135 -0.06645966 -0.20212764 -0.11941436 -0.2364006 0.28355277 -0.8318637 0.38352218
-0.04553246 -0.11398702 -0.020226454 0.098673046 -0.0057818233 -1.0325047 0.051228322 0.15139596
-0.032704864 -1.4200236 -2.287731 0.032717448 -0.26709506 0.009648928 -2.3765957 -0.014502731
-0.19499032 -1.4219478 0.023052035 -0.012506363 0.14844736 -0.02160442 0.051691875 -1.0906273

module.base.1.layers.6.weight f4 [128, 128]
00000000: 0426 0dbe b2e3 5a3e a754 37be 6c0d ac3e
00000010: 4222 363d 01f6 d3bd 0982 c83d 33fe b73e
00000020: 93c9 bcbe c820 683d af6d 0ebe ed9a e2be
00000030: 07cc e33d 1c76 b73e bf32 83be 347d d9be
00000040: 777a 693e 090a debd d5fc 1e3e 40fd 733d
00000050: a346 b8be 0a59 153f eb2c d43e 9237 383d
00000060: 5e5d 303e 6ff3 dbbc 79fe 11be aa65 bcbe
00000070: baac 593e 9dda 253d 0622 69be 00a8 b53c
00000080: c831 33be 482a d0be b440 7dbd 6e16 663e
00000090: 00ad b13d c996 f4bd 83da 69be a4eb 9ebc
000000a0: 2ea0 c63e c750 12bf d0bf 03bd ce67 573e
000000b0: 7a27 c3bd 3079 973e ed81 d2bd 523a 7b3d
000000c0: 9b62 cf3c fe1c b43c c676 a2bd 533e 16bf
000000d0: 9537 b5be 0941 bcbd b33d 263c 344a 563e
000000e0: ea74 acbe 830b 34be 4d49 e93e c082 053e
000000f0: 4a08 72be 60c7 5ebe 7fc9 fabd 6071 0d3d
00000100: 1a06 5abe 3eee 153e 5e2b 47be 862b 8bbe
00000110: a1c0 9bbd eed0 4fbe 3161 2bbe 9980 0bbf
00000120: 3678 2a3e 5489 9abd e64d b83e a72b 2e3e
00000130: 693d 093d a745 0fbf dd27 d3be c822 22be
00000140: 1ffc 273e 4541 813e 178a e53d 97c7 c8be
00000150: 8659 973e 0503 8ebd b414 463d 8b89 103d
00000160: 8b85 b83e b85e 4dbd b61c 6c3e ef45 c63c
00000170: 2904 c2bd c403 c23e 53ad 3dbe 63ff 1f3e
00000180: a44a 443c dd60 3abe 95f3 3dbe c98a 95be
00000190: 5dec 423d 218d 24be 1849 d33e 2b5d 6fbe
000001a0: 941a b3be ceee 8ebd f052 283e facf 8f3e
000001b0: 4ee7 36be 2221 ebbd cdaf fc3a 0ba2 1a3f
000001c0: 72de cc3c 0cc3 c8bc 4c6f 373d 984a 4cbe
000001d0: fa33 3f3e b0b5 c53e 273c 043d eda0 91be
000001e0: 66b0 303e dafb 1abe 433b c9bc 2d43 923d
000001f0: a073 b13d 255f b7be a413 513e 809f 3dbd
00000200: d2b2 a23e 2193 213f 749c a0be 7fdd 603e
00000210: 61e0 86be 3abd 21bf dfb5 f53e 3d6c c0be
00000220: 9ce8 2bbe 0215 923f d5fc 1dbe 92b9 98be
00000230: 5be2 2e3e a2b2 9c3e 9e29 82be 4615 1cbe
00000240: 1d1e 1abe b92c b33d aff6 e53e 3908 2b3e
00000250: 5f4b babd f033 2c3e 63f3 ab3f 0f82 1c3d
00000260: 8ffb 3dbf b8ad 05bf dd43 25bf 2493 08bf
00000270: 7496 223d 0109 1abf 5382 81bd 17bf 05bf
00000280: d940 1dbe 6571 e1bd 77ce 44bf 2b74 003f
00000290: 214a 783e bb93 bbbe e9af 05bf 5c6a 83bf
000002a0: 2eab 1fbe 1fcb 6bbf 5d78 b0be 5635 0b3f
000002b0: 1829 bdbe 11dc fbbd 3714 d0be f84a c53c
000002c0: 2c64 543b ff54 97bd 2b7e ae3e 23e6 58be
000002d0: 6950 ebbd 1f1e 5e3e 7cd0 4dbc 8ebc 49be
000002e0: 00e7 01be 4728 bc3e 3f7a 603f 435b d43e
000002f0: e4d8 c8bd 5f39 14be ca20 6b3f 9af6 f1bd
00000300: e7da 11bf d6c4 c4be d5b2 babd 5c6c 05bf
00000310: 55c3 453e 6262 a6bc 13ab b43d e544 db3b
00000320: 1d5b a7be c543 933e 819f 673f 4e9f 543e
00000330: 8a09 133e 2c40 55be 9f1a 15bf d358 87be
00000340: e9f6 8dbe 2796 863e 8a24 163d ebd5 d93e
00000350: b009 233f 8920 9f3e 3ba7 86bf b799 54be
00000360: 894a ffbd 6b15 a73d 7b10 a13f 7441 60bd
00000370: a931 d4bd 4efc 26be 4ad0 a1be 082a 3d3e
00000380: 7c06 f9be 14cc 993e 6291 babe ccc7 25bf
00000390: 353e e03e e2b5 00bf 32df adbd a365 a6be
000003a0: f7e5 353e f1ad 853e fa21 1abe 100d 02bf
000003b0: a8f7 e6be 0b49 43be 461f dabb bfda 2fbe
000003c0: 1e32 013e 9eb1 74bd fedc 833e c41e d0be
000003d0: e11d ffbe 579c bfbe c282 93bd 6210 c13e
000003e0: d8ca 343d 92dd 7abd 4650 0c3f 26f4 e3bd
000003f0: 570b ffbe a950 273e bd85 1e3e ac02 eebe
-0.13784033 0.21375921 -0.17903386 0.3360399 0.044466265 -0.10349656 0.09790427 0.35936126
-0.3687254 0.056671888 -0.13909028 -0.44258824 0.111228995 0.35832298 -0.25624654 -0.42478335
0.22800623 -0.10841758 0.15526135 0.05956769 -0.35991392 0.5833899 0.4144052 0.04497487
0.17223117 -0.026849477 -0.1425723 -0.36796314 0.21257296 0.04049169 -0.22766885 0.022174835
-0.17499459 -0.40657258 -0.061829284 0.22469494 0.08675575 -0.119428225 -0.22837262 -0.019399472
0.38794082 -0.57154506 -0.03216535 0.21035692 -0.09529014 0.29584646 -0.102786876 0.061334915
0.025315573 0.02198648 -0.079328105 -0.5868885 -0.35393968 -0.09192092 0.010146546 0.20926744
-0.33682948 -0.17582516 0.45563737 0.13038158 -0.23635975 -0.21755743 -0.122454636 0.03453195
-0.2129139 0.14641663 -0.19450137 -0.27181643 -0.076051004 -0.20294544 -0.16736294 -0.544931
0.1664742 -0.075457245 0.35996932 0.1700884 0.03350583 -0.55965656 -0.4124135 -0.1583358
0.1640477 0.2524511 0.11207979 -0.39214775 0.29560488 -0.0693417 0.048359588 0.03528742
0.36039385 -0.05013916 0.23057827 0.024203269 -0.0947345 0.37893498 -0.18523149 0.15624766
0.011980686 -0.18201013 -0.1854995 -0.29207447 0.047588695 -0.16069461 0.41266704 -0.23375385
-0.34981215 -0.06979142 0.16437888 0.2808836 -0.17861673 -0.11480929 0.0019278467 0.6040351
0.025008414 -0.024507068 0.044783875 -0.1995033 0.18672171 0.3861518 0.03228393 -0.2844309
0.1725479 -0.15135136 -0.024564391 0.07141719 0.08664632 -0.35814777 0.20417649 -0.04629469
0.31777054 0.63115126 -0.31369364 0.21959494 -0.26343063 -0.6317936 0.4799032 -0.3758258
-0.16787952 1.1412661 -0.15428479 -0.2982908 0.17078535 0.30605036 -0.25422376 -0.1524249
-0.1505055 0.087487645 0.44914767 0.16702355 -0.09096407 0.16816688 1.3433651 0.03820997
-0.7421197 -0.522182 -0.64556676 -0.5334952 0.039694265 -0.6016999 -0.063236855 -0.52244705
-0.15356769 -0.110079564 -0.7687754 0.5017726 0.24247028 -0.36636147 -0.5222154 -1.0266833
-0.15592644 -0.92106813 -0.3446683 0.5437826 -0.36945415 -0.12297834 -0.40640423 0.0240836
0.003240834 -0.073892586 0.34080634 -0.2118154 -0.114899464 0.21691178 -0.012561914 -0.19700834
-0.12685776 0.3674948 0.8768653 0.41475877 -0.098069936 -0.1447501 0.9184691 -0.11814614
-0.56974643 -0.38431424 -0.09116141 -0.5211847 0.19312795 -0.020310584 0.08821692 0.0066915625
-0.326867 0.28762642 0.9047776 0.20763895 0.14359108 -0.20825261 -0.58243746 -0.26434955
-0.2772744 0.26286432 0.03665594 0.4254602 0.63686657 0.3107951 -1.0519785 -0.20761763
-0.12465388 0.08158382 1.2583154 -0.05474992 -0.103610344 -0.16307184 -0.31604224 0.18473065
-0.4863776 0.30038512 -0.36439043 -0.6475799 0.4379746 -0.5027753 -0.08489837 -0.32499418
0.17763506 0.2610927 -0.15052024 -0.5080118 -0.45110822 -0.19070832 -0.00665656 -0.17173289
0.12616774 -0.0597397 0.2575454 -0.40648472 -0.49827483 -0.37423965 -0.072026744 0.37707812
0.04413876 -0.061246462 0.5480999 -0.11130552 -0.4981334 0.16339363 0.15480705 -0.46486413

module.base.1.layers.6.bias f4 [128]
00000000: 6fcc 273e 9cb4 533e 5d90 9e3e a44f da3e
00000010: a42c b53e cc9f c53c b8dc 963e 9819 eb3f
00000020: 6a4d a73d 528d e83d 2e0d ca3e 5fa6 fe3d
00000030: e773 ee3d 2e74 a83e c0f6 6b3d a806 da3b
00000040: f0e3 7bbd 6aae 693e 1b0a 91be e499 ef3d
00000050: 8c79 e43e 208c 513e bf47 a03d 45ea 0f3e
00000060: 9b31 873d 194f a23e 4a47 a0bd 7019 0c3f
00000070: c180 233f 14d6 a23e 33a1 9bbc c056 c93e
00000080: a43e a53e d259 1e3e 396e 98bd 2307 403e
00000090: a6f0 41be 1495 043e d2a3 b83e bc24 d03e
000000a0: 778b bebd fdac 373e e5dc c3be e02a f03e
000000b0: 1799 9fbe 3d32 ddbc d002 3bbf 4a16 cb3c
000000c0: ff1c adbb 452d aabb 4d81 bf3c b7b2 d2be
000000d0: b4ed a93d e727 01be 567b 4c3e b66e c83e
000000e0: b365 b13e 051b 983e c666 873e 4c9a 14be
000000f0: d564 da3e 3cf3 ac3d 7a22 513e e5c9 9f3e
00000100: e0e0 58be c8cc 1a3e b8ce d6bd 10aa 333e
00000110: 0bb4 1b3d a768 84bd 8add 013f b3ec 8e3d
00000120: 44f6 aa3e c04a 443e 8cc2 993e 7efe 12bc
00000130: 642b 283e 9a1e 5d3e cc25 9e3e 12ea ee3d
00000140: 24b1 e13f 491a 743e 6dcb b33e d926 82bd
00000150: 296b 0b3e 1e8b 813e 39f9 66be 3a8c 683e
00000160: 3f55 953e 3afa 7fbd 4fab 0c3f 7e0a 443d
00000170: 7c19 7b3d 76a6 5e3d 4d53 c93c 48db 953e
00000180: b933 8b3d 4637 443d 051d bc3e 3e79 8f3e
00000190: e0e1 a13e 3c23 a83e 4c9a d53d dda9 053e
000001a0: 9235 d43e d309 a4bd e4af 8b3d f143 a53d
000001b0: 0ee5 c63e 1120 0e3f f3c3 e13e 9856 dc3d
000001c0: 60b5 bd3c 6386 473e 05dd 803e 1476 023e
000001d0: 8e4d 043e 7a44 2d3e ed41 b9bc 03d6 f33e
000001e0: cab7 a33e fe73 9d3e 5457 b13e 8132 433e
000001f0: 746f 233f ff8b a03d ba39 e53e b9d7 b43e
0.16386579 0.20674366 0.30969515 0.42638886 0.3538562 0.024124049 0.2946527 1.8367186
0.081690624 0.1135508 0.3946318 0.124340765 0.116432 0.32901138 0.057608366 0.0066536255
-0.061496675 0.2282044 -0.28328022 0.11699274 0.44623983 0.2046361 0.078261845 0.1405421
0.06601258 0.31700972 -0.07826097 0.54726315 0.6386834 0.31803954 -0.018997764 0.39323997
0.32274354 0.15463951 -0.07442898 0.18752722 -0.18939456 0.12947494 0.36062485 0.40653026
-0.093039446 0.17937084 -0.38254467 0.4690771 -0.31171486 -0.027001495 -0.73051167 0.024790902
-0.0052829976 -0.005193385 0.023377085 -0.41151974 0.082972914 -0.12612878 0.19968924 0.39146966
0.34647903 0.29708114 0.26445597 -0.14511985 0.42655054 0.08444831 0.20423308 0.3120872
-0.21179533 0.1511718 -0.10488647 0.17545342 0.0380135 -0.06465273 0.50728667 0.069787405
0.3339101 0.1916914 0.3003124 -0.0089718085 0.16422802 0.21593705 0.30888212 0.11665739
1.7632184 0.23838152 0.3511614 -0.06355066 0.13615097 0.2530145 -0.22556008 0.22709742
0.291666 -0.062494494 0.54948896 0.04786157 0.0613036 0.05435797 0.024575854 0.2926886
0.06796975 0.047904275 0.3674089 0.28022188 0.3161764 0.32839382 0.104298204 0.13053079
0.4144712 -0.08009686 0.06820658 0.080695994 0.3884663 0.5551768 0.4409481 0.10758704
0.023157775 0.19484858 0.25168625 0.12740356 0.1292021 0.16920653 -0.022614444 0.47624215
0.31976157 0.30752558 0.3463694 0.19062234 0.6384194 0.07839202 0.44770604 0.35320833
