checkpoints/hier/checkpoint_firstpass_hover.pt (torch, 478497 bytes, 32 tensors)

module.base.0.weight f4 [26]
0	0x3f8b814a	1.0898831
1	0x3f886750	1.0656528
2	0x3f9990e2	1.199734
3	0x3f70033e	0.9375495
4	0x3f8d5120	1.1040382
5	0x3f6c36db	0.922712
6	0x3f816b87	1.011094
7	0x3f6ccb83	0.92498034
8	0x3f845c34	1.0340638
9	0x3f6eeb87	0.93328136
10	0x3f424999	0.7589355
11	0x3f3e5000	0.7434082
12	0x3fa57eac	1.2929282
13	0x3f6b0f32	0.9182006
14	0x3f92b2fa	1.1460869
15	0x3f8de936	1.1086795
16	0x3f883df8	1.0643911
17	0x3f9f2b8f	1.2435168
18	0x3f65225f	0.8950557
19	0x3f41fea5	0.7577918
20	0x3f4061d6	0.75149286
21	0x3f43202e	0.7622098
22	0x3f213038	0.629642
23	0x3f8d0717	1.1017789
24	0x3fa291c7	1.2700738
25	0x3f776425	0.96637183

module.base.0.bias f4 [26]
0	0x3db52ee1	0.08846832
1	0x3db1071c	0.08643934
2	0x3d6ac845	0.0573199
3	0xbdb464fb	-0.08808323
4	0x3d4ba53b	0.049718123
5	0x3de20dc4	0.11037782
6	0x3da218ca	0.079148844
7	0x3dd2b7b2	0.10288943
8	0x3dec4f14	0.115385205
9	0x3b84245a	0.0040326538
10	0x3e397346	0.1811038
11	0x3e189fed	0.14904757
12	0x3d666be9	0.056255255
13	0xbdf1e531	-0.11811293
14	0x3dca82ae	0.098882064
15	0x3daa699c	0.08320925
16	0x3d8ffc8e	0.07030593
17	0x3d48518f	0.048905905
18	0xbe005346	-0.12531766
19	0xbe4132ca	-0.1886703
20	0xbe0c41e6	-0.13697013
21	0xbdf02c92	-0.11727251
22	0xbe67cd17	-0.2263683
23	0x3debbed9	0.11511011
24	0x3bff577f	0.007792413
25	0x3dc952cb	0.09830245

module.base.1.layers.0.weight f4 [256, 26]
0	0x3ddea47f	0.10871219
1	0x3dfd2fdd	0.12362645
2	0x3b2ae3fd	0.0026075833
3	0xbdf461d3	-0.11932721
4	0x3e8a7a5a	0.27046472
5	0xbdb46e87	-0.08810144
6	0x3dba155c	0.09086105
7	0xbd31c354	-0.04339917
8	0x3ce68c3a	0.028143037
9	0x3b9fe6f3	0.004879826
10	0x3e30ce70	0.1726625
11	0x3d69a150	0.057038605
12	0x3dd0c6c3	0.10194161
13	0xbe46e1fc	-0.19422144
14	0x3dc604d7	0.09668892
15	0x3e748031	0.23877026
16	0x3e55bf5d	0.2087378
17	0x3e24b1fb	0.16083519
18	0xbe41052a	-0.18849626
19	0xbe167e3f	-0.14696597
20	0x3de3e501	0.111276634
21	0x3c205584	0.0097860135
22	0x3d9198cf	0.07109224
23	0x3e5b0d00	0.21391678
24	0xbdc4f6bc	-0.09617373
25	0x3e4a9641	0.1978388
26	0x3e89eeb9	0.26939943
27	0xbe43d12e	-0.19122764
28	0x3e42865f	0.18996571
29	0x3e480377	0.19532572
30	0xbe811b25	-0.25216022
31	0xbe291572	-0.16512087
32	0xbe7ddc49	-0.24791063
33	0xbde72ad2	-0.11287464
34	0x3c4c2234	0.012459327
35	0x3d143c7b	0.03619049
36	0x3e421405	0.1895295
37	0x3e37b6d0	0.17940831
38	0x3e73922f	0.23786233
39	0xbd832745	-0.064039744
40	0x3d0b78e9	0.034050856
41	0xbd8ba23d	-0.06818054
42	0x3b4edde6	0.0031565367
43	0x3dd3d443	0.1034322
44	0xbe2c427c	-0.16822237
45	0x3d43bece	0.047789387
46	0xbd8b84ee	-0.06812464
47	0x3de6e881	0.11274815
48	0x3ce594ae	0.028024998
49	0xbdbd4718	-0.09242076
50	0xbdbdd9af	-0.092700355
51	0xbe67d127	-0.22638379
52	0xbcee8001	-0.029113771
53	0x3becd866	0.007227945
54	0xbbd500cb	-0.0065003387
55	0x3c4b3d0c	0.012404691
56	0xbd8e33eb	-0.06943496
57	0x3d4157e0	0.047202945
58	0x3e3998ae	0.18124649
59	0x3cc8fee9	0.024535613
60	0x3d736080	0.0594182
61	0x3e1c7474	0.15278798
62	0xbd7d1b3d	-0.061793555
63	0x3d98963d	0.07450531
64	0xbe112af2	-0.14176539
65	0xbe09fa7e	-0.13474461
66	0x3d39be6b	0.045347612
67	0xbdb1288c	-0.08650312
68	0x3c9ded2b	0.01927813
69	0x3e8562fc	0.26052082
70	0x3c73a550	0.014870957
71	0xbd00ddb9	-0.03146145
72	0x3dbbf5f5	0.09177772
73	0x3e16c893	0.1472495
74	0x3e79fd74	0.24413091
75	0xbd135fd8	-0.035980076
76	0xbdb823e6	-0.08991222
77	0xbcaa4931	-0.020786854
78	0xbe8bd206	-0.27308673
79	0xbde82fe0	-0.113372564
80	0x3e1953ce	0.14973375
81	0x3e0e3297	0.13886486
82	0xbe55f250	-0.20893216
83	0x3d795463	0.060871493
84	0x3e5b2df4	0.21404248
85	0x3d38f9d7	0.04516014
86	0x3e0101ea	0.12598386
87	0xbcf25324	-0.02958066
88	0x3d78de16	0.060758673
89	0x3d20855c	0.03918968
90	0x3e82e6d6	0.2556674
91	0x3e3632f7	0.17792879
92	0x3e33eae2	0.1757007
93	0x3dd8f572	0.1059369
94	0xbdf78269	-0.12085421
95	0x3e3881dc	0.18018287
96	0xbe073321	-0.13203098
97	0x3cc415fa	0.02393626
98	0x3e275a24	0.1634298
99	0x3e17e694	0.14834052
100	0xbc5b454a	-0.013383219
101	0x3eadc0a8	0.33936048
102	0xbe9a3a9f	-0.3012285
103	0x3d806829	0.06269867
104	0x3e5c366f	0.2150514
105	0xbddbf4ec	-0.107400745
106	0xbd21df8e	-0.03951984
107	0xbd5b1abb	-0.05349229
108	0x3de9333e	0.11386727
109	0x3db666e4	0.089063436
110	0x3d3423b9	0.04397938
111	0xbd9fc97a	-0.078021005
112	0x3d5dfee0	0.054198146
113	0x3cf8108c	0.030281328
114	0x3da0f643	0.07859471
115	0xbd8de5cf	-0.06928598
116	0xbe1af18f	-0.1513121
117	0xbe0ad30c	-0.1355707
118	0xbccd23ae	-0.025041427
119	0x3e8733ee	0.26406807
120	0xbca4d654	-0.02012173
121	0x3db4471a	0.08802624
122	0x3e0d552a	0.13802019
123	0x3d470638	0.048589915
124	0xbd984134	-0.074343115
125	0x3d3677f3	0.044547986
126	0xbdb44c6e	-0.0880364
127	0xbd8b5d45	-0.06804899
128	0x3e0fc228	0.14038908
129	0xbe63be44	-0.2224055
130	0xbe47503b	-0.19464199
131	0xbdccd924	-0.10002354
132	0xbe65921a	-0.22419015
133	0x3bd5847b	0.006516037
134	0x3c405b14	0.011740465
135	0x3d0cf62a	0.034414448
136	0x3d442ba4	0.04789318
137	0xbe50128d	-0.20319577
138	0x3e030762	0.12795785
139	0xbd9dc680	-0.077038765
140	0xbd337845	-0.04381587
141	0xbd3695b3	-0.044576358
142	0xbda6f3fc	-0.08152005
143	0x3da661ec	0.08124146
144	0xbb515c06	-0.003194572
145	0xbe3bc72a	-0.18337694
146	0xbcfa5e8a	-0.030562658
147	0x3e8ed94c	0.2790016
148	0x3d9efc7e	0.07763003
149	0xbda30057	-0.07959049
150	0xbb1068f9	-0.0022035225
151	0xbe1b1f65	-0.15148695
152	0xbe2a1d8f	-0.16612838
153	0x3d9f093b	0.077654324
154	0x3dba0289	0.09082515
155	0x3ce09093	0.027412688
156	0x3df965cc	0.12177619
157	0x3d6c8d7f	0.05775213
158	0x3e503d4e	0.20335886
159	0x3e01e8a0	0.12686396
160	0xbd2ab0fe	-0.0416727
161	0xbdd1e917	-0.102495365
162	0xbe2c6fb6	-0.1683949
163	0xbe3b9761	-0.18319465
164	0x3dd4a2c0	0.103826046
165	0xbe38a2b5	-0.18030818
166	0x3d602ebd	0.054732073
167	0x3d29b28d	0.041430045
168	0x3d85c4df	0.06531691
169	0xbdd1bfcd	-0.10241661
170	0xbe1dd362	-0.15412667
171	0xbbfb9874	-0.007678086
172	0xbe0ba13f	-0.13635729
173	0x3e1eb8ff	0.15500258
174	0xbd8af8fd	-0.06785772
175	0x3dd81944	0.10551694
176	0xbe355fc6	-0.17712316
177	0x3e1f1f22	0.1553922
178	0x3dc2c23d	0.09509704
179	0x3eae3e6f	0.34032008
180	0x3e7ecf4c	0.24883765
181	0x3dacbf74	0.08434954
182	0xbe28828a	-0.16456047
183	0xbe5f6f84	-0.21819884
184	0xbd5b1fb6	-0.05349704
185	0x379149bb	1.731968e-05
186	0x3e1b039d	0.15138097
187	0xbe659662	-0.22420648
188	0xbde8c9e0	-0.113666296
189	0x3e3276d2	0.17428139
190	0x3e991523	0.2989894
191	0xbd42fb7f	-0.047603127
192	0xbcb1195c	-0.021618538
193	0xbe06bf86	-0.13158998
194	0xbd057a8d	-0.032587577
195	0xbda56f62	-0.08077885
196	0x3e42c3da	0.19020024
197	0xbcd98e4b	-0.026557108
198	0xbe668ca1	-0.22514583
199	0xbe35272b	-0.17690723
200	0x3c486a2e	0.012232346
201	0x3e3db690	0.18526673
202	0x3d79e7a6	0.061011933
203	0x3e260a4c	0.16214865
204	0xbd9b2b59	-0.07576627
205	0x3e421a78	0.1895541
206	0x3d92291b	0.071367465
207	0xbe64fc5d	-0.22361894
208	0x3d1a3bde	0.03765475
209	0x3e0fcbb0	0.14042544
210	0xbdcdcedd	-0.10049222
211	0x3dbe2e6e	0.092861995
212	0xbe8a70a0	-0.2703905
213	0x3c36b166	0.0111506935
214	0x3e40131a	0.18757287
215	0xbe0cb548	-0.13741028
216	0xbdd3cbaa	-0.1034158
217	0x3e01b93a	0.12668315
218	0x3ce7d9d6	0.028302114
219	0x3e2a30d3	0.16620187
220	0x3d64e7c1	0.05588508
221	0x3ca95b15	0.020673314
222	0xba937b96	-0.0011252041
223	0xbe6b22fd	-0.22962566
224	0x3e7d0918	0.247105
225	0x3de9b1df	0.11410879
226	0xbb606751	-0.003424127
227	0xba8fe409	-0.0010977994
228	0xbc9d0e3e	-0.01917183
229	0xbe1c8cd9	-0.15288104
230	0xbca888e1	-0.020573081
231	0x3dd9fde1	0.10644127
232	0xbdf9bf44	-0.12194684
233	0x3dce4e77	0.1007356
234	0x3e6e243c	0.2325601
235	0x3cff2953	0.031147635
236	0x3e8d77ae	0.2763037
237	0xbdd4e53e	-0.10395287
238	0x3e0e4bc7	0.13896094
239	0xbdfbe53d	-0.12299583
240	0x3e265da9	0.16246666
241	0xbd08d74b	-0.033408444
242	0x3d375a6e	0.044763975
243	0xbde988d0	-0.11403048
244	0x3d9a2a81	0.07527638
245	0xbdec5d43	-0.11541226
246	0x3e182763	0.14858775
247	0x3e00ea5c	0.12589401
248	0x3dfbd690	0.12296784
249	0x3e1aa6dd	0.15102716
250	0xbe0c44b4	-0.13698083
251	0xbd6f6ee2	-0.058455355
252	0xbe291164	-0.1651054
253	0xbcdd589d	-0.027019793
254	0xbe171536	-0.14754185
255	0x3dd61779	0.10453696

module.base.1.layers.0.bias f4 [256]
0	0x3e0e00fa	0.1386756
1	0xbdce715a	-0.10080214
2	0x3e6470d6	0.22308668
3	0x3dc0982d	0.09404025
4	0x3d3de587	0.046361472
5	0xbe4c4ffe	-0.1995239
6	0x3e3a38a3	0.18185668
7	0xbd3ce41b	-0.046115976
8	0x3e01614c	0.12634772
9	0x3c766d18	0.015040658
10	0x3e243601	0.16036226
11	0x3d743936	0.059624873
12	0xbdb22ae7	-0.08699589
13	0x3dd15f43	0.10223248
14	0x3d66a037	0.056305137
15	0xbd8a09f3	-0.06740179
16	0xbe4195ba	-0.18904772
17	0xbd81f442	-0.063454166
18	0xbe5dfc46	-0.21678266
19	0x3d289de7	0.041166212
20	0xbdf3c6c4	-0.11903146
21	0xbe1d56c0	-0.15365124
22	0xbe8038f2	-0.25043446
23	0x3c5768cf	0.013147547
24	0xbe609fad	-0.21935911
25	0xbe843f3f	-0.25829503
26	0x3e00f509	0.12593473
27	0xbd045954	-0.032311752
28	0x3d1e5789	0.0386577
29	0x3e27d4e4	0.16389805
30	0x3e333f67	0.17504655
31	0x3e4abcc2	0.19798568
32	0xbe3fd8b3	-0.18735008
33	0x3e3a65a4	0.18202835
34	0x3e05aa84	0.13053328
35	0xbe07e3e6	-0.1327053
36	0xbe114469	-0.14186253
37	0xbe617524	-0.22017342
38	0x3bbdee02	0.005796195
39	0x3e25168a	0.16121879
40	0x3e29b572	0.16573122
41	0x3e572d6b	0.2101342
42	0x3e0c01d4	0.13672572
43	0xbe5b346a	-0.21406713
44	0x3dca928f	0.09891235
45	0xbd8213de	-0.063514456
46	0xbd70f55a	-0.058827735
47	0x3d911381	0.07083798
48	0xbcc0d050	-0.023536831
49	0x3ce5629e	0.028001126
50	0xbdea0c3e	-0.11428116
51	0xbe399124	-0.18121773
52	0x3e37c59c	0.17946476
53	0xbd6f9830	-0.058494747
54	0x3dbff4a4	0.09372833
55	0xbdc41a22	-0.09575297
56	0x3da9c342	0.082891956
57	0x3e19413d	0.14966293
58	0x3dbbc56a	0.09168513
59	0x3cf52d2e	0.02992877
60	0xbbb2a722	-0.0054520527
61	0xbdf0014b	-0.117189966
62	0xbd686256	-0.056734405
63	0xbd8a69a7	-0.06758433
64	0x3da3011a	0.079591945
65	0x3e820a6c	0.25398576
66	0x3e123ca3	0.14280944
67	0xbb3ac39e	-0.0028497945
68	0x3ddb5c28	0.10710937
69	0xbd1b08e7	-0.037850287
70	0xbca81045	-0.02051557
71	0x3a14895e	0.0005666221
72	0xbe18b479	-0.14912595
73	0xbd1978ed	-0.03746884
74	0xbd5ab0b5	-0.053391177
75	0x3bc22527	0.005924839
76	0xbd959cd3	-0.073053025
77	0x3e3842b0	0.1799419
78	0x3e6a3fdb	0.22875921
79	0xbe0f8455	-0.14015324
80	0xbd99644a	-0.07489832
81	0xbd292881	-0.041298393
82	0x3e47d15e	0.19513461
83	0xbe5653c3	-0.2093039
84	0x3de57896	0.112046406
85	0x3d95153e	0.07279442
86	0x3dd4ec10	0.10396588
87	0xbe3d16dd	-0.18465753
88	0xbd630394	-0.055423334
89	0xbe225bc9	-0.15855326
90	0xbd96a367	-0.07355385
91	0x3d385e49	0.045011792
92	0xbe0fff02	-0.14062122
93	0xbc940640	-0.018069386
94	0xbd9ff66a	-0.07810672
95	0xbd33b817	-0.043876734
96	0x3e7be1c2	0.24597839
97	0x3ceb6eaf	0.028739301
98	0x3dd1f648	0.102520525
99	0xbe0ef6bb	-0.13961308
100	0xbdc9896a	-0.09840663
101	0x3e303041	0.17205907
102	0x3ddd5111	0.10806478
103	0xbdcb5ce0	-0.09929824
104	0x39d20639	0.00040058958
105	0xbdbdcc24	-0.09267452
106	0xbe1a9220	-0.15094805
107	0x3deddb74	0.11614123
108	0xbda76a5a	-0.08174582
109	0x3db367be	0.087600216
110	0x3d2acdbb	0.041700106
111	0xbda529cd	-0.080646135
112	0xbccb5ce9	-0.024824576
113	0x3e34f30f	0.17670844
114	0x3e429475	0.19001944
115	0xba4e007b	-0.0007858348
116	0x3dcb690b	0.09932145
117	0x3e855c2b	0.2604688
118	0x3e3dd9c5	0.18540104
119	0x3cba8fc3	0.022773629
120	0x3d4fe9ca	0.050760068
121	0xbe00bd5c	-0.12572235
122	0x3d01145c	0.031513557
123	0xbbf5764d	-0.007490909
124	0x3e16be25	0.14720972
125	0xbe297a08	-0.16550457
126	0xbd60e99f	-0.0549103
127	0xbd3df35a	-0.046374656
128	0xbe319fe5	-0.17346151
129	0xbe438dd7	-0.19097076
130	0xbe1a3a4e	-0.15061304
131	0xbdf1e124	-0.1181052
132	0xbcd13332	-0.025537107
133	0x3e157036	0.14593586
134	0x3db48434	0.08814278
135	0x3ce8ca99	0.028416919
136	0x3bb45336	0.0055030836
137	0xbddb48fd	-0.10707281
138	0xbcaa7bc3	-0.020810967
139	0xbcbbb9f0	-0.02291581
140	0xbe3bda04	-0.18344885
141	0xbe5ca8c0	-0.21548748
142	0x3dbdb5ef	0.09263217
143	0x3e4ee23a	0.20203486
144	0xbd687f31	-0.056761924
145	0x3cb3d3b6	0.021951538
146	0xbe63c0d0	-0.22241521
147	0x3dc45c0d	0.0958787
148	0x3e562b81	0.20915033
149	0xbd7b8317	-0.061404314
150	0x3ca1a9de	0.01973432
151	0xbe16f2bf	-0.14741038
152	0xbdd4aa9d	-0.103841044
153	0xbe59ae2b	-0.21257846
154	0x3e00755a	0.12544766
155	0x3ce1b21c	0.02755075
156	0x3de8cc17	0.11367052
157	0x3dfefeed	0.12450967
158	0xbdb5e879	-0.08882231
159	0xbe65684a	-0.22403064
160	0x3d719e15	0.05898865
161	0xbdf7f278	-0.12106794
162	0x3dcfa0b4	0.101380736
163	0x3d4bae6b	0.049726885
164	0xbe1a30ac	-0.1505763
165	0xbe3133b4	-0.1730488
166	0xbe0fc72d	-0.14040823
167	0x3e30c27f	0.17261694
168	0x3e395a35	0.18100818
169	0x3d7cdbab	0.06173293
170	0xbd596a64	-0.053079978
171	0x3d8da759	0.06916685
172	0x3d9c8bc1	0.076438434
173	0xbdbad68c	-0.09122953
174	0x3e2b8221	0.16748859
175	0xbe5f5a9b	-0.21811907
176	0x3d5fb6c6	0.054617666
177	0x3e138631	0.14406659
178	0xbd8b29e9	-0.06795103
179	0x3e0e4863	0.13894801
180	0xbe192f32	-0.1495941
181	0xbd6d9aba	-0.058008887
182	0xbe6e4cfb	-0.23271553
183	0x3db7aca1	0.08968473
184	0xbe18799c	-0.1489014
185	0xbe1ffab2	-0.15622976
186	0xbd90714c	-0.0705286
187	0x3d8335db	0.064067565
188	0x3e656e21	0.22405292
189	0x3e383d4f	0.17992137
190	0xbdb43e98	-0.08801001
191	0x3d0bef58	0.034163803
192	0xbd9d1475	-0.076699175
193	0xbd7b817c	-0.061402783
194	0xbe3f73f9	-0.18696584
195	0x3dcb59e3	0.09929254
196	0x3e2e08ea	0.16995588
197	0x3dde1417	0.108436756
198	0x3cc28179	0.023743378
199	0xbdec73ac	-0.115455
200	0xbe8499e7	-0.25898668
201	0x3da9862f	0.082775466
202	0xbd927a68	-0.071522534
203	0xbdd5e96e	-0.10444914
204	0xbd425817	-0.04744729
205	0x3e24eeb4	0.16106683
206	0xbc3605f3	-0.011109817
207	0x3dd467c1	0.10371352
208	0x3e14e3f1	0.14540078
209	0x3d7867ec	0.060645983
210	0xbdf8be61	-0.12145687
211	0x3d8565ba	0.065135434
212	0xbdbc36c5	-0.09190134
213	0x3d9fc45b	0.07801124
214	0xbd63fda8	-0.055661827
215	0x3d8cb031	0.06869543
216	0xbc8062ff	-0.015672205
217	0xbe41ae7a	-0.18914214
218	0x3d323ea6	0.043516777
219	0xbbc239e6	-0.005927312
220	0x3e036a0c	0.12833422
221	0x3e59854f	0.2124226
222	0xbd16518c	-0.036698863
223	0x3e57b9b0	0.21066928
224	0x3e4fb534	0.20283967
225	0xbc5c67a9	-0.013452449
226	0x3d83cfe3	0.064361356
227	0x3e07c326	0.13258037
228	0x3c68c3ff	0.014206885
229	0xbe3748ba	-0.17898837
230	0x3e4253f4	0.18977338
231	0x3d90f75f	0.07078432
232	0xbe069d23	-0.1314588
233	0x3e0dcc2d	0.13847418
234	0x3e8871bc	0.26649272
235	0x3df0f98f	0.117663495
236	0x3e1bcfae	0.15215942
237	0x3dafc78f	0.08582985
238	0x3e102200	0.1407547
239	0x3d9a6446	0.07538657
240	0xbe840ada	-0.2578953
241	0x3d023b11	0.03179461
242	0xbdc89d3b	-0.09795614
243	0x3e0b535c	0.13606018
244	0xbe4b20b2	-0.19836691
245	0xbde63219	-0.11240024
246	0x3d8182c6	0.06323771
247	0x3d684df6	0.056714974
248	0xbd39079c	-0.045173272
249	0x3d9daef6	0.07699387
250	0xbe00ca11	-0.12577082
251	0xbdd7fd7c	-0.10546395
252	0x3e110202	0.14160922
253	0x3d0160bb	0.03158639
254	0xbc623604	-0.013806824
255	0x3d11033e	0.035403483

module.base.1.layers.2.weight f4 [256]
0	0x3f87023a	1.0547554
1	0x3f8a4aeb	1.0804113
2	0x3f7054fe	0.9387969
3	0x3f95e0b5	1.17092
4	0x3f803ed6	1.0019176
5	0x3f899da6	1.0751235
6	0x3f815c50	1.0106297
7	0x3f830abb	1.023765
8	0x3f7b741e	0.98224056
9	0x3f855f62	1.0419734
10	0x3f8b5ac7	1.0887078
11	0x3f9d7f05	1.2304388
12	0x3f65fa14	0.89834714
13	0x3fa25c06	1.2684333
14	0x3f7d1997	0.9886717
15	0x3f91ebc2	1.1400073
16	0x3f80d1e7	1.0064057
17	0x3f7e8611	0.9942332
18	0x3f7dcc1a	0.9913956
19	0x3f93c942	1.1545794
20	0x3f7cefbd	0.9880331
21	0x3f852638	1.0402288
22	0x3f861866	1.0476196
23	0x3f833c63	1.0252804
24	0x3f89839d	1.074329
25	0x3f7587a8	0.9591012
26	0x3f7d7d2d	0.9901913
27	0x3f8a27db	1.0793413
28	0x3f94081c	1.1564975
29	0x3f991e57	1.1962384
30	0x3f856bdf	1.0423545
31	0x3f911125	1.1333357
32	0x3f78c0b8	0.97169065
33	0x3f914482	1.1349032
34	0x3f8866df	1.0656394
35	0x3f8cc56a	1.0997746
36	0x3f8d2757	1.102763
37	0x3f898438	1.0743475
38	0x3f7f2ac7	0.9967465
39	0x3f828da3	1.0199474
40	0x3f7bea7e	0.9840468
41	0x3fa523f7	1.2901601
42	0x3f957f22	1.1679423
43	0x3f91a927	1.1379746
44	0x3f856807	1.0422372
45	0x3f826bec	1.0189185
46	0x3f900efd	1.1254574
47	0x3f7cb396	0.98711526
48	0x3f7d2ac0	0.98893356
49	0x3f8a188f	1.0788745
50	0x3f88682f	1.0656794
51	0x3f754383	0.9580614
52	0x3f9947c0	1.1975021
53	0x3f71b9c0	0.94424057
54	0x3f7e0ddc	0.992399
55	0x3f7d1883	0.98865527
56	0x3f8f5a48	1.1199427
57	0x3f86f9dd	1.0545002
58	0x3f705c24	0.93890595
59	0x3f7e0bea	0.9923693
60	0x3f8f0a1b	1.1174959
61	0x3f7ca7ea	0.98693717
62	0x3f79e676	0.9761728
63	0x3f8ddfb2	1.1083891
64	0x3f7c553d	0.98567563
65	0x3f813f7e	1.0097501
66	0x3f8aa7c6	1.083245
67	0x3f821bf0	1.0164776
68	0x3f7f112d	0.99635583
69	0x3f771a49	0.9652448
70	0x3f88df9a	1.0693238
71	0x3f94a690	1.1613331
72	0x3f8a4bea	1.0804417
73	0x3f8f1e2d	1.1181084
74	0x3f8371fd	1.0269161
75	0x3f67a75c	0.90489745
76	0x3f9bf4f5	1.218413
77	0x3f72bda5	0.94820625
78	0x3f92f835	1.1481997
79	0x3f9293f8	1.1451406
80	0x3f65e62d	0.89804345
81	0x3f7ebdc7	0.9950833
82	0x3f768b11	0.9630595
83	0x3f7d0e95	0.98850375
84	0x3f8a9b28	1.08286
85	0x3f7b16e0	0.9808178
86	0x3f896cc0	1.0736313
87	0x3f895bb3	1.0731109
88	0x3f84ebe9	1.0384494
89	0x3f90ec88	1.1322184
90	0x3f7f223f	0.9966163
91	0x3f809c67	1.004773
92	0x3f66a27d	0.9009169
93	0x3f7dc83b	0.9913365
94	0x3f85d993	1.0457023
95	0x3f77d412	0.9680797
96	0x3f8e0bab	1.1097311
97	0x3f823be8	1.0174532
98	0x3f85704f	1.0424899
99	0x3f89d431	1.0767881
100	0x3f6f5ee7	0.93504184
101	0x3f89780b	1.0739759
102	0x3f6fef7c	0.937248
103	0x3f88f9b7	1.0701207
104	0x3f863f9d	1.0488163
105	0x3f77b81d	0.9676531
106	0x3f5f7285	0.8728412
107	0x3f7f27e9	0.99670273
108	0x3f7c7538	0.9861636
109	0x3f84461c	1.0333896
110	0x3f7e35e0	0.99300957
111	0x3f8ec1f1	1.1152936
112	0x3f877f7a	1.0585778
113	0x3f8792c1	1.0591661
114	0x3f5b030c	0.85551524
115	0x3f856203	1.0420536
116	0x3f894e25	1.0726973
117	0x3f8ef95d	1.116985
118	0x3f8abf20	1.0839577
119	0x3f7071e4	0.93923783
120	0x3f91f139	1.140174
121	0x3f7f77b2	0.99792016
122	0x3f8ba400	1.0909424
123	0x3f8919d6	1.071101
124	0x3f8e0473	1.1095108
125	0x3f8d25c2	1.1027148
126	0x3f880ccd	1.0628906
127	0x3f8476c2	1.0348742
128	0x3f8ea6c0	1.1144638
129	0x3f7d5eea	0.9897295
130	0x3f92368d	1.1422898
131	0x3f7e20b7	0.9926867
132	0x3f923e30	1.1425228
133	0x3f81b345	1.0132834
134	0x3f8ab407	1.083619
135	0x3f89dd48	1.0770655
136	0x3f84b61a	1.0368073
137	0x3f80fa9d	1.0076481
138	0x3f838ccd	1.0277344
139	0x3f913202	1.1343386
140	0x3f69339a	0.9109436
141	0x3f837bf8	1.0272207
142	0x3f808a21	1.0042154
143	0x3f939877	1.1530904
144	0x3f79d0e6	0.9758438
145	0x3f897051	1.0737401
146	0x3f8da708	1.1066599
147	0x3f822de0	1.017025
148	0x3f751264	0.95731187
149	0x3f7c9c94	0.9867642
150	0x3f8154cf	1.0104007
151	0x3f86d219	1.0532867
152	0x3f7bb0e3	0.9831678
153	0x3f813d6e	1.0096872
154	0x3f632521	0.8872853
155	0x3f95d8d2	1.1706793
156	0x3f72b2f8	0.94804335
157	0x3f9137bb	1.1345133
158	0x3f84033a	1.0313485
159	0x3f7682ea	0.9629351
160	0x3f8ccbaf	1.0999659
161	0x3f889b84	1.067246
162	0x3f869f7e	1.0517423
163	0x3f760144	0.9609568
164	0x3f7e3015	0.9929212
165	0x3f85da96	1.0457332
166	0x3f7b0c6c	0.9806583
167	0x3f870a1f	1.0549964
168	0x3f7e3438	0.9929843
169	0x3f9dcc6b	1.2328008
170	0x3f78a4e1	0.97126585
171	0x3f7d4b58	0.9894309
172	0x3f8551bb	1.0415567
173	0x3f793f03	0.97361773
174	0x3f8b5aee	1.0887125
175	0x3f8f064e	1.1173799
176	0x3f77fb59	0.968679
177	0x3f960611	1.1720601
178	0x3f8f606a	1.1201298
179	0x3f7a5c37	0.9779696
180	0x3f871c64	1.0555539
181	0x3f82e3ac	1.022573
182	0x3f85e773	1.0461258
183	0x3f9a2237	1.2041692
184	0x3f82df49	1.0224391
185	0x3f83c61e	1.0294836
186	0x3f88aec1	1.0678331
187	0x3f874276	1.0567157
188	0x3f780a64	0.96890855
189	0x3f874629	1.0568286
190	0x3f6335ea	0.8875414
191	0x3f84085f	1.0315055
192	0x3f6dde90	0.9291773
193	0x3f704287	0.9385151
194	0x3f6f5f91	0.935052
195	0x3f7c46c0	0.98545456
196	0x3f84adcd	1.036554
197	0x3f7d7b63	0.990164
198	0x3f797c90	0.9745569
199	0x3f925869	1.1433231
200	0x3f7a405d	0.9775446
201	0x3f8ac512	1.0841391
202	0x3f795365	0.97392875
203	0x3f7fec14	0.999696
204	0x3f744b2d	0.9542721
205	0x3fa4874d	1.285379
206	0x3f80f1c6	1.0073783
207	0x3f845e0b	1.03412
208	0x3f730ffe	0.9494628
209	0x3f7d1046	0.98852956
210	0x3f8076a7	1.003621
211	0x3f821acd	1.0164429
212	0x3f7d592e	0.989642
213	0x3f9520a0	1.1650581
214	0x3f74f6ac	0.9568889
215	0x3f8afcaf	1.0858363
216	0x3f76acf3	0.9635765
217	0x3f8571aa	1.0425313
218	0x3f876e22	1.0580485
219	0x3f57f62a	0.8435999
220	0x3f856d83	1.0424045
221	0x3f876db1	1.058035
222	0x3f978428	1.1837206
223	0x3f8cf513	1.1012291
224	0x3f898034	1.074225
225	0x3f897668	1.073926
226	0x3f98e978	1.1946249
227	0x3f81bafa	1.0135186
228	0x3f854875	1.0412737
229	0x3f849e86	1.0360878
230	0x3f7b4e53	0.9816639
231	0x3f89254d	1.0714508
232	0x3f878484	1.0587316
233	0x3f897191	1.0737783
234	0x3f86e1a5	1.0537611
235	0x3f96749f	1.175434
236	0x3f98fd95	1.1952387
237	0x3f86b949	1.0525295
238	0x3f859281	1.0435334
239	0x3f9363ae	1.1514795
240	0x3f7eda5e	0.9955195
241	0x3f6218c7	0.8831906
242	0x3f86fb63	1.0545467
243	0x3f82fc12	1.0233176
244	0x3f872313	1.0557579
245	0x3f82937c	1.0201259
246	0x3f953e8a	1.165971
247	0x3f8a60a6	1.0810745
248	0x3f7d8aeb	0.99040097
249	0x3f8779e1	1.058407
250	0x3f888732	1.0666258
251	0x3f9269e3	1.1438564
252	0x3f7dff8e	0.9921807
253	0x3f7a2622	0.97714436
254	0x3f876a89	1.0579387
255	0x3f6b1bca	0.9183928

module.base.1.layers.2.bias f4 [256]
0	0x3c980e48	0.018561497
1	0x3d65b91e	0.056084745
2	0x3d36fe94	0.04467638
3	0x3cefc6db	0.029269626
4	0x3d51d0ae	0.051224403
5	0xbda60921	-0.0810721
6	0x3da691ec	0.08133301
7	0x3d7d60d2	0.061859913
8	0xbd40683f	-0.046974417
9	0x3d91af88	0.07113558
10	0x3c812ded	0.01576897
11	0x3b837278	0.0040114485
12	0x3d1bfd7d	0.038083542
13	0x3d127e66	0.035765074
14	0x3d8e4880	0.06947422
15	0xbc82d32c	-0.015969835
16	0xbdc1bc80	-0.09459782
17	0x3caa0793	0.020755565
18	0xbd55fecb	-0.052244943
19	0xbd22766f	-0.03966373
20	0xbd61ae9a	-0.055098154
21	0xb98f0e1d	-0.000272856
22	0xbd980372	-0.07422532
23	0x3d259f21	0.04043496
24	0xbd9982ca	-0.07495649
25	0xbd8770b1	-0.06613291
26	0x3d8108a6	0.06300478
27	0x3d45e9d0	0.048318684
28	0xbc59a5f6	-0.013284197
29	0x3cb9624f	0.022629885
30	0xbd5b57cd	-0.05355053
31	0x3dfe2d4c	0.124109834
32	0xbdc8a7fc	-0.097976655
33	0x3b334392	0.0027353507
34	0x3d5d8e10	0.05409056
35	0x3d56c542	0.052434213
36	0xbd043e01	-0.032285694
37	0xbd94feb7	-0.072751455
38	0x3b58f894	0.0033107148
39	0x3c9f71eb	0.0194635
40	0x3dae6e19	0.08517093
41	0x3d52d123	0.05146898
42	0x3d2dcdfb	0.042432766
43	0xbc01e345	-0.00792772
44	0x3d1bebcb	0.038066667
45	0x3d0d4132	0.034486003
46	0x3c8ab4d2	0.016931925
47	0xbd454a8f	-0.048166808
48	0xbd82f4d9	-0.06394357
49	0xbd3039ca	-0.043023862
50	0xbd195a87	-0.03743985
51	0xbd33b24d	-0.043871213
52	0x3c126fbd	0.008937773
53	0xbd049cbb	-0.032376032
54	0xbbff80eb	-0.0077973506
55	0x3cc599e6	0.024121236
56	0xbd9e322a	-0.07724412
57	0x3cb13499	0.021631526
58	0x3d969191	0.07351983
59	0x3be9e2ab	0.0071376166
60	0xbd66db75	-0.056361634
61	0xbd69b839	-0.057060454
62	0xbcf6e9d4	-0.030140795
63	0xbd11cf93	-0.03559835
64	0xbd8b7340	-0.068090916
65	0x3da24720	0.07923722
66	0xbc5b2c7d	-0.013377306
67	0xbd4ff013	-0.050766062
68	0xbc19f611	-0.009397046
69	0x3d1d974c	0.038474366
70	0x3c70fc54	0.014708597
71	0x3c10d9a4	0.008840952
72	0x3a2925e3	0.0006452484
73	0x3b342f62	0.0027494063
74	0x3dc88bcb	0.097922884
75	0x3d45c989	0.048287902
76	0xbcaf9057	-0.021431131
77	0x3d234a18	0.039865583
78	0x3d6aff99	0.057372663
79	0x3cd1e2f5	0.025620917
80	0x3d3de1b9	0.046357844
81	0xbdbde184	-0.09271529
82	0x3d653261	0.05595625
83	0xbda82a0e	-0.08211146
84	0x3c207fc7	0.0097960895
85	0xbd26d05c	-0.04072605
86	0xbd32dcee	-0.043667726
87	0xbd1963e3	-0.037448775
88	0xbcde350b	-0.027124902
89	0xbc82bf9c	-0.015960507
90	0x3cf6d65d	0.030131513
91	0x3c79c795	0.015245338
92	0x3bf04909	0.007332925
93	0xbcca98ac	-0.024731003
94	0x3d51e827	0.05124679
95	0xbd926663	-0.07148435
96	0x3d88af95	0.066741146
97	0x3c1c482c	0.0095386915
98	0x3d3a2ec3	0.04545475
99	0x3c61f8c7	0.013792223
100	0xbd11d716	-0.035605513
101	0x3c59fd4d	0.0133050205
102	0xbcaeb619	-0.021327065
103	0x3d6aae58	0.057295173
104	0x3c9a52e1	0.018838348
105	0xbced6246	-0.028977524
106	0x3d04032f	0.0322296
107	0xbd1dd733	-0.038535308
108	0x3d510dbc	0.05103849
109	0xbd360068	-0.04443398
110	0x3d8d245d	0.06891701
111	0xbc58e29c	-0.013237622
112	0x3bbb8763	0.0057229265
113	0x3d34c2fe	0.04413127
114	0x3d4d75dd	0.05016123
115	0xbd1a1859	-0.037620876
116	0xba7db870	-0.00096786674
117	0x3da1e35f	0.07904696
118	0x3da56a5a	0.080769256
119	0x3c962032	0.018325899
120	0xbd6be7b9	-0.057594035
121	0x3c95e5a6	0.018297981
122	0xbca3c4bc	-0.019991271
123	0x3c5ec295	0.013596197
124	0x3d82d7f5	0.06388847
125	0xbc7ec561	-0.0155499885
126	0xbd69fa1b	-0.057123285
127	0xbcf145b8	-0.02945219
128	0xbcffa110	-0.03120473
129	0xbd82ab88	-0.06380373
130	0xbd3b1b13	-0.045680117
131	0xbd86ac4c	-0.06575832
132	0xbc9549d3	-0.018223679
133	0x3d51cb6c	0.05121939
134	0x3d186724	0.037207738
135	0x3d8d2de2	0.06893517
136	0x3cf754a2	0.030191723
137	0xbd8c51cb	-0.06851538
138	0xbc8294aa	-0.01594003
139	0xbd5bf834	-0.0537035
140	0xbb551b84	-0.0032517621
141	0xbd567edd	-0.05236708
142	0xbd45a76f	-0.04825538
143	0x3d2f7916	0.042840086
144	0x3c17019a	0.00921669
145	0x3ccfb85e	0.025356468
146	0xbd384d0b	-0.04499535
147	0x3d41643e	0.04721474
148	0x3d6db0db	0.05802999
149	0x3d938671	0.07203377
150	0x3db1e251	0.086857446
151	0x3c8b5c3c	0.017011754
152	0x3cf55347	0.029946936
153	0xbb421ab6	-0.0029617972
154	0xbcb4bab9	-0.022061693
155	0x3dde77a8	0.10862666
156	0x3d00ce4d	0.031446744
157	0x3c85a863	0.016315645
158	0xbd1ef915	-0.038811762
159	0xbd94d2ce	-0.0726677
160	0x3c695540	0.014241517
161	0xbc4cbdeb	-0.012496452
162	0x3d0d5da2	0.034513123
163	0x3cc241ab	0.023712954
164	0xbcd276c3	-0.025691396
165	0xbd574e47	-0.052564885
166	0xbdcc2594	-0.09968105
167	0x3d8f002f	0.06982457
168	0xbb8c0439	-0.0042729643
169	0x3d11bbee	0.035579614
170	0x3d2f070f	0.04273134
171	0xbd8ac763	-0.06776311
172	0x3ddaa2fe	0.106756195
173	0x3d34de8e	0.044157557
174	0x3cc070fd	0.023491377
175	0xbd8b2ccb	-0.06795653
176	0x3d56e60f	0.052465495
177	0x3d6a48ae	0.05719822
178	0xbd811b7b	-0.063040696
179	0xbba4c1eb	-0.0050279996
180	0xbd24ea99	-0.040262792
181	0x3d4edc34	0.05050297
182	0xbda61f6b	-0.08111461
183	0xbcb71cd6	-0.022352617
184	0xbd92b0e5	-0.07162646
185	0x3c6cb3f6	0.014447203
186	0x3cd1f2aa	0.025628407
187	0xbc4d888e	-0.012544764
188	0x3dac4fe6	0.08413677
189	0xbcc97138	-0.02459012
190	0x3b19a97f	0.0023446975
191	0xbdc6b313	-0.097021244
192	0x3d9b6303	0.07587244
193	0xbd81cbe9	-0.06337721
194	0x3c3bb47a	0.011456603
195	0x3d9c83c6	0.07642321
196	0x3d6e2b05	0.058146495
197	0x3d060242	0.032716997
198	0xbd78748e	-0.06065803
199	0x3ccdfed2	0.025145922
200	0xbd946fc4	-0.0724788
201	0x3d2ba22f	0.041902717
202	0xbc5a21b7	-0.013313702
203	0x3d3a21d7	0.04544243
204	0xbd542d56	-0.05180105
205	0xbc90a20a	-0.017655391
206	0xbcbbef5c	-0.022941284
207	0x3cc9b6aa	0.024623234
208	0xbc057494	-0.00814547
209	0x3d5da396	0.054111086
210	0xbdba06ff	-0.09083366
211	0xbd0ceca6	-0.034405373
212	0xbd413ec5	-0.047179002
213	0xbbee734b	-0.0072769276
214	0xbd9d4a3f	-0.07680177
215	0xbc8cc60b	-0.017184278
216	0x3ce9744a	0.028497834
217	0xbbacb607	-0.005270723
218	0xbcdb2d9c	-0.026755147
219	0x3d436667	0.04770508
220	0xbd0d151d	-0.034443963
221	0x3d02a18d	0.031892348
222	0x3dd4e126	0.10394506
223	0x3d8573e3	0.06516244
224	0x3d057c57	0.032589283
225	0x3d5c02d0	0.05371362
226	0xbd8efd9e	-0.069819674
227	0x3b57ad26	0.00329096
228	0xbd0b0fdb	-0.033950668
229	0x3c160b76	0.009158006
230	0x3d00b2f1	0.03142065
231	0x3cb63473	0.022241807
232	0xbda072ff	-0.07834434
233	0xbd0d7714	-0.03453739
234	0x3dc887ad	0.09791503
235	0x3cd12a46	0.025532853
236	0x3d355cdc	0.04427801
237	0xbd84f36c	-0.064917415
238	0x3bf29774	0.0074033085
239	0x3d3aea12	0.045633383
240	0xbd9a2caa	-0.0752805
241	0xbcae81c0	-0.021302104
242	0xbde03f31	-0.10949553
243	0x3ca0b042	0.019615296
244	0xbd4830bf	-0.048874613
245	0xbb2a3336	-0.0025970466
246	0x3d253f2e	0.040343456
247	0xbc122a74	-0.008921254
248	0xbd6fb41c	-0.058521375
249	0x3db176ae	0.086652145
250	0xbba410f5	-0.0050069042
251	0xbda270f2	-0.07931699
252	0xbd1e55a3	-0.03865589
253	0xbcf39401	-0.02973366
254	0xbce0743f	-0.02739918
255	0x3d241576	0.04005953

module.base.1.layers.3.weight f4 [128, 256]
0	0xbdd9f100	-0.1064167
1	0x3da2ac82	0.079430595
2	0x3cfb9693	0.030711448
3	0x3cce74c9	0.025202172
4	0xbe02cf01	-0.12774278
5	0xbda55904	-0.08073619
6	0xbc12bac4	-0.008955661
7	0x3d0e91e9	0.03480712
8	0x3bc99bcb	0.006152605
9	0xbd04bc30	-0.032406032
10	0x3c4bbabe	0.0124346595
11	0x3d9ebfd8	0.07751435
12	0xbdd4cd16	-0.103906795
13	0x3d5d1478	0.0539746
14	0xbc051337	-0.008122257
15	0xbd892d80	-0.066981316
16	0xbdac6f28	-0.08419639
17	0xbce28fda	-0.027656484
18	0x3d3f19c4	0.04665543
19	0x3e1adb36	0.15122685
20	0xbd8978fa	-0.067125276
21	0xbc830272	-0.015992377
22	0x3c442c09	0.011973389
23	0xbca0f335	-0.01964722
24	0xbc6d4964	-0.01448283
25	0x3d4c76b1	0.04991788
26	0xbdfae04b	-0.12249812
27	0x3dca03e8	0.09864026
28	0x3dc6e3dc	0.097114295
29	0x3df1e85a	0.11811896
30	0x3b9c206f	0.0047646086
31	0x3d9d57f8	0.07682794
32	0xbd0e8d8b	-0.034802955
33	0x3c8c3fcd	0.017120266
34	0x3d9991dc	0.074985236
35	0xbd7bb13b	-0.061448317
36	0xbc094abe	-0.008379636
37	0x3cefbaf3	0.029263949
38	0x3d89df06	0.067319915
39	0xbc565d0d	-0.0130837085
40	0xbcb66a7c	-0.022267573
41	0x3c185271	0.009296999
42	0x3cc88c22	0.024480883
43	0x3c1b019b	0.009460832
44	0x3d016ad5	0.031596024
45	0xbd96c2d5	-0.0736138
46	0xbd1f5941	-0.03890348
47	0x3dd2eb17	0.10298746
48	0x3c87e5ff	0.016589163
49	0x3d1bc5ed	0.038030554
50	0x3d5b8668	0.053594977
51	0x3cf9948c	0.03046634
52	0x3cccaba8	0.024984196
53	0x3b8e1396	0.004335831
54	0xbd8d9aec	-0.06914315
55	0x3bd4540e	0.0064797467
56	0x3d810d3a	0.06301351
57	0xbe1e6eee	-0.15472004
58	0x3d53c56c	0.051701948
59	0xbdad8891	-0.084733136
60	0x3cd89137	0.026436431
61	0x3d48db22	0.049037106
62	0x3d44f501	0.048085216
63	0xbd06e9bd	-0.032937754
64	0xbdad0c72	-0.084496394
65	0x3d29b032	0.0414278
66	0x3d604720	0.05475533
67	0x3c47c57d	0.012193081
68	0x3dd20b30	0.1025604
69	0x3c4c8469	0.012482741
70	0x3d843645	0.064556636
71	0xbd9bb3a5	-0.07602624
72	0x3cb9983f	0.022655604
73	0xbd102507	-0.035191562
74	0x3dbc7b0a	0.09203155
75	0xbd20cb00	-0.039256096
76	0x3d497260	0.049181342
77	0x3997552b	0.0002886442
78	0xbcd04c09	-0.025426881
79	0xbe1f5ab9	-0.15561952
80	0xbd016a36	-0.03159543
81	0xbdc90350	-0.09815085
82	0xbbd1eace	-0.0064061647
83	0x3c6ee16a	0.01458011
84	0xbd4ed2ff	-0.05049419
85	0x3cd50e05	0.026007662
86	0xbc1244c9	-0.0089275325
87	0xbc72b8f6	-0.014814606
88	0x3d03448b	0.03204779
89	0xbd3deeb8	-0.046370238
90	0x3c3e4b00	0.011614561
91	0x3d18758a	0.03722147
92	0x3d309cd9	0.04311833
93	0x3c2573db	0.010098423
94	0xbd16f9e3	-0.036859404
95	0xbbdaaab4	-0.0066731814
96	0x3d84151f	0.06449341
97	0xbd775d9d	-0.06039201
98	0x3db754d6	0.08951728
99	0x3d8b1f14	0.06793037
100	0xbd05f67f	-0.03270578
101	0x3c879edc	0.016555242
102	0x3c9cc40e	0.019136455
103	0xbdad062e	-0.08448444
104	0xbd27839a	-0.04089699
105	0xbd910d8f	-0.07082664
106	0xbd011327	-0.031512406
107	0x3d6b264a	0.057409562
108	0xbdaa52a3	-0.08316543
109	0x3bde6467	0.0067868712
110	0xbe27f960	-0.16403723
111	0x3dfa5523	0.1222327
112	0xbe019738	-0.12655342
113	0xbd27cf61	-0.040969256
114	0xbba639c7	-0.0050728056
115	0xbd1ccdd1	-0.03828222
116	0xbd9b31d0	-0.0757786
117	0x3c38be92	0.011275904
118	0xbc941044	-0.018074162
119	0x3d660182	0.05615378
120	0x3d8f30e4	0.06991747
121	0xbb2f28a3	-0.0026727102
122	0x3ccb22fc	0.024796955
123	0xbbd33148	-0.006445084
124	0xbb99c74a	-0.0046929466
125	0xbd987a53	-0.074452065
126	0x3d94e5e4	0.07270411
127	0xbd943987	-0.07237535
128	0xbd7b677a	-0.06137798
129	0xbc5ae5f3	-0.013360488
130	0x3d6f4bac	0.058421776
131	0x3d6e03aa	0.058108963
132	0xbcbd067e	-0.023074385
133	0x3d155b1e	0.03646385
134	0x3d1c20ec	0.038117334
135	0x3d46aa5a	0.048502304
136	0xbc44f299	-0.01202073
137	0x3a9de42f	0.0012046153
138	0x3d3bfc00	0.045894623
139	0xbd9b4409	-0.07581336
140	0xbcec9869	-0.028881269
141	0xbda4c1da	-0.08044787
142	0x3cc6b095	0.024254123
143	0x3a824535	0.0009938838
144	0x3df9043d	0.121590115
145	0xbd6247c6	-0.05524423
146	0xbd7b98f6	-0.06142517
147	0x3d0f796c	0.035027906
148	0xbc836d44	-0.016043313
149	0xbda077d2	-0.07835354
150	0xbd344421	-0.044010285
151	0xbd23a6ec	-0.03995411
152	0x3dcab08b	0.09896954
153	0xbddbe68a	-0.10737331
154	0x3b904cd6	0.004403691
155	0x3bf841fd	0.007576226
156	0x3ddd4ff3	0.10806265
157	0xbd37966f	-0.0448212
158	0x3da1000d	0.07861338
159	0xbd0443bb	-0.032291155
160	0xbd9e6457	-0.07733982
161	0xbdae844c	-0.085213274
162	0x3d9988c7	0.07496791
163	0xbc9cb043	-0.019127017
164	0x3c8a405c	0.016876392
165	0xbd584b6a	-0.052806295
166	0x3d133a3f	0.03594422
167	0xbc856ce2	-0.016287271
168	0xbd7ffb5d	-0.062495578
169	0x3dda5814	0.10661331
170	0xbd2bd773	-0.041953515
171	0xbd33816e	-0.043824606
172	0x3ccd8662	0.025088493
173	0xbc1bbf0b	-0.009505997
174	0xbd762d37	-0.060101714
175	0x3c83bdda	0.01608174
176	0xbd854127	-0.065065674
177	0x3d865f11	0.06561101
178	0xbd23e059	-0.040008876
179	0x3be83f2c	0.007087609
180	0x3c9159b8	0.017742977
181	0xbda989ca	-0.08278234
182	0x3de8c8b4	0.11366406
183	0x3d5823d8	0.05276856
184	0x3ccdff48	0.025146142
185	0xbd9878e0	-0.0744493
186	0x3d99c622	0.07508494
187	0x3df9df07	0.12200742
188	0xbc80f27c	-0.015740626
189	0x3cfd6e33	0.030936336
190	0x3d0a8cb1	0.03382558
191	0x3cc948bc	0.024570815
192	0x3d544cb0	0.051830947
193	0xbd767c49	-0.06017712
194	0xbd0441a8	-0.032289177
195	0xbb11e264	-0.0022260183
196	0xbc8c68e8	-0.017139867
197	0xbd8c6ff0	-0.06857288
198	0x3ce392f0	0.027780026
199	0x3c420171	0.011841164
200	0xbcefe05a	-0.029281784
201	0xbd5f7d0f	-0.054562625
202	0xbc730f45	-0.0148351835
203	0xbd6d424e	-0.05792456
204	0xbc138a51	-0.009005145
205	0x3b3e7356	0.0029060445
206	0xbd142544	-0.03616835
207	0xbdcc6df3	-0.09981909
208	0x3e075f6d	0.13219996
209	0x3d64b7cb	0.05583934
210	0x3c901bb7	0.01759134
211	0x3d8b4ae8	0.068013966
212	0x3dc74e00	0.09731674
213	0x3b91963b	0.0044429577
214	0x3d410ba7	0.047130253
215	0x3d36e43b	0.04465125
216	0xbd6a21e3	-0.057161223
217	0xbd09ef16	-0.033675276
218	0x3d5ee69d	0.05441915
219	0x3d573c7f	0.052547928
220	0xbde5700d	-0.112030126
221	0x3d5f366c	0.05449526
222	0x3d9f36e6	0.07774143
223	0x3d00b7db	0.03142534
224	0xbc6db74b	-0.0145090325
225	0xbc99102a	-0.018684465
226	0x3de58104	0.112062484
227	0x3ce750d4	0.028236784
228	0x3d70a0f6	0.058747254
229	0x3dc95fec	0.09832749
230	0xbd94a298	-0.07257575
231	0xbdca2dc2	-0.09872009
232	0xbc09a786	-0.008401757
233	0xbd444664	-0.047918692
234	0xbcd40e48	-0.025885716
235	0xbc92314f	-0.017845778
236	0xbd2d2bc3	-0.042278063
237	0xbc5eb5ee	-0.01359318
238	0x3d6a03a8	0.057132393
239	0x3d44b21a	0.048021413
240	0x3c004a6a	0.007830242
241	0xbcc2fbbe	-0.02380168
242	0xbc8a8cd9	-0.016912865
243	0x3de25eb7	0.11053222
244	0xbd1ecc0b	-0.03876881
245	0xbdeb8240	-0.114994526
246	0x3d5e9105	0.05433752
247	0xbbc7ce97	-0.0060976255
248	0x3c31d424	0.010853801
249	0x3d00d0be	0.031449072
250	0xbd95dd26	-0.07317571
251	0x3cf1a515	0.029497663
252	0x3da77358	0.08176297
253	0x3c845529	0.016153889
254	0x3c907f72	0.017638896
255	0xbded8607	-0.11597829

module.base.1.layers.3.bias f4 [128]
0	0x3dabff49	0.08398301
1	0xbdc74c90	-0.097314
2	0x3c8ca13a	0.017166723
3	0x3d43f756	0.0478433
4	0xbd5ea9ca	-0.054361142
5	0xbd74c640	-0.05975938
6	0xbc862a84	-0.016377695
7	0xbe2754f8	-0.16341007
8	0x3cc1e883	0.02367044
9	0x3c49a40e	0.01230718
10	0xbc04845d	-0.0080881985
11	0xbd088b2a	-0.033335842
12	0x3d094818	0.03351602
13	0xbd3ca493	-0.046055388
14	0xbdad69ae	-0.084674224
15	0x3d6c9efb	0.057768803
16	0x3d0e2685	0.034704704
17	0x3d4412bd	0.047869433
18	0x3c9b874c	0.018985413
19	0x3d52685f	0.051369067
20	0x3e0f2408	0.13978589
21	0xbd032c42	-0.03202463
22	0xbe20ec86	-0.15715227
23	0xbd7d2d08	-0.061810523
24	0xbdf34f1d	-0.11880324
25	0x3cc35e93	0.023848807
26	0xbb886135	-0.0041619786
27	0xbdb21f0b	-0.08697327
28	0xbdfc684c	-0.123245806
29	0x3d6f907d	0.058487404
30	0x3c140f85	0.009036903
31	0xbdc32303	-0.09528162
32	0xbd59cd43	-0.05317427
33	0xbc6312b6	-0.0138594415
34	0x3d097935	0.033562858
35	0xbaf0f95f	-0.0018384865
36	0x3d827bc6	0.06371264
37	0xbc4f8509	-0.012665995
38	0x3bfbc0b9	0.0076828864
39	0xbade2f14	-0.0016951286
40	0xbd866a8d	-0.06563292
41	0x3d11eb2c	0.035624668
42	0x3cd78185	0.026306877
43	0xbdf202c8	-0.11816937
44	0xbd19fd77	-0.03759524
45	0x3d894b75	0.067038454
46	0x3d48abc7	0.048991945
47	0xbdf83954	-0.121203095
48	0x3d1b32e4	0.03789033
49	0x3d222b32	0.039591976
50	0xbdd6ed29	-0.104944535
51	0xbd1db2a3	-0.03850044
52	0xbc6e5d07	-0.014548547
53	0x3d982dae	0.07430588
54	0xbd123bd1	-0.035701577
55	0xbd295994	-0.041345194
56	0xbd518fbf	-0.051162478
57	0x3d90be09	0.07067496
58	0xbc9ab72e	-0.018886175
59	0x3d7c5ef6	0.061614
60	0x3d105dcd	0.035245705
61	0xbc3f23c7	-0.011666245
62	0xbce6c9f9	-0.02817248
63	0x3cd90429	0.026491242
64	0x3d97bed3	0.07409444
65	0xbdbe4e51	-0.092922814
66	0x3c4042c0	0.011734664
67	0xbd2a2ddb	-0.041547637
68	0xbd61cedd	-0.05512892
69	0x3cd3d614	0.025858916
70	0xbdd56cc8	-0.10421139
71	0x3d243f13	0.040099215
72	0x3bd8f3a5	0.0066208416
73	0x3dccac68	0.099938214
74	0x3dbe2f59	0.092863746
75	0xbd818ee1	-0.0632608
76	0x3c4db30f	0.012554898
77	0x3c93e32b	0.018052658
78	0x3c98614b	0.01860108
79	0x3d9c45c0	0.07630491
80	0x3c2e0f29	0.010623732
81	0x3d985b26	0.0743926
82	0xbd538516	-0.051640593
83	0xbd8b7254	-0.06808916
84	0x3b0b15aa	0.002122263
85	0x3c4df0c4	0.01256961
86	0xbd45ad49	-0.04826096
87	0x3d83f850	0.06443846
88	0x3c694290	0.014237061
89	0x3c27d9b6	0.010244777
90	0xbc3dc35c	-0.011582222
91	0xbdd4a7b5	-0.1038355
92	0x3d222029	0.03958145
93	0xbc93090f	-0.017948655
94	0xbdd81c73	-0.10552301
95	0x3d33699f	0.0438019
96	0xbd9c1fc7	-0.076232485
97	0x3cba404a	0.022735734
98	0x3a88a909	0.0010426353
99	0xbd903a41	-0.07042361
100	0x3da69c34	0.08135262
101	0xbde24b35	-0.11049501
102	0xbdd3eca2	-0.103478685
103	0xbd1dd79c	-0.0385357
104	0xbd0c329e	-0.03422796
105	0xbd2c98ea	-0.042138018
106	0x3d31c7fa	0.043403603
107	0x3c846b08	0.016164318
108	0xbd7c7660	-0.06163633
109	0xbd65e75d	-0.05612885
110	0x3d02d61b	0.031942468
111	0xbced8e91	-0.028998645
112	0xbca3a38f	-0.019975452
113	0x3b7e8d6d	0.003884162
114	0x3db3c6c3	0.08778145
115	0x3ca986c1	0.020694138
116	0xbca7c34c	-0.020478867
117	0xbd69ef0b	-0.057112735
118	0x3c48c6db	0.012254442
119	0x3cfc2939	0.030781375
120	0xbc9d95fb	-0.019236555
121	0x3d4c6bc0	0.049907446
122	0x3d92e25b	0.0717208
123	0xbdc9c1b0	-0.09851396
124	0xbca295bb	-0.019846788
125	0x3dd023a6	0.101630494
126	0xbdfcfffe	-0.12353514
127	0x3d95ec3c	0.07320449

module.base.1.layers.5.weight f4 [128]
0	0x3f8180b5	1.0117403
1	0x3f671674	0.90268636
2	0x3f916c9f	1.1361274
3	0x3f7deabf	0.9918632
4	0x3f9b66c5	1.2140738
5	0x3f6b670f	0.9195413
6	0x3f8c7b1b	1.0975069
7	0x3f9271cd	1.1440979
8	0x3f7ba0cd	0.9829224
9	0x3f9d7bb6	1.2303379
10	0x3f8005d1	1.0001775
11	0x3f7d2a27	0.98892444
12	0x3f8b7b94	1.0897088
13	0x3f89d929	1.0769397
14	0x3f917f39	1.136695
15	0x3f8c19b4	1.0945344
16	0x3f8a3521	1.0797464
17	0x3f8a671b	1.0812715
18	0x3f915671	1.1354505
19	0x3f87c50a	1.0607007
20	0x3f8eaf4b	1.1147245
21	0x3f76756f	0.9627294
22	0x3f8ff05c	1.1245227
23	0x3f87f563	1.0621761
24	0x3f879ba5	1.0594374
25	0x3f750cf1	0.9572287
26	0x3f7b59d1	0.98183924
27	0x3f94c733	1.1623291
28	0x3f89d07e	1.0766752
29	0x3f8e9289	1.1138469
30	0x3f83c88e	1.029558
31	0x3f92b2d4	1.1460824
32	0x3f91d19d	1.1392094
33	0x3f848e0d	1.035585
34	0x3f8e184b	1.1101164
35	0x3f747440	0.95489883
36	0x3f89e78b	1.0773786
37	0x3f83f66b	1.0309576
38	0x3f74038a	0.953179
39	0x3f8b9f97	1.0908078
40	0x3f80604d	1.0029389
41	0x3f8f4cbc	1.1195292
42	0x3f7f8ff8	0.99829054
43	0x3f83908a	1.0278485
44	0x3f824b98	1.0179319
45	0x3f80abd6	1.005244
46	0x3f758b10	0.9591532
47	0x3f85cab5	1.0452486
48	0x3f76fff8	0.9648433
49	0x3f86aaf7	1.0520924
50	0x3f8cbf7a	1.0995934
51	0x3f8b48cd	1.0881592
52	0x3f76c313	0.9639141
53	0x3f8b6b91	1.0892202
54	0x3f964e11	1.1742574
55	0x3f9ca5ef	1.2238139
56	0x3f8613dd	1.0474812
57	0x3f88749c	1.0660586
58	0x3f85400b	1.0410169
59	0x3f86d6fa	1.0534356
60	0x3f76f1b9	0.9646259
61	0x3f79bc11	0.9755259
62	0x3f8f7e20	1.1210365
63	0x3f7bfa53	0.9842884
64	0x3f9450fc	1.1587214
65	0x3f881fb0	1.063467
66	0x3f6883d7	0.9082617
67	0x3f8ad501	1.0846254
68	0x3f86f700	1.0544128
69	0x3f857eaa	1.042928
70	0x3f907062	1.1284297
71	0x3f8d550e	1.1041582
72	0x3f8ba2d4	1.0909066
73	0x3f6bdb6a	0.92131674
74	0x3f8b46c7	1.0880975
75	0x3f8fc3c4	1.1231618
76	0x3f7fd725	0.9993766
77	0x3f8f22c5	1.1182486
78	0x3f925fd5	1.1435496
79	0x3f84af0f	1.0365924
80	0x3f84ac65	1.0365111
81	0x3f86ad8d	1.0521713
82	0x3f879ee7	1.0595368
83	0x3f887801	1.0661622
84	0x3f5e7418	0.86895895
85	0x3f8b47c0	1.0881271
86	0x3f950a3b	1.1643747
87	0x3f92285d	1.1418568
88	0x3f7935bc	0.9734762
89	0x3f7811ca	0.96902144
90	0x3f6fba4f	0.9364366
91	0x3f9b4975	1.2131792
92	0x3f8e8d7e	1.113693
93	0x3f736960	0.95082664
94	0x3f80a888	1.0051432
95	0x3f87f03f	1.0620192
96	0x3f810b9d	1.0081669
97	0x3f868051	1.0507909
98	0x3f8e4940	1.1116104
99	0x3f79484f	0.9737596
100	0x3f89cb07	1.0765084
101	0x3f84a9b0	1.0364285
102	0x3f908d4e	1.1293123
103	0x3f91f7da	1.1403763
104	0x3f819d59	1.0126144
105	0x3f7e0b9c	0.99236465
106	0x3f7c8367	0.98638004
107	0x3f94cf86	1.1625831
108	0x3f909215	1.1294581
109	0x3f8dbded	1.1073586
110	0x3f8545bf	1.041191
111	0x3f84a461	1.0362664
112	0x3f89aa3a	1.0755074
113	0x3f80c53d	1.0060192
114	0x3f8257b1	1.0183011
115	0x3f93fd39	1.1561652
116	0x3f865269	1.04939
117	0x3f5d1d88	0.86373186
118	0x3f970dea	1.1801121
119	0x3f76fa56	0.9647573
120	0x3f883326	1.0640609
121	0x3f8d1047	1.1020592
122	0x3f79ba41	0.97549826
123	0x3f8c791d	1.0974461
124	0x3f795317	0.9739241
125	0x3f849ebd	1.0360943
126	0x3f8185a8	1.0118914
127	0x3f86c093	1.0527519

module.base.1.layers.5.bias f4 [128]
0	0x3d8219d5	0.06352583
1	0xbb952b1d	-0.0045522586
2	0x3cd39040	0.02582562
3	0x3d639b04	0.055567756
4	0xbdda1041	-0.106476314
5	0x3d689725	0.056784768
6	0xbd0f674e	-0.03501063
7	0xbe2745d0	-0.16335225
8	0x3d6d834d	0.057986546
9	0xbd387369	-0.04503194
10	0xbc8312c7	-0.016000165
11	0xbd092ab9	-0.03348801
12	0xbcae708a	-0.021293897
13	0xbd61c52a	-0.05511967
14	0xbe0fb231	-0.14032818
15	0x3dc1e8e1	0.09468246
16	0xbd1ad2ca	-0.03779868
17	0x3dff1896	0.12455861
18	0xbd5fd66e	-0.054647855
19	0x3d68d914	0.056847647
20	0x3e08c497	0.13356243
21	0x3d7a6ee6	0.061140917
22	0xbde4c5c4	-0.11170533
23	0xbc2ac17a	-0.010422105
24	0xbd86b2ad	-0.065770485
25	0x3d855b2a	0.06511529
26	0x3d7c0e20	0.06153691
27	0xbe3fa5bc	-0.18715566
28	0xbdbfc3a0	-0.093634844
29	0xbd899227	-0.067173295
30	0x3d377dd7	0.044797745
31	0xbe055a6a	-0.13022771
32	0xbc672591	-0.014108078
33	0x3d84e486	0.064889
34	0xbde36ee6	-0.111051366
35	0xbc9e8267	-0.01934929
36	0x3dacb6ca	0.08433302
37	0xbd806a8c	-0.06270322
38	0xbc3340f2	-0.010940777
39	0x3dcde25b	0.100529395
40	0xbd8b2745	-0.067945994
41	0x3d808b60	0.06276584
42	0x3d8e591d	0.06950591
43	0xbd825918	-0.063646495
44	0xbd789a8a	-0.060694255
45	0x3dad2174	0.08453646
46	0x3dce12cd	0.1006218
47	0xbd935c7b	-0.071953736
48	0x3c93be93	0.018035209
49	0x3db1d123	0.08682468
50	0xbdc78f91	-0.0974418
51	0xbdb48de6	-0.088161275
52	0x3a79d01e	0.0009529608
53	0x3d964b84	0.07338622
54	0xbdbd5715	-0.09245125
55	0xbd96f0be	-0.07370137
56	0xbd93ae9d	-0.07211039
57	0x3d963a92	0.0733539
58	0x3d828495	0.06372944
59	0xbbb0d86e	-0.005396894
60	0x3da03630	0.078228354
61	0x3cc4b3d1	0.024011524
62	0xbdfead6d	-0.12435422
63	0x3d1e82b6	0.038698874
64	0xbc66bb4b	-0.01408274
65	0xbcdaff9a	-0.026733208
66	0x3c602762	0.013681265
67	0xbc779703	-0.015111688
68	0xbcd95e85	-0.026534328
69	0xbd69ee62	-0.057112105
70	0xbdffe1a5	-0.1249421
71	0xbd8183cb	-0.06323966
72	0xbce2c5dc	-0.027682237
73	0x3de61437	0.112343244
74	0x3dcfee55	0.1015288
75	0xbd42b5d4	-0.047536686
76	0xbc9c676e	-0.019092288
77	0xbd10db05	-0.035365123
78	0xbd6b81c0	-0.057496786
79	0x3d39b935	0.045342643
80	0xbcba4f11	-0.02274278
81	0x3ca6b787	0.020351185
82	0xbdda4b1c	-0.10658857
83	0xbd83676e	-0.06416212
84	0x3d72ab8c	0.05924563
85	0x3dcdb548	0.10044342
86	0xbccbc4fe	-0.024874207
87	0xbbe17686	-0.006880584
88	0x3da36d08	0.079797804
89	0x3c875933	0.016522026
90	0xbd60cfdd	-0.054885734
91	0xbd092e0a	-0.033491172
92	0x3d5ac1ef	0.053407606
93	0x3d45a8ec	0.0482568
94	0xbc7b82e5	-0.015351032
95	0xbd3168c4	-0.043312803
96	0xbd2bfbbc	-0.04198812
97	0xbdb4bc47	-0.088249736
98	0xbce1fea7	-0.027587248
99	0xbd3ca473	-0.04605527
100	0xbd29a2c4	-0.04141499
101	0xbd8ce256	-0.06879108
102	0xbe0b5fa3	-0.13610701
103	0xbdc7620e	-0.09735499
104	0x3d34ede8	0.044172198
105	0xbc76a6e5	-0.015054439
106	0xbc7d7da7	-0.015471852
107	0x3cc9075b	0.02453964
108	0xbc870631	-0.016482444
109	0xbddd3cee	-0.10802637
110	0x3cd24a2b	0.025670132
111	0xbd3a031a	-0.045413114
112	0xbc88a76c	-0.016681395
113	0x3d427dd9	0.0474833
114	0x3d8c2a1d	0.0684397
115	0xbd0d8611	-0.034551684
116	0x3d74d496	0.05977305
117	0x3c8a6baf	0.01689705
118	0x3cdd4c76	0.027013998
119	0xbd4db6e8	-0.05022326
120	0xbd698918	-0.05701551
121	0xbdba486b	-0.09095844
122	0x3d3fcd8a	0.046826877
123	0xbdd78175	-0.10522739
124	0x3cc29972	0.023754809
125	0xbcb5e0e6	-0.022201966
126	0xbd2a3818	-0.0415574
127	0x3d8f2bf9	0.06990809
